gan/discmodel_1.pt (torch, 13631 bytes, 7 tensors)

weight f4 [40, 30]
0.35895622 0.09852677 -0.09053115 -0.3493336 0.04558274 0.30853575 0.09183465 0.12603177
0.14752609 0.010492021 -0.100407705 -0.12818357 -0.20693743 -0.027307132 -0.0759226 -0.31339827
0.21460812 -0.22736086 -0.15579431 0.032018773 0.1412487 0.104805425 -0.017262317 0.076222114
0.045114174 -0.22582756 0.149321 0.103122465 -0.1258541 -0.16661972 -0.16338104 -0.17513941
0.06603392 0.23345087 -0.20313665 0.01781944 0.100543216 -0.045428257 -0.17307773 0.19923493
-0.16097039 -0.20912059 -0.0389476 -0.19639751 -0.087426305 0.07403967 0.0514242 0.109786384
-0.20734902 -0.024861624 -0.114514045 -0.2960367 -0.35346547 -0.10660466 0.08969677 0.08920381
-0.2097075 0.1283997 -0.012854068 -0.020434776 -0.065288804 0.18176824 0.12629001 -0.04737345
-0.070522144 -0.010906025 -0.12019633 -0.029658452 0.059274733 -0.0946138 -0.06523671 0.07074347
-0.03724612 -0.111382574 0.017101474 0.03129737 0.05293178 0.1313684 0.011830708 0.008333847
0.15554094 0.14907202 0.1079747 0.019743996 0.081712455 -0.09419348 0.12944405 0.19531439
0.11332496 -0.07354188 -0.21516965 -0.31198364 0.04590332 -0.032086894 -0.04777716 -0.027911913
0.11642832 0.115036085 0.10162231 -0.048586946 -0.011948252 -0.17280251 -0.3094096 -0.09047695
-0.028198335 0.0741935 -0.1413441 0.2875476 0.029498257 -0.16788669 0.10411223 -0.15596132
-0.13446778 0.09515136 0.16744871 0.27951366 -0.03697339 0.12889163 0.15875578 -0.01607474
-0.18279758 0.014724382 -0.21654923 -0.04240518 0.11392119 -0.30437464 0.13580854 -0.09428979
-0.03514314 -0.30085486 0.2666979 -0.20689842 -0.06524605 0.10758434 -0.12995188 -0.06557678
-0.16560578 0.0629471 -0.18391073 -0.15236747 0.058388267 -0.1282184 0.010572421 -0.06460308
-0.2944081 0.0774931 -0.15394714 0.115536176 -0.084475555 0.11039148 0.1380829 -0.13346277
0.11709065 -0.12730971 -0.019021796 0.12138185 -0.08733804 0.083147034 -0.1260913 0.18166882
0.13349175 0.17252952 0.16307896 0.13446757 -0.1462227 0.13678364 0.30623403 -0.1312576
0.165963 -0.12924133 -0.14261493 0.2101453 0.13191468 0.26067945 -0.15750772 -0.10708635
-0.09303244 0.022059545 0.1352977 -0.0041394182 0.14396141 -0.10954736 0.19187719 0.08560911
-0.0024912162 -0.06239348 -0.08040508 0.07240601 -0.03749657 -0.09605207 -0.28182557 0.18612291
0.24765831 0.20091899 -0.063560314 -0.02152654 0.2624712 0.01113225 -0.056629058 0.118684374
0.1378107 -0.3266173 -0.26917696 0.1379415 -0.25053257 -0.32095537 0.04588716 -0.073052526
0.044622093 -0.2885519 -0.18243045 -0.1209517 -0.10389671 0.21090494 -0.006590176 -0.262645
0.21228862 -0.10329478 0.16158141 0.21679501 0.1549746 -0.09872951 0.1001949 -0.09281436
-0.2522695 0.21645589 -0.19729328 0.013042761 -0.11890513 -0.039764635 0.04619403 -0.05740644
0.18343219 0.10139749 -0.23228088 -0.058117617 -0.1366814 -0.13470754 0.020682001 0.19076915
0.12689511 0.18349741 -0.06863775 0.1568335 0.15451875 -0.044507384 0.036085296 0.030227195
-0.08893699 -0.13185011 0.02624195 -0.022580583 -0.09675541 0.084265515 -0.038064774 -0.04841133
00000000: 1cc9 b73e 67c8 c93d 6568 b9bd dbdb b2be
00000010: f8b4 3a3d 66f8 9d3e ce13 bc3d 790e 013e
00000020: 1411 173e bae6 2b3c 8ea2 cdbd 8e42 03be
00000030: 68e7 53be 35b3 dfbc 4f7d 9bbd bd75 a0be
00000040: 3bc2 5b3e 49d1 68be 8b88 1fbe 1e26 033d
00000050: 80a3 103e 3aa4 d63d b469 8dbc 571a 9c3d
00000060: a4c9 383d 573f 67be 9be7 183e df31 d33d
00000070: e6df 00be 5c9e 2abe 5c4d 27be bf57 33be
00000080: cb3c 873d bf0d 6f3e 0e03 50be 13fa 913c
00000090: 9ae9 cd3d fb12 3abd 4a3b 31be 3e04 4c3e
000000a0: 6cd5 24be b523 56be 8587 1fbd 6e1c 49be
000000b0: 900c b3bd 1ca2 973d 2fa2 523d afd7 e03d
000000c0: 4d53 54be 9baa cbbc 5786 eabd 1f92 97be
000000d0: 6df9 b4be 8b53 dabd f1b2 b73d 7db0 b63d
000000e0: 90bd 56be 367b 033e de99 52bc d566 a7bc
000000f0: 23b6 85bd 7421 3a3e 2b52 013e aa0a 42bd
00000100: ea6d 90bd 2faf 32bc 7e29 f6bd 48f6 f2bc
00000110: 10ca 723d e1c4 c1bd d39a 85bd f4e1 903d
00000120: 638f 18bd 8c1c e4bd 6418 8c3c ac31 003d
00000130: ffce 583d 7085 063e 96d5 413c b08a 083c
00000140: 2046 1f3e 56a6 183e d721 dd3d 29be a13c
00000150: dc58 a73d 83e8 c0bd fb8c 043e 7f00 483e
00000160: eb16 e83d 209d 96bd 6f55 5cbe 52bc 9fbe
00000170: 1f05 3c3d 8c6d 03bd fcb1 43bd 86a7 e4bc
00000180: f971 ee3d 0a98 eb3d 5c1f d03d 1b03 47bd
00000190: 9ac2 43bc 24f3 30be ef6a 9ebe fb4b b9bd
000001a0: 3200 e7bc c3f2 973d 82bc 10be 7039 933e
000001b0: 54a6 f13c 7dea 2bbe cb38 d53d 53b4 1fbe
000001c0: ecb1 09be b7de c23d ad77 2b3e 6a1c 8f3e
000001d0: 6971 17bd 2bfc 033e e090 223e 2caf 83bc
000001e0: 4a2f 3bbe 893e 713c 15bf 5dbe 0eb1 2dbd
000001f0: 834f e93d fed6 9bbe 6511 0b3e 011b c1bd
00000200: 41f2 0fbd a609 9abe a18c 883e 2edd 53be
00000210: b99f 85bd 2e55 dc3d 1b12 05be 1e4d 86bd
00000220: 9094 29be 69ea 803d 1853 3cbe 3806 1cbe
00000230: 8928 6f3d af4b 03be f337 2d3c 9f4e 84bd
00000240: a9bc 96be b4b4 9e3d 52a4 1dbe 3b9e ec3d
00000250: 8501 adbd ee14 e23d 9b65 0d3e 77aa 08be
00000260: 39cd ef3d 7a5d 02be 99d3 9bbc 0c97 f83d
00000270: 49de b2bd fe48 aa3d 141e 01be 6407 3a3e
00000280: 10b2 083e 94ab 303e 2cfe 263e deb1 093e
00000290: 67bb 15be 0311 0c3e b5ca 9c3e 6468 06be
000002a0: 34f2 293e d757 04be a609 12be 5430 573e
000002b0: a414 073e c777 853e b449 21be 1750 dbbd
000002c0: cb87 bebd 38b6 b43c 7b8b 0a3e f5a3 87bb
000002d0: 9f6a 133e 5e5a e0bd 747b 443e d453 af3d
000002e0: ac43 23bb 4e90 7fbd 6bab a4bd 9a49 943d
000002f0: 0196 19bd f3b6 c4bd 714b 90be 0197 3e3e
00000300: 249a 7d3e b5bd 4d3e e92b 82bd 6d58 b0bc
00000310: a062 863e 0a64 363c dff3 67bd cb10 f33d
00000320: 401e 0d3e 623a a7be 90d1 89be 8940 0d3e
00000330: ce45 80be 4354 a4be 2df4 3b3d 909c 95bd
00000340: a8c5 363d 13bd 93be 0ccf 3abe 86b5 f7bd
00000350: ccc7 d4bd 77f7 573e 67f2 d7bb 6879 86be
00000360: 3062 593e 378c d3bd 9975 253e 83ff 5d3e
00000370: a9b1 1e3e b332 cabd fc32 cd3d 7515 bebd
00000380: 7829 81be 9da6 5d3e 4007 4abe 4eb1 553c
00000390: 8884 f3bd 3ee0 22bd f435 3d3d 0423 6bbd
000003a0: a6d5 3b3e 7da9 cf3d 0adb 6dbe bd0c 6ebd
000003b0: 35f6 0bbe c6f0 09be 4d6d a93c fd58 433e
000003c0: cbf0 013e bfe6 3b3e f391 8cbd f698 203e
000003d0: 2a3a 1e3e 604d 36bd 2dce 133d 069f f73c
000003e0: 9924 b6bd b703 07be 5cf9 d63c eafa b8bc
000003f0: b327 c6bd 6693 ac3d cfe9 1bbd f54a 46bd

bias f4 [40]
-0.09613076 -0.052661855 0.46307328 -0.11328959 -0.0004501698 -0.022964725 -0.07677235 0.02563265
0.35239077 -0.090722494 -0.058144603 -0.12155134 -0.027709762 0.33813122 0.3312681 0.48403937
-0.09961825 0.2980215 0.55720186 -0.07226254 -0.018566074 -0.036630064 -0.1394213 -0.1108842
-0.06445591 0.10852379 0.024497762 0.07074401 -0.059076734 -0.03188978 0.028888658 -0.19174238
0.44947344 -0.058068667 0.005781855 0.3267552 -0.047291607 -0.05227555 0.025377281 -0.10972973
00000000: 34e0 c4bd f5b3 57bd f117 ed3e 5f04 e8bd
00000010: c504 ecb9 8520 bcbc d23a 9dbd 90fb d13c
00000020: 906c b43e b7cc b9bd 0929 6ebd e9ef f8bd
00000030: 95ff e2bc 891f ad3e f99b a93e 02d4 f73e
00000040: a704 ccbd 4696 983e c8a4 0e3f 62fe 93bd
00000050: e117 98bc 6809 16bd 75c4 0ebe 4117 e3bd
00000060: 7601 84bd b941 de3d 88af c83c 3ce2 903d
00000070: 72fa 71bd dc9e 02bd e8a7 ec3c 1d58 44be
00000080: 6221 e63e 69d9 6dbd b775 bd3b 754c a73e
00000090: d8b4 41bd e31e 56bd 04e4 cf3c fbb9 e0bd

weight f4 [20, 40]
-0.30254707 -0.43821436 -0.44941002 -0.17365895 -0.26197672 -0.42587438 -0.205134 -0.19745252
-0.21076004 -0.1966737 -0.20216821 -0.07155369 -0.2805758 -0.29422364 -0.2745798 -0.42165023
-0.21410328 -0.4840951 -0.30360335 -0.12812378 -0.4867611 -0.17628647 -0.33227986 -0.1019141
-0.19269384 -0.3907318 -0.1978071 -0.38382533 -0.20467916 -0.20577174 -0.39244744 -0.36344093
-0.42641345 -0.16965374 -0.37619218 -0.3400055 -0.35704872 -0.26988953 -0.3342114 -0.32000706
-0.118751645 -0.21968757 0.29874223 -0.17355739 -0.19867904 -0.027012283 -0.26921964 -0.21562299
0.31423357 -0.164992 -0.17540006 -0.35695016 -0.089545615 0.27336234 0.12027989 0.26603866
-0.2844918 0.12954713 0.30265027 -0.04219571 -0.23661517 -0.25571442 -0.14438115 -0.11706794
-0.26812854 0.05581751 -0.18851425 -0.022856036 -0.16069326 -0.09823289 -0.03915076 -0.26482844
0.2127301 -0.23953344 -0.203752 0.24461271 -0.10161971 -0.09733221 0.03466661 -0.19637492
0.18425424 0.15710443 -0.04735242 0.29602894 0.22741075 0.19545569 0.18843207 0.21031608
0.09252723 0.18014374 0.24411236 0.36720118 0.25596866 0.01771964 -0.098315455 -0.034064624
0.22749294 0.067141004 -0.058718342 0.26545596 0.33660975 0.3429579 -0.0015461768 0.12414051
0.17074701 0.23260173 0.085210726 0.2949368 0.25600085 0.13755356 0.3879454 0.26275218
-0.07022258 0.13937715 0.2008572 0.023386717 0.2529596 0.05102267 0.17013231 0.16280319
0.27715623 0.41888946 0.028691227 0.2724531 0.2143439 0.20352839 0.2576029 0.14536634
0.09833814 0.36154127 0.108273216 0.34325844 0.13152875 0.05457971 0.1087543 0.075041525
0.24734038 0.27427655 0.015187346 0.310293 0.20081219 0.27713186 0.26257318 0.089168616
0.37695694 0.3663196 0.20319295 0.18286857 0.32715303 0.1056283 0.34121308 0.10998531
-0.0008632739 0.20081201 0.15907158 -0.07250388 0.16570047 0.20406103 0.25790742 0.06647783
-0.27821702 -0.24431106 0.21888168 -0.12312922 -0.23956074 -0.12963858 -0.034190416 -0.11937436
0.22415519 -0.2748435 -0.21588139 -0.24554017 -0.12039688 0.21977839 0.11802675 0.34719926
-0.16825488 0.042551186 0.22148411 -0.29352826 -0.05973549 -0.087929584 -0.07938833 -0.26693138
-0.19598334 0.015121429 -0.24129423 -0.10935034 -0.2052205 -0.067730926 -0.28528523 -0.3571526
0.32344466 -0.38376033 -0.06820031 0.090029106 -0.16366643 -0.116499215 0.12606427 -0.20794891
0.1487038 0.121614434 -0.15511802 0.3241855 0.16517004 0.19481115 0.19331029 0.30212218
0.103124045 0.21307026 0.06441664 0.057563685 0.17468397 0.14225918 -0.08153726 -0.13464683
0.1292699 0.22154568 0.19782703 0.30204678 0.34471315 0.24826269 0.078055605 0.34923425
0.25224656 0.11528006 0.28808078 0.061420634 0.31433493 0.20406316 0.29386514 0.37718734
-0.12883796 0.25374663 0.16495861 -0.12986152 0.21026535 0.20745628 -0.005398607 0.09455302
-0.3065535 -0.09242256 0.3642167 -0.16192965 -0.04825678 0.111564726 -0.111801244 -0.31109595
0.21050683 -0.1540874 -0.10392076 -0.29004803 -0.26676995 0.2924441 0.12635615 0.3937149
00000000: 73e7 9abe a25d e0be 1219 e6be a7d3 31be
00000010: d021 86be 350c dabe a60e 52be fe30 4abe
00000020: 7bd1 57be d564 49be 2f05 4fbe be8a 92bd
00000030: a2a7 8fbe 7ba4 96be b995 8cbe 8ae2 d7be
00000040: e43d 5bbe 50db f7be e671 9bbe e132 03be
00000050: c038 f9be 7184 34be 9620 aabe 57b8 d0bd
00000060: 8951 45be 000e c8be f28d 4abe c184 c4be
00000070: 6a97 51be d4b5 52be dfee c8be ee14 babe
00000080: dd52 dabe b6b9 2dbe 439c c0be 3315 aebe
00000090: 17cf b6be f62e 8abe c21d abbe f7d7 a3be
000000a0: 1034 f3bd c7f5 60be bef4 983e 07b9 31be
000000b0: 8572 4bbe dd48 ddbc 28d7 89be 46cc 5cbe
000000c0: 39e3 a03e aaf3 28be 139c 33be 2cc2 b6be
000000d0: b163 b7bd 26f6 8b3e 4e55 f63d 3836 883e
000000e0: e9a8 91be 01a8 043e faf4 9a3e 69d5 2cbd
000000f0: 3f4b 72be 00ed 82be a7d8 13be 51c1 efbd
00000100: 2548 89be e7a0 643d e109 41be 953c bbbc
00000110: c68c 24be 532e c9bd 8c5c 20bd 9897 87be
00000120: ebd5 593e 4148 75be 5da4 50be c17b 7a3e
00000130: ff1d d0bd 1c56 c7bd 93fe 0d3d 8216 49be
00000140: 25ad 3c3e fcdf 203e 9cf4 41bd 1b91 973e
00000150: 5dde 683e 8925 483e 56f4 403e 195d 573e
00000160: eb7e bd3d 9a77 383e 97f8 793e cb01 bc3e
00000170: 530e 833e c728 913c 9d59 c9bd 5987 0bbd
00000180: e9f3 683e 3981 893d a582 70bd d8e9 873e
00000190: 1d58 ac3e 2e98 af3e 16a9 caba 613d fe3d
000001a0: 4ed8 2e3e 262f 6e3e f682 ae3d f501 973e
000001b0: 8b12 833e d7da 0c3e c8a0 c63e 7487 863e
000001c0: dbd0 8fbd e2b8 0e3e 83ad 4d3e 8095 bf3c
000001d0: ec83 813e 26fd 503d 2a37 2e3e e1b5 263e
000001e0: 6ce7 8d3e ae78 d63e dd09 eb3c f97e 8b3e
000001f0: f87c 5b3e bf69 503e 87e4 833e eada 143e
00000200: 8265 c93d f01b b93e 59be dd3d 92bf af3e
00000210: 79af 063e f98e 5f3d 93ba de3d 5faf 993d
00000220: cc46 7d3e fa6d 8c3e 59d4 783c b9de 9e3e
00000230: b6a1 4d3e 3ae4 8d3e fe6f 863e 099e b63d
00000240: 8000 c13e 3e8e bb3e d011 503e e641 3b3e
00000250: 9a80 a73e a653 d83d 7bb3 ae3e fa3f e13d
00000260: 554d 62ba aaa1 4d3e a9e3 223e ea7c 94bd
00000270: 62ad 293e 60f5 503e 710c 843e 8725 883d
00000280: 7672 8ebe ae2c 7abe 8522 603e 2c2b fcbd
00000290: 694f 75be fabf 04be 400b 0cbd 8b7a f4bd
000002a0: f088 653e 4ab8 8cbe 0310 5dbe e26e 7bbe
000002b0: a492 f6bd 960d 613e 02b8 f13d 1ac4 b13e
000002c0: 024b 2cbe 274a 2e3d bbcc 623e 5649 96be
000002d0: 33ad 74bd 6d14 b4bd 5996 a2bd 3bab 88be
000002e0: dbaf 48be dfbf 773c d615 77be 12f3 dfbd
000002f0: 5325 52be 83b6 8abd e810 92be b5dc b6be
00000300: 8a9a a53e 3c7c c4be 9bac 8bbd 2e61 b83d
00000310: 2c98 27be 2497 eebd fe16 013e 8ff0 54be
00000320: cf45 183e fd10 f93d 42d7 1ebe a4fb a53e
00000330: 5622 293e 937c 473e 22f3 453e c2af 9a3e
00000340: b332 d33d 172f 5a3e dfec 833d e6c7 6b3d
00000350: 5be0 323e 64ac 113e 02fd a6bd dce0 09be
00000360: 545f 043e dfdc 623e 2b93 4a3e e0a5 9a3e
00000370: 3e7e b03e 9338 7e3e 9edb 9f3d d5ce b23e
00000380: 7626 813e f417 ec3d 537f 933e 3494 7b3d
00000390: 82f0 a03e eff5 503e 7e75 963e b31e c13e
000003a0: 19ee 03be 14eb 813e e9ea 283e 6bfa 04be
000003b0: cd4f 573e 6b6f 543e cce6 b0bb 04a5 c13d
000003c0: 95f4 9cbe 0a48 bdbd 9c7a ba3e e3d0 25be
000003d0: e7a8 45bd 0c7c e43d 0df8 e4bd f847 9fbe
000003e0: 1a8f 573e 16c9 1dbe 68d4 d4bd 2d81 94be
000003f0: 1296 88be 3cbb 953e 8263 013e 0095 c93e

bias f4 [20]
-0.4199453 0.4551637 -0.16233303 0.1305975 0.39062762 -0.12084256 0.24438563 -0.37343192
0.032055367 0.11621562 -0.05166695 -0.17463772 -0.19631013 0.43015376 -0.13340615 0.28000787
-0.11701719 -0.1567472 -0.12344925 -0.5279288
00000000: 1203 d7be 370b e93e a13a 26be 5abb 053e
00000010: 5800 c83e 4e7c f7bd 3a40 7a3e 7832 bfbe
00000020: 7d4c 033d 7402 ee3d b9a0 53bd 3bd4 32be
00000030: 8605 49be 1d3d dc3e 9f9b 08be 315d 8f3e
00000040: b5a6 efbd 5782 20be f6d2 fcbd 5826 07bf

weight f4 [10, 20]
-0.40837052 0.54954344 -0.3924422 0.049819566 0.26791674 -0.45331463 0.432875 -0.076986894
-0.27587503 -0.04137803 -0.41506585 -0.44633803 -0.23960209 0.5618001 -0.5394582 0.40688622
-0.5664906 -0.24964644 -0.58440185 -0.38017532 -0.3804908 -0.1390275 0.3684144 0.20120041
-0.16350833 0.32836148 -0.20303905 -0.3460227 0.34440315 0.41467506 0.28165612 0.5824901
-0.31745306 -0.23207259 0.60851246 -0.08293895 0.42692855 0.34186256 0.39281282 -0.36979237
-0.15440212 -0.12238792 0.57122064 0.30947363 -0.415867 0.36096424 -0.19145295 -0.46675286
0.6420995 0.33636868 0.5494195 0.29095134 -0.39032793 -0.17740661 0.5165689 -0.33420557
0.49921 0.58961946 0.42555538 -0.3491063 -0.20578825 -0.22053806 0.48164994 0.4670803
-0.21306181 0.4873195 -0.24813604 -0.32969913 0.6289871 0.25471103 0.42226806 0.49824762
-0.06433 -0.08833002 0.43235618 -0.40414393 0.36071587 0.31248802 0.3923283 -0.22625431
-0.42569438 -0.35494274 0.19298114 0.5291209 -0.2983381 0.468338 -0.119117536 -0.28905326
0.52421576 0.46411324 0.55457294 0.41597635 -0.34468338 -0.3832098 0.38092038 -0.12844527
0.2390408 0.39296964 0.49103984 -0.30911726 -0.1283778 0.10229804 -0.49419007 0.09210788
0.21326733 -0.13539542 0.45293775 0.0029313182 -0.5012797 0.040231977 -0.54254425 -0.244404
-0.059733942 0.3070403 -0.52168286 0.4875852 -0.39323175 -0.10468297 -0.18997116 -0.27027094
0.030466985 0.45842266 -0.30901304 0.21188821 0.39361882 -0.55191773 0.13184667 -0.15514445
-0.38804626 0.1017607 -0.20752321 -0.43633595 0.088519424 0.11700779 -0.47672477 0.43037033
-0.38089332 -0.1666035 -0.54939115 -0.2549957 -0.1048307 0.121851444 -0.49039584 -0.18990688
0.45322576 -0.32738748 0.42012116 -0.13929017 -0.23661812 0.19656786 -0.3386613 -0.14266562
-0.12534112 0.20683391 -0.2006931 0.5279939 -0.4627306 -0.49943563 -0.5125346 -0.363654
-0.16483533 0.36568576 -0.2907251 -0.19323812 0.24742913 -0.27149257 0.25833976 -0.20397389
-0.31163388 0.06001176 -0.4384413 -0.1696544 0.034164716 0.48934302 -0.23860754 0.23974627
-0.47084826 -0.4972979 -0.31191215 -0.06708699 -0.06524194 0.5440413 -0.43933913 0.043749392
0.4816337 -0.2281095 0.2336925 -0.16331561 -0.49300668 -0.10921329 -0.5528849 -0.56736887
-0.10875198 0.48592442 -0.51153016 0.4808721 -0.35300148 -0.38851297 -0.46439987 -0.1987389
00000000: f115 d1be e1ae 0c3f 2fee c8be 9a0f 4c3d
00000010: 622c 893e db18 e8be cba1 dd3e 4eab 9dbd
00000020: 7e3f 8dbe 027c 29bd 8383 d4be 6b86 e4be
00000030: 405a 75be 22d2 0f3f ef19 0abf 6453 d03e
00000040: 8705 11bf 51a3 7fbe 5c9b 15bf 57a6 c2be
00000050: b1cf c2be 3a5d 0ebe d0a0 bc3e 7b07 4e3e
00000060: ba6e 27be ff1e a83e 78e9 4fbe e329 b1be
00000070: 9c55 b03e 4a50 d43e 3b35 903e 121e 153f
00000080: 3589 a2be 70a4 6dbe 79c7 1b3f e5db a9bd
00000090: 6196 da3e 9c08 af3e c31e c93e 6d55 bdbe
000000a0: 971b 1ebe 85a6 fabd 843b 123f 5473 9e3e
000000b0: 85ec d4be 4ed0 b83e 3e0c 44be 3bfa eebe
000000c0: a260 243f 8438 ac3e c2a6 0c3f 93f7 943e
000000d0: 10d9 c7be 14aa 35be dc3d 043f fe1c abbe
000000e0: 7498 ff3e 4df1 163f 65e2 d93e 10be b2be
000000f0: 28ba 52be bbd4 61be d29a f63e 2625 ef3e
00000100: e02c 5abe f181 f93e 6017 7ebe 53ce a8be
00000110: 4c05 213f 7c69 823e 8533 d83e 501a ff3e
00000120: 72bf 83bd 5fe6 b4bd ca5d dd3e f4eb cebe
00000130: c0af b83e 6efe 9f3e 41df c83e 36af 67be
00000140: 9df4 d9be 0ebb b5be d99c 453e 7874 073f
00000150: c5bf 98be 00ca ef3e e5f3 f3bd cafe 93be
00000160: 0133 063f 40a0 ed3e 7ef8 0d3f dafa d43e
00000170: 577a b0be 1334 c4be ff07 c33e 2887 03be
00000180: 1dc7 743e 5133 c93e 9369 fb3e 9e44 9ebe
00000190: 7875 03be a381 d13d 7b06 fdbe 0ea3 bc3d
000001a0: c062 5a3e 19a5 0abe 75e7 e73e 5c1b 403b
000001b0: de53 00bf 49ca 243d 2ee4 0abf 0b45 7abe
000001c0: 94ab 74bd 6334 9d3e 028d 05bf c4a4 f93e
000001d0: ac55 c9be 0664 d6bd cd87 42be f460 8abe
000001e0: e695 f93c 60b6 ea3e f536 9ebe 39f9 583e
000001f0: 6888 c93e 7b4a 0dbf d002 073e 30de 1ebe
00000200: 00ae c6be ea67 d03d f780 54be 6d67 dfbe
00000210: ac49 b53d c8a1 ef3d 4515 f4be 8059 dc3e
00000220: 7304 c3be 1c9a 2abe e6a4 0cbf cc8e 82be
00000230: 7ab1 d6bd 408d f93d 2a15 fbbe f376 42be
00000240: 350d e83e 559f a7be 1f1a d73e 15a2 0ebe
00000250: 054c 72be 1649 493e 0465 adbe f016 12be
00000260: 6c59 00be 45cc 533e 7e82 4dbe 9c2a 073f
00000270: 06eb ecbe 07b6 ffbe 7835 03bf db30 babe
00000280: 98ca 28be 2a3b bb3e ecd9 94be 37e0 45be
00000290: 105e 7d3e 1301 8bbe 1c45 843e 88de 50be
000002a0: 7a8e 9fbe e4ce 753d 617b e0be e2b9 2dbe
000002b0: 4df0 0b3d 2b8b fa3e 8955 74be 0c80 753e
000002c0: 0613 f1be d59d febe f3b2 9fbe e764 89bd
000002d0: 919d 85bd 4a46 0b3f 0ff1 e0be 9032 333d
000002e0: b198 f63e 8995 69be 164d 6f3e 353c 27be
000002f0: 5f6b fcbe 38ab dfbd dd89 0dbf 163f 11bf
00000300: 5cb9 debd 16cb f83e a4f3 02bf de34 f63e
00000310: 9cbc b4be 2ceb c6be d2c5 edbe 3682 4bbe

bias f4 [10]
0.285212 -0.20470677 0.14885859 0.21609159 0.09215006 0.21411589 0.24000898 0.13702542
0.44265783 0.43588766
00000000: 4f07 923e a79e 51be 636e 183e 1d47 5d3e
00000010: 2cb9 bc3d 3241 5b3e eac4 753e 6450 0c3e
00000020: 0ca4 e23e ab2c df3e

weight f4 [1, 10]
-0.7877221 0.42467487 0.73096806 0.7345004 0.69011617 -0.5971259 -0.73723507 -0.6890232
-0.736543 -0.6069392
00000000: 28a8 49bf fc6e d93e b920 3b3f 3808 3c3f
00000010: 74ab 303f 3edd 18bf 70bb 3cbf d363 30bf
00000020: 158e 3cbf 5e60 1bbf
