gan/discmodel_2.pt (torch, 13631 bytes, 7 tensors)

weight f4 [40, 30]
00000000: ba83 e73d 2642 013d 91e1 b3bd 8ce4 0ebe
00000010: 199d 1a3e 4002 173e bf23 ce3d 1ead 643e
00000020: eaf8 433e c1f7 2bbd b3e2 dcbc cd18 4ebc
00000030: 00ee 31be 49d3 a7bc e3b7 c3bc 1da9 05be
00000040: c433 1b3e f229 09be 2f64 ccbd b02f c6bc
00000050: b670 403e 0ed0 0b3e 6614 91bd 21fc a73d
00000060: 2f08 a73d 8afd 8cbd c90d 203e 88e3 3e3e
00000070: 505e 7cbd d3bf 2bbe 6f42 fdbd 4e05 0ebe
00000080: f242 09bc 21ad 1b3e 2cd0 0cbe 0fc5 4a3d
00000090: 0de5 ca3d c0ef 383d 21bc 4cbe 321c 2b3e
000000a0: 32eb 9abc 7eb5 34be 0b17 cbbc ae48 1fbe
000000b0: e4e0 24bd acd2 863d 27db 9e3d 0596 043e
000000c0: b21c bfbd ac6c 18bd f9c1 c4bd a5c7 24be
000000d0: f963 32be 6ac6 b9bd b814 ee3d 1c62 883d
000000e0: 7e1a 45be 469e f63d e34d c8bc 1b0d f63d
000000f0: 85c5 65bd b3fb d53d 6d39 f33d d27e fabd
00000100: 98d9 dabd 1ec4 e3bc d2b1 41be 4033 ddbd
00000110: 55d9 c23c 70b9 b9bd f355 01be f7fb 043d
00000120: 3a03 6ebd 5643 1fbe bbb6 aebc 3787 84bc
00000130: e558 433d 0fa2 0a3e 5300 d1bd e426 d03b
00000140: 84fe 253e f3a9 2b3e 78af 013e c6cf 20bd
00000150: 2af6 22bd 1da0 1abe 0710 d33d b9fa fe3d
00000160: 0047 163e 7eae 17bd ce12 e4bd a96d 7abe
00000170: 7132 f5bb f6b9 c7bd 837c 0ebd 9873 89bd
00000180: 40af 123e 3bba 383e 3118 b33c f57d 8ebc
00000190: 658c 493c 4573 f1bd cbb1 27be 8e7b d7bd
000001a0: 909d a1bc 580e 8a3d dab1 b4bd ea83 2d3e
000001b0: 9b46 9d3b a9ae 33be 8c1e c13d bd73 9dbd
000001c0: 8858 51bd b19a a53d 483e 203e fac0 303e
000001d0: f342 dcbc 22b4 2f3e acb5 e33d 23f3 4abc
000001e0: c870 06be 8986 23bd c466 33be 912d 89bd
000001f0: 8493 bb3d 91f0 4bbe 2b98 e73d a14d e73c
00000200: e6ff 87bd cf27 03be 1f2f 3e3e 4d04 1ebe
00000210: 5526 b0bd 1325 1f3d 6913 c1bd 843a d0bd
00000220: 3e11 b4bd ca5f 923d ebec c6bd 076c 27be
00000230: 6a49 c03d 0693 c4bd f582 6b3b ee4a 2abd
00000240: 663e 1dbe e135 243b d416 c8bd 7521 f63d
00000250: e860 d1bd d24c c13d 0d56 38bc 1bdd fcbd
00000260: dfac 7f3d d035 f6bd cf3c efbd ef98 e33c
00000270: af2e eabd 8d17 29bc ed9c e9bd e7c0 103d
00000280: 125e de3d 53f3 803d 9f10 b93d 0ef2 123d
00000290: 68da d1bd 90db 9d3d fc22 253e 93c5 a6bd
000002a0: 3cd7 9e3d ffec 83bd 7b1e 35be e7f4 2f3e
000002b0: 8b8d 453d 05d8 343e d2d0 ffbd d63b adbd
000002c0: 62e6 0abe 4b98 ddbd bdc3 803d eb1e 8d3c
000002d0: d992 0c3e 8733 c9bd 219e fb3d cceb c13d
000002e0: da4a 833d 2feb 0bbe b5f8 b8bc d352 153d
000002f0: ee32 a8bd 3297 04bc fc25 1abe 243d e13d
00000300: 358c 033e f912 123e 9706 e63c f310 2d3d
00000310: 4d3c 433e 9546 d03d f43d a53c 6379 063e
00000320: b44d 143e cb39 54be f616 0dbe 70c0 d53d
00000330: 8be9 f7bd a488 18be 082d e63c 8e49 f7bd
00000340: 6fd7 983d 78a6 e9bd ac5f 8ebd deeb ca3a
00000350: ce55 a4bc f926 0e3e 2936 90bd 77cf f2bd
00000360: 4d5d ae3d fa78 e0bd 82b1 b23d e103 043e
00000370: 9c95 de3d 788b b0bd 3baa b43d aee9 66bd
00000380: c4e7 21be 9aba 523e e4c4 f2bd 1732 ad3d
00000390: f7c2 acbc f2d7 25bc ef19 c63c d1dd cabd
000003a0: 58ad fa3d 9acd 213e bf79 ebbd 8956 dfbc
000003b0: 2dd2 b2bd 628d 14be 6b0a b63b f9c3 2b3e
000003c0: 757d 1c3e 5e4f 603d 2278 1abe 8892 8b3d
000003d0: b119 2d3e a392 1cbe 37a5 b83d b30c a63c
000003e0: 03d4 46be d398 f0bd 7a78 ebbc d46f 36bd
000003f0: 9587 21be d139 073e 5ec1 dcbd 1c74 acbd
0.11304422 0.031557225 -0.08783258 -0.13954371 0.1509899 0.14746952 0.10065412 0.22331664
0.19137922 -0.041984323 -0.026963567 -0.012579155 -0.17375946 -0.02048649 -0.023891395 -0.13052793
0.15156466 -0.13394907 -0.09980046 -0.024192661 0.18792996 0.13653585 -0.07083969 0.08202387
0.08155858 -0.06884296 0.15630259 0.18641484 -0.06161338 -0.16772394 -0.12366187 -0.13869211
-0.008377777 0.15202762 -0.13751286 0.049504336 0.09906969 0.04515052 -0.1999364 0.16709974
-0.018910978 -0.17647359 -0.024791261 -0.15555069 -0.040253535 0.06583151 0.07756644 0.12947853
-0.09331645 -0.037213013 -0.0960731 -0.16091783 -0.17420949 -0.090710476 0.116250455 0.06659338
-0.19248387 0.12041907 -0.024451202 0.120142184 -0.056096572 0.104483984 0.118761875 -0.1223122
-0.10686034 -0.027803477 -0.1891549 -0.10800791 0.023785273 -0.090685725 -0.12630443 0.032466855
-0.058108546 -0.1555303 -0.021327367 -0.016177757 0.0476922 0.13538383 -0.1020514 0.0063522924
0.16210371 0.16764049 0.12664592 -0.03926065 -0.03978554 -0.15100141 0.10305791 0.12450165
0.14675522 -0.037031643 -0.11136399 -0.24455895 -0.0074828197 -0.09752266 -0.034786712 -0.06711501
0.14324665 0.18039791 0.021862121 -0.017394045 0.012301539 -0.11789564 -0.16376416 -0.10521613
-0.019728452 0.06741017 -0.08822985 0.16944852 0.0047996766 -0.17547096 0.094296545 -0.07688091
-0.05110982 0.08086146 0.15648758 0.17261115 -0.026887393 0.17158559 0.111186355 -0.01238707
-0.1312896 -0.039923225 -0.1751967 -0.06698144 0.09158996 -0.19915988 0.113083206 0.028235259
-0.06640606 -0.12808155 0.18572663 -0.15431328 -0.08601061 0.038853716 -0.0942753 -0.10167411
-0.08792351 0.071471766 -0.09713157 -0.16349803 0.093890026 -0.09598355 0.003593621 -0.041575365
-0.15355834 0.0025056528 -0.09769979 0.120181 -0.102235615 0.094384804 -0.011250985 -0.1234686
0.062420722 -0.12021983 -0.1168152 0.027782885 -0.114346854 -0.010320556 -0.11406884 0.035340216
0.10857786 0.062964104 0.09036373 0.035875373 -0.10246736 0.07707894 0.16126627 -0.08143153
0.077558964 -0.06441688 -0.17687409 0.17183267 0.04823069 0.1766053 -0.12491001 -0.084586784
-0.13564447 -0.10820063 0.06287334 0.017226657 0.13727893 -0.09824281 0.1228602 0.09468803
0.06410761 -0.13663934 -0.02257953 0.03645594 -0.08212839 -0.008092688 -0.15053552 0.1099799
0.12846453 0.1426505 0.028079314 0.042252492 0.19065972 0.101697125 0.020171143 0.13132243
0.14482766 -0.20725171 -0.1377829 0.10437095 -0.12105092 -0.14895874 0.028097644 -0.12074576
0.07462966 -0.114087045 -0.06951842 0.0015481671 -0.020060446 0.13882054 -0.0704158 -0.11855977
0.085138895 -0.109605744 0.08725263 0.12892105 0.108683795 -0.086203516 0.088215314 -0.056375198
-0.15811068 0.20578995 -0.1185396 0.084568195 -0.02108906 -0.010122286 0.024182288 -0.09905589
0.12240094 0.15801087 -0.114978306 -0.027262943 -0.08731494 -0.14507058 0.005555441 0.16773976
0.15282233 0.05476319 -0.1508489 0.06815058 0.16904332 -0.15290312 0.09015887 0.020269727
-0.19416814 -0.11747899 -0.028743971 -0.04454024 -0.15774377 0.13205649 -0.10779069 -0.084205836

bias f4 [40]
00000000: 90b4 813c 9a62 3f3d a4f8 073e d53e 28be
00000010: 1ba9 a63d 8285 8a3d cf78 c43d 7146 61bb
00000020: 61b0 203d 6e27 c7bd 390f 2bbe 6b6b 3bbe
00000030: a749 7c3d 21f6 97bc 8745 843b 990c b43d
00000040: 84ab cbbd 4816 153e a0f0 2d3e 2c00 37be
00000050: 10e6 c63d 988f 07be 740d ebbd 622d e73c
00000060: c1c0 07be d906 083e 174d d73c 9b53 023e
00000070: e12b 0dbd fb09 60bd 2a26 1c3e 7f2d 3fbe
00000080: df9d 2e3e 722f 30be 8942 a83d d707 813c
00000090: 9ab4 5fbd 3661 c63d b204 793d 3153 00be
0.01583317 0.046724893 0.13278443 -0.16430219 0.08137723 0.06763746 0.09593355 -0.0034374262
0.039230708 -0.097243175 -0.16705026 -0.18302695 0.061593678 -0.01854998 0.0040366086 0.08791465
-0.099448234 0.14559281 0.16986322 -0.1787116 0.0971185 -0.1323837 -0.11477175 0.028219882
-0.13257124 0.13283862 0.026281876 0.12727205 -0.034465674 -0.054697018 0.15248933 -0.18669699
0.1705241 -0.17205599 0.082158156 0.015750809 -0.054615594 0.0968651 0.060795493 -0.12531735

weight f4 [20, 40]
00000000: 6b95 843d c585 03be a7b3 c0bd 49a9 aa3d
00000010: 63ef 9b3d 5cae f3bd 1604 d63d d97d bc3d
00000020: d9d1 ef3d 6a4f 323d dadb 4ebb 5ad4 1d3e
00000030: dbce 373d 021a 043c 04b9 3b3d 8c17 34bc
00000040: 354a 073e a3bd e6bd d171 9f3d f29b 233e
00000050: dd73 33be 10e7 1e3d 2868 b1bd 27ec b33d
00000060: ab94 d93d 8530 06be 0648 1b3e 4238 893a
00000070: 8e03 54bc 342c 103d 8320 0bbb 7a9c b0bd
00000080: 4dc2 adbd 5202 bf3d ed08 4cbd 016a d9bc
00000090: 7f4a a2bd 6e4d 2abe 5fa4 2bbd c2d9 e9bd
000000a0: f7e2 ce3d 0983 23be f96b b73c 77a2 54bc
000000b0: 4a2e 92bd 211c 5b3d 09c2 0bbe 14b0 e1bc
000000c0: 1b3e 083e 3f1d 3bbc 3e89 a1ba 87d8 fcbd
000000d0: 72c3 133e 4a1d f33d c4dd 27bd 42f4 0a3d
000000e0: 0515 03be 6451 02bb af71 283e 18d7 ed3d
000000f0: 6782 7dbd 6b09 3fbd abd1 dabd 8dc0 b93d
00000100: c877 64bd 478b c13d 907f 093c c0b1 bf3c
00000110: 427d 843d 9869 943d 7923 1a3e 6cfa a5bc
00000120: f429 d53c 2034 993b 24a7 a1bd 42d0 dd3c
00000130: cea3 863d 8904 353d 9fb2 93bc 4290 76bd
00000140: 7ae9 05bd 3ee7 f8bc f078 863c 09e5 a23d
00000150: 335c e03a 15a9 ab3c 76d5 bf3c 28af 36bd
00000160: 398c 003e bdb7 383d 15d2 ea3c 9bfc 023e
00000170: 4db5 48bc 06fc bd3a 18ea fcbd afa6 023d
00000180: 972e 0c3d c9d6 65bc aa56 d0bd 99ae 973d
00000190: 2df6 ef3d c4a1 f13d 3c3d 0bbe 68db c5bd
000001a0: d4e1 84bc 222a c63d eda8 21be 6547 193e
000001b0: f9ad 553d 95b4 a4bd eb7b 0f3e d677 0abc
000001c0: 9018 48bd 68ce f8bd 6b5d 373c e699 133e
000001d0: 9f3c 343d 150a 21be 66cf e03d f148 93bc
000001e0: db66 fc3c e5a7 1c3e 3e1c eabd a8d6 e13d
000001f0: e653 20bd 4a10 773d 3358 943c e008 c5bd
00000200: d5a0 4dbd 5616 523e 4af4 83bd e396 073e
00000210: c1ec 42bd 2040 8cbd e0bc 69bd 7b05 84bd
00000220: 77c2 b13d aee9 0f3e 39f3 a6bd 9e4b 5e3d
00000230: ffbf 9bbd bb81 6b3e f4d0 2b3d 158e f5bd
00000240: 3378 263e f8f3 2f3e 625c 23bd b0c2 27be
00000250: 853f 613e bf7b 0bbe 0775 523d bc55 11be
00000260: 8605 d1bd 091c 3ebc ae22 1ebe a1d3 50be
00000270: d9c1 8dbd 5901 4cbd 78ac 6c3c a6d0 1dbe
00000280: 3274 98bd 7d88 17be 620c e4bc 0070 903d
00000290: 6fb7 b1bd 8fc8 c1bc 69a8 243e 26ca cf3d
000002a0: 0e66 db3d 5d5a 17be 7c91 f4bc 1f0a 183d
000002b0: 07af b73d b79f ab3d 3c4b c83c 0ef7 253e
000002c0: 9a5a 693d 318a f0bd 6a2b e03d e34e 14be
000002d0: cbd5 0f3e ecf8 0b3e 39c5 29bc fad7 54bd
000002e0: b3ee 953b ae5b 823d 7b8d e8bc 4564 f7bc
000002f0: 1bfc 273c c262 da3d 0ad4 fcbd a728 cfbd
00000300: 702c 333e ae68 22be 174d f13d 3585 16be
00000310: 93de 98bc 520e 013d cfb0 ee3d fae7 5fbd
00000320: 6659 06be f18f c4bd 36da d3bd f6ea d53d
00000330: 7eda 12bd b1c0 7c3b f8bd 25bd 7b8a cc3d
00000340: d811 873d 9d7b db3c 9c14 03be 168c 2fbe
00000350: 2006 bfbd c787 9c3d ba97 10be a58c fabd
00000360: 4404 e2bd 8b83 103e edaa cf3d cf64 013e
00000370: 31e2 153e df8c cb3c 2ee0 71bd faa7 153e
00000380: c286 f0bb 1e98 6bbd b659 893c d106 01be
00000390: 7179 dd3d b278 073b f2da f8bb 5896 eb3d
000003a0: 4113 cebd eff4 0a3d 2a14 b6bd 8568 a2bd
000003b0: 9803 9a3c 40ea a33c 4dc3 e5bd e227 8dbd
000003c0: 13a1 0dbe 4567 80bd eeb8 d93d d642 b8bd
000003d0: 3c58 a73d 2a99 993d c213 baba 1999 37be
000003e0: 388d 593d 145a 2bbd 22fe b3bb 078d 09bd
000003f0: af40 67bd fb31 223e 5243 e8bc c364 f83d
0.06473812 -0.12843998 -0.09409266 0.0833307 0.07614019 -0.11898491 0.10449998 0.09203691
0.11709947 0.043532766 -0.0031564147 0.15413037 0.044875007 0.008062841 0.04583074 -0.010991942
0.13211901 -0.11266639 0.07785381 0.15977457 -0.17524667 0.038794577 -0.08662444 0.08785277
0.10624059 -0.13104446 0.15164194 0.0010469037 -0.012940301 0.035198405 -0.0021229095 -0.086235955
-0.084843256 0.093266144 -0.0498132 -0.026539804 -0.07924365 -0.166311 -0.041904803 -0.11418487
0.10101884 -0.15967955 0.022390353 -0.012978188 -0.07137735 0.053493623 -0.13648237 -0.02754978
0.13304941 -0.011420547 -0.0012324227 -0.12345987 0.14430025 0.11870821 -0.040982977 0.03392435
-0.12800987 -0.0019884938 0.16449617 0.116132915 -0.06189194 -0.04663984 -0.10684522 0.09069929
-0.055778295 0.09450393 0.00839223 0.023400187 0.064692035 0.07246703 0.15052594 -0.020261012
0.026020981 0.0046754032 -0.07893208 0.027076844 0.06574212 0.04419378 -0.01802951 -0.06019617
-0.032693364 -0.030383702 0.01641509 0.07953841 0.0017117321 0.020954648 0.023417216 -0.044600636
0.1255349 0.0450971 0.028664628 0.12791674 -0.012250257 0.0014494665 -0.12349337 0.031897243
0.03422412 -0.01402826 -0.1017278 0.07406349 0.11716876 0.117984325 -0.13597578 -0.09660989
-0.016220964 0.09676005 -0.15787096 0.14968641 0.052167866 -0.08042256 0.14012115 -0.008451423
-0.04885155 -0.12148744 0.011191706 0.14414176 0.044003125 -0.15726502 0.10977058 -0.017979117
0.030810764 0.15298422 -0.11431168 0.110272706 -0.03914251 0.06031827 0.018108463 -0.096208334
-0.05020221 0.20516333 -0.06443079 0.13241152 -0.047589067 -0.068481684 -0.05706489 -0.06446358
0.08679669 0.14053985 -0.0815186 0.054271333 -0.0760498 0.22998707 0.04194732 -0.119899906
0.1625679 0.1718291 -0.039883025 -0.16382861 0.21996887 -0.13621424 0.051381137 -0.14192861
-0.10206132 -0.011603364 -0.15442917 -0.2039323 -0.06921739 -0.049805973 0.014445417 -0.15411624
-0.074440375 -0.1479816 -0.027837936 0.07052612 -0.08677565 -0.023655204 0.16079868 0.10145979
0.10712825 -0.14780565 -0.029854529 0.037119027 0.08968931 0.083800726 0.024449937 0.16207525
0.05697117 -0.11745108 0.109457806 -0.14483218 0.140464 0.13669175 -0.010361963 -0.051963784
0.0045755743 0.06365143 -0.028387776 -0.03019918 0.010252978 0.10663368 -0.12345131 -0.10115176
0.1749742 -0.15860245 0.11782282 -0.14699252 -0.01866082 0.031507798 0.11654817 -0.05466459
-0.1312004 -0.09597767 -0.10344355 0.10445206 -0.0358529 0.0038567001 -0.04046437 0.099873506
0.065952 0.026792342 -0.1280083 -0.17143282 -0.0932734 0.07643085 -0.14120379 -0.12233857
-0.1103597 0.1411268 0.101400234 0.12636112 0.14637066 0.024847446 -0.059051685 0.14614859
-0.007340283 -0.057518117 0.01676641 -0.12600257 0.10814179 0.0020671305 -0.0075944597 0.11503285
-0.10062266 0.033924993 -0.08890565 -0.07930092 0.018800542 0.02000916 -0.11218891 -0.06892373
-0.13830976 -0.06269697 0.10630976 -0.08997123 0.08171126 0.07499917 -0.0014196562 -0.17929496
0.053113192 -0.041833952 -0.0054929415 -0.03358176 -0.05645817 0.15839379 -0.028352413 0.12128594

bias f4 [20]
00000000: 6588 d9bc cce7 403e 1d93 c23c 46ca 8abc
00000010: 04c9 173e 5fdc 85bd f15b 24bd 4b4b a0bd
00000020: 8369 fc3d 746c 32bc ba69 413d 9dd4 f9bd
00000030: 538e 473c 677b 103e eb05 c63a de55 2e3b
00000040: e3ce 993c 415f 80bd 8c35 183b 825d 02be
-0.026554296 0.18838423 0.02375179 -0.016942155 0.14822775 -0.06536173 -0.040126745 -0.07826861
0.12324812 -0.010890115 0.04721997 -0.12198756 0.012179929 0.14109574 0.0015107965 0.0026601474
0.01877541 -0.06268168 0.0023225276 -0.12730983

weight f4 [10, 20]
00000000: 3038 4abe c35b 553e 15f7 11bd 482f 313e
00000010: 45fc 9dbd 68be c9bd 33a0 e93d ecf6 413c
00000020: e98e 7b3d cebc 6e3c 5249 5a3c 3324 a8bd
00000030: 64c0 edbd 8c5d 3f3e 4850 31be 2d2f 253e
00000040: 7423 46be bf79 a43d 5c93 46be 4848 0cbe
00000050: 00ea 6ebe 6f23 e83d c2ca e3bb 47be 02be
00000060: 855e 9a3d 556d 98bd 38c1 543d d4c0 b0bd
00000070: 63c6 dfbd 1926 133e f4e4 3abe edac 303e
00000080: 5b59 b7bd d9d3 843d 2c6c 483e 9992 ea3d
00000090: 4f61 80bb 7516 36bd f825 9cbd 731f 55be
000000a0: 2bc7 22bc 9322 b33d 8d7d 523e 23d7 62bc
000000b0: eed0 41be ef44 f3bc cf57 7b3c 8382 53be
000000c0: 530a 593e 963f 7e3d eba3 d03d 9e84 01be
000000d0: 87fc 2cbe d0fe 663d fbfd d63d fe5f 44be
000000e0: aa5a a33d 72fd 633e 5b53 debc c668 44be
000000f0: d765 30bd c6c1 b9bd 5258 e93d 59c9 0b3e
00000100: 8ccd afbc 1ccf c73d f490 c6bd 4fae 81bd
00000110: a61e 4f3e bbe7 debc b695 fdbc 5d76 ac3d
00000120: b47b 303e 80cd d73d 74fe 863c 6293 93be
00000130: 9286 81bd 749d 57bd 1454 76bd 8ddd 10bd
00000140: c7c7 87be 3846 0bbe 06a9 32be 9910 693e
00000150: d83c 71bd 93ef 893d ab37 eb3d 5dfe 73bb
00000160: 3302 a13d e3ad 413e f57f fa3d 0c06 86bb
00000170: b8c7 e0bd 0ee7 19be 7eb2 2fbd fa81 693d
00000180: c4c5 46be ef6b 0f3d 8ff6 283d 3d2d 0cbe
00000190: ae50 3a3d bfc9 81be 9d8c 2abe 2319 0f3e
000001a0: 37a3 cabd 3f44 3c3e 5247 143e 196c 853d
000001b0: c669 23be be33 713d 191a 04be b323 f43d
000001c0: 09fb 153d fbdd 3dbd ecea 17be 67e1 633e
000001d0: 6203 4ebc a62f 473e cd2f 643e 38fa cfbd
000001e0: c1f6 6c3e 317c 023e aee9 c13b 1019 723e
000001f0: 7731 cf3d 164a 6dbe 4cf8 4fbe 6967 89bd
00000200: 9adc d0bd bd4c bd3d 0360 433e 26e1 e0bd
00000210: 4ddb 613e ad7b 6fbe 63e5 0cbe 2601 3d3e
00000220: ec28 13bd 6d8d 0b3e 42bd 11be 7988 52bd
00000230: fcdc a63d 8b54 7cbe 5ee3 23be 3c17 28be
00000240: 697d ee3d d7ca f4bb f6dd 943d 6d67 babd
00000250: 8ee5 c53d 3d8d 503e 3574 8f3d 4308 5c3e
00000260: 20c0 20bd 437e 2ebe 2592 2a3e ffa6 813e
00000270: d4b5 b3bd b2cc 54be 1347 d1bd 7786 38be
00000280: 2f5f 693d f7bc 513c d3f4 063d 38a2 c1bd
00000290: a3f0 aebd 0517 6e3d 3b49 afbd 9ed6 2dbe
000002a0: 8794 5b3d a624 023e 22d0 15bd 9376 4e3e
000002b0: e801 ca3d e4e0 043e 408a 013e 5348 c1bc
000002c0: c933 cbbd 8f9c 3dbe c6aa c43d 83f7 0e3e
000002d0: 3413 633e 1a6b 253e 79d8 fabd 35c0 303d
000002e0: 2676 0f3e 1623 a43d d3bb 14be 738e 7ebc
000002f0: 177b 64be cf89 09be 5c12 28be 82fa 57be
00000300: bef9 c43d 900b ca3d 74e3 23be f919 553e
00000310: f61a c23b 2e62 e5bd 48ed 74bd 4a88 953d
-0.19747996 0.20835786 -0.035636026 0.17303193 -0.07714132 -0.0985077 0.11407509 0.011838656
0.061415587 0.014571382 0.013323145 -0.082100295 -0.11608961 0.18688029 -0.17315781 0.16131277
-0.19349462 0.08031034 -0.1939215 -0.13699448 -0.23331451 0.113348834 -0.006951661 -0.12767898
0.075375594 -0.074427284 0.05194208 -0.08630529 -0.10926511 0.14370002 -0.18251401 0.17253466
-0.0895259 0.06485719 0.19572514 0.114537425 -0.00391785 -0.04445501 -0.076244295 -0.20812778
-0.009935181 0.08746829 0.20555706 -0.013845238 -0.18927357 -0.029695956 0.015340759 -0.20655255
0.21195345 0.06207236 0.10187515 -0.12648246 -0.16893207 0.056395352 0.10497662 -0.19177243
0.07976277 0.2226465 -0.027139356 -0.19180593 -0.043065872 -0.090701625 0.11393799 0.13651027
-0.021460317 0.097563 -0.09695616 -0.06332075 0.20226535 -0.027210107 -0.030955177 0.084210135
0.17234689 0.10537243 0.016478755 -0.28823382 -0.063244954 -0.052640393 -0.060138777 -0.035367537
-0.26519606 -0.13601005 -0.1744729 0.22760238 -0.058895916 0.06735148 0.11485227 -0.003723047
0.078617476 0.18913989 0.12231437 -0.0040900763 -0.10975593 -0.15029547 -0.042894833 0.05700872
-0.19411379 0.035015043 0.04125076 -0.13689132 0.0454871 -0.25349233 -0.16655202 0.13974433
-0.09894412 0.18385409 0.14480332 0.065147586 -0.15958318 0.058887236 -0.1290058 0.119208716
0.03661636 -0.046354275 -0.1483571 0.22253953 -0.012574049 0.1945177 0.2228386 -0.10155147
0.23141004 0.12742688 0.0059177494 0.23642373 0.101168565 -0.23172793 -0.20309561 -0.06709177
-0.101983264 0.09243152 0.19079594 -0.10980444 0.22056313 -0.23387022 -0.13759379 0.1845747
-0.035927698 0.13628168 -0.14232352 -0.05139968 0.08147618 -0.24641626 -0.16004702 -0.16415113
0.11645014 -0.0074704695 0.07268898 -0.09101758 0.09662925 0.20366378 0.070045866 0.21487527
-0.039245725 -0.17040353 0.16657312 0.2532272 -0.08774915 -0.2078121 -0.102186345 -0.18020044
0.05697554 0.0128014 0.032948326 -0.09454769 -0.085419916 0.058127422 -0.085588895 -0.16976401
0.053608444 0.12709293 -0.036575444 0.2016242 0.09863645 0.12976414 0.12650394 -0.023594057
-0.099219866 -0.18516754 0.09602885 0.13961606 0.22175294 0.16154137 -0.1224832 0.043152053
0.14009914 0.080145046 -0.14524774 -0.015536892 -0.2231258 -0.13431476 -0.16413254 -0.21091655
0.09617947 0.098654866 -0.16004735 0.20810689 0.005923624 -0.11200367 -0.0597966 0.07301386

bias f4 [10]
00000000: 1e40 383c 191f 42be d754 0c3e df78 b73d
00000010: a2ba 2e3d 5d13 433c 26c6 c43c 9a9e 09be
00000020: ed9d 223e a307 d83d
0.0112457555 -0.18957175 0.13704239 0.08958601 0.042658456 0.011906472 0.024020266 -0.13439408
0.15880556 0.105483316

weight f4 [1, 10]
00000000: ffd4 89be 240e 953d 8f22 8a3e bbcc 8a3e
00000010: bcc5 6e3e f42b f1bd a8b1 8abe 0560 33be
00000020: b912 54be cb60 71bd
-0.26920316 0.07278088 0.2697949 0.27109322 0.23317617 -0.117759615 -0.27088666 -0.17517097
-0.20710267 -0.0589302
