gan/gen_model1.pt (torch, 295821 bytes, 62 tensors)

gen.0.0.weight f4 [20, 10]
000000 39 57 fc bc 7f 98 c1 3d d6 a1 96 be bc 3b 81 be
       -0.03080331 0.094529144 -0.29420346 -0.25240886
000010 f5 19 00 be 3e 7e 16 3d c4 81 59 bc 99 14 7c 3e
       -0.12509902 0.036741488 -0.013275567 0.24617232
000020 dc fe 78 bd ed 5e 74 3d 1a 56 91 bd 12 eb 14 bc
       -0.060789928 0.05966084 -0.07096501 -0.009089248
000030 6f 4b a5 be 74 f8 88 be 13 ca 1a be 22 87 07 bb
       -0.32284114 -0.26752055 -0.15116148 -0.002067991
000040 bb 33 4f 3d 52 fb 5c 3e 45 33 30 be ee 89 7d bd
       0.050586443 0.21580246 -0.17207058 -0.061899118
000050 b3 c5 11 3e 8d cc 82 3e 4b 79 a7 bc de 97 81 3e
       0.14235573 0.25546685 -0.02044358 0.25311178
000060 50 16 42 bd e7 14 f5 3c bd 8e 80 3e 49 4b 96 be
       -0.04738456 0.029917194 0.251089 -0.29354313
000070 66 e5 62 be 43 d4 ab bd 1b eb da bd c7 ca 8c 3e
       -0.22157821 -0.08390095 -0.10689374 0.27498457
000080 2a 0c 9d be e4 fc 25 be 9c c0 3f be ce 83 7f be
       -0.30673343 -0.16209751 -0.18725818 -0.24952623
000090 df f6 1b be c3 45 8f 3e 63 c0 f1 3d 39 dc 15 3e
       -0.15230893 0.2798291 0.11804273 0.1463479
0000a0 f9 67 de 3b d1 0f d9 bd 1a 06 4d bd 5f 74 aa be
       0.006787297 -0.1059872 -0.050054647 -0.3329191
0000b0 1e 2c 6c be cd 16 08 be 87 88 17 3e 78 d6 6c 3e
       -0.23063704 -0.13289948 0.14798175 0.23128688
0000c0 7e 3a 1c be 12 bd c8 bb 04 7f 35 3e 1c a8 93 3e
       -0.15256688 -0.0061260546 0.17724234 0.28839195
0000d0 30 d1 62 3e 8e 60 c8 3d 4a 89 36 3e c6 bc 48 be
       0.22150111 0.09784041 0.17825809 -0.19603261
0000e0 9f c8 9e 3d fe f4 86 be 05 31 3d be a6 2f 13 be
       0.07753109 -0.2635879 -0.1847573 -0.14373645
0000f0 4d 89 aa 3d 5d 04 1f 3e 8a 1a 78 be 69 96 72 3d
       0.08326969 0.15529008 -0.24228874 0.059225474
000100 65 e0 23 3e 4d 76 99 bd 4e aa ae ba a0 de 96 3d
       0.16003568 -0.07493267 -0.0013325901 0.07366681
000110 b3 50 47 3e fa 53 91 3e 9e 9d 51 be 88 d9 14 be
       0.19464378 0.28384382 -0.20470282 -0.14536107
000120 4a 4b 69 3e 1d 8d 89 3e 03 e3 70 3e 10 b2 6b 3e
       0.22782627 0.26865473 0.23524098 0.23017144
000130 18 52 53 3d c9 ff 96 be cd 46 e0 3c 49 54 5b be
       0.051591963 -0.29492024 0.02737751 -0.21418871
000140 3c 69 8c be 27 c3 98 3e ce ed 74 3e 6c 4d 8b be
       -0.27424037 0.2983639 0.2391884 -0.27207506
000150 3b 65 42 3d 8e d2 21 bd 62 09 36 bd a7 9f 29 be
       0.047459822 -0.03950744 -0.044442542 -0.16564809
000160 54 d0 9a 3d d3 79 83 be 3e 16 11 3e 64 09 08 3e
       0.07559267 -0.25678882 0.14168641 0.13284832
000170 b1 cb 89 3e d5 8d 02 3e 49 07 95 be 35 b3 5d be
       0.26913217 0.12749417 -0.2910712 -0.21650393
000180 40 cd 1b 3e a8 10 b9 bb a0 ed 52 be 8c 92 5b be
       0.15215015 -0.0056477375 -0.20598459 -0.21442622
000190 29 8e 9d 3e 7d a0 5b 3e 2d 94 37 be db c1 cc bd
       0.30772522 0.2144794 -0.17927618 -0.099979125
0001a0 cc 6c a0 be 71 cd 20 bd a1 c1 66 be fa 9e 3f be
       -0.31333005 -0.039258424 -0.22534801 -0.18712988
0001b0 6f bb 23 bd 72 1b 7d 3c 15 b0 cc bd f5 df 3e 3e
       -0.039973672 0.015448438 -0.099945225 0.1864012
0001c0 39 d2 4f be 97 f9 71 3e 71 42 6d 3e 14 68 8b be
       -0.20295037 0.23630367 0.23169877 -0.27227843
0001d0 09 d6 b0 bd 02 d2 b9 3b 82 bf a3 3d a9 1f 04 3e
       -0.08634574 0.005670787 0.079955116 0.12902702
0001e0 2f cd 1a 3e aa 89 9b 3d 8a e9 1d be 31 19 00 3e
       0.15117334 0.07594617 -0.1542112 0.1250961
0001f0 03 6c ac be 29 d6 33 be 4f 5f a4 bd 96 60 fa bd
       -0.33676156 -0.17562164 -0.08025991 -0.122254536
000200 37 44 e6 bd b6 01 6b be d2 c1 23 bd 94 5b bd 3d
       -0.1124348 -0.22949871 -0.039979763 0.09245983
000210 48 e4 7d be 62 57 42 bc 55 a0 18 3e cc 90 83 bd
       -0.24794114 -0.011861654 0.14904912 -0.06424102
000220 38 96 3e bc 21 90 51 3d 28 6b b1 3d 38 15 4f 3e
       -0.011632495 0.051162843 0.086630166 0.20222938
000230 1b d5 96 3e 91 d1 2c 3e de 1e ae 3e 1a 8c 51 3b
       0.29459462 0.16876818 0.34007925 0.0031974376
000240 a0 b5 90 be b2 45 0f be 16 be 4a 3e c5 fd 4b bd
       -0.2826357 -0.1399143 0.19799075 -0.04980256
000250 4a 4c 13 be 8a 4b 81 be 1b 0f 91 be d9 dc 87 be
       -0.1438457 -0.25252944 -0.28331837 -0.2653568
000260 64 64 e8 bc b5 40 56 3e 98 b8 2f 3e 6c 34 89 be
       -0.028368182 0.20923121 0.1716026 -0.26797807
000270 ae 28 3b 3e e8 ad 86 be 1a e2 9d bd e5 4e 30 be
       0.18277237 -0.26304555 -0.07709141 -0.17217596
000280 0f e2 77 bd 66 ec 96 bb 3a 31 a5 be 98 e4 95 be
       -0.06051832 -0.0046058176 -0.3226412 -0.29275966
000290 bf 8e c9 bd 36 31 22 b9 5d fe a1 bd 08 d4 33 3e
       -0.0984168 -0.00015467856 -0.07909844 0.17561352
0002a0 f2 4b 52 be 07 27 94 bb 12 97 87 3e db be dd bd
       -0.20536783 -0.004521254 0.26482445 -0.108274184
0002b0 cc 93 ab 3e 82 be 21 3e 69 66 8b be 5b 1c 29 3e
       0.33511198 0.15795329 -0.2722657 0.16514723
0002c0 cc f6 04 bd 33 52 3d be 47 c5 57 3e 8c ec 81 be
       -0.032461926 -0.18488388 0.21071349 -0.25375783
0002d0 29 3c 14 3d f0 da ae bd bd 83 8e 3e 64 d0 f8 3d
       0.036190186 -0.08537853 0.27834883 0.12149122
0002e0 7d 7d 08 3e 91 7b f3 3d 33 1b 8b bd e4 76 ea bd
       0.1332912 0.11888803 -0.06792297 -0.11448458
0002f0 6e 5c 59 be be 34 df 3d e7 93 4c 3e b5 a0 48 3e
       -0.21226665 0.10898732 0.19978295 0.19592555
000300 27 84 98 be a6 16 d5 bc dd b4 86 be 96 51 24 be
       -0.29788324 -0.026011776 -0.26309863 -0.16046748
000310 f6 e5 0b be 8b 4a b6 3d 2b 67 3c be 30 ca da bc
       -0.13661942 0.08900937 -0.1839873 -0.026707739

gen.0.0.bias f4 [20]
000000 96 4f 5c 3c 8d 20 53 3e 71 e3 72 be 91 15 5f be
       0.013446709 0.20617886 -0.23719575 -0.2178557
000010 23 7f 3d be 7d 61 64 3e 1a 6b e9 bd 0d 22 88 3e
       -0.1850553 0.22302814 -0.11397381 0.2658848
000020 f7 c8 ea 3d 07 62 23 3d 6f 4c 89 ba 7d 6d 84 bd
       0.11464112 0.039888408 -0.001047505 -0.06466196
000030 85 0c 1e 3d d2 98 95 bd e4 f1 a9 bb 68 3b 25 3d
       0.03858616 -0.07304539 -0.0051863063 0.040339857
000040 0a 90 7a be 27 8f 28 be 79 b7 81 3e 1c fa 83 be
       -0.24469009 -0.16460858 0.2533529 -0.25776756

gen.0.1.weight f4 [20]
000000 6f 1c a2 3f db a7 8c 3f 8a 1f 5e 3f cc f8 76 3f
       1.2664927 1.0988725 0.86766875 0.96473384
000010 82 b6 71 3f 84 00 59 3f a1 6b 7a 3f a5 00 84 3f
       0.9441911 0.8476641 0.9782048 1.0312697
000020 99 ce 4d 3f 83 42 72 3f 5a ad 69 3f 89 3c 79 3f
       0.8039337 0.9463274 0.9128014 0.97357994
000030 b4 51 62 3f 52 0f 87 3f 0f ea 7c 3f 52 24 6d 3f
       0.8840592 1.055155 0.98794645 0.92633545
000040 78 b8 90 3f 2f d2 77 3f 2d 12 7c 3f cf d5 62 3f
       1.1306295 0.9680509 0.98465234 0.88607496

gen.0.1.bias f4 [20]
000000 0a 43 35 3e 4a 04 0a 3d 5b e0 c1 bd 18 62 74 3a
       0.17701355 0.033695497 -0.094666205 0.00093224784
000010 a2 93 b3 bc d8 4d db bd 7a 1a 53 bc 48 2b 3c 3d
       -0.021920983 -0.10708207 -0.0128847305 0.045939714
000020 4e c0 08 be 8d d7 6f bc 15 65 56 bd db 87 30 bc
       -0.13354608 -0.014638794 -0.052342493 -0.010774578
000030 b5 0d a7 bd d7 32 80 3d 0e 8b aa 3c 50 44 ba bc
       -0.08156911 0.06259697 0.02081826 -0.022737652
000040 e4 a4 6b 3d 71 c6 82 3c 16 fd eb 3c 91 8f 45 bd
       0.0575303 0.015963765 0.028807204 -0.04823262

gen.0.1.running_mean f4 [20]
000000 96 7c 05 bd c6 bb 1d 3e c4 51 20 be 7a 6d 86 be
       -0.032589518 0.15403661 -0.15656191 -0.262554
000010 df 7a 6f be 53 83 92 3e 04 09 14 be 63 a1 9f 3e
       -0.23386715 0.28615817 -0.14456564 0.31177816
000020 ab cf 23 3e 01 90 d5 3d 83 2e 77 3d 9e ba c1 bd
       0.15997188 0.10427857 0.06034709 -0.094594225
000030 cc a1 c2 3d 4f 4d ec bd 6a 52 ab 3d 0a f9 9f 3c
       0.095035166 -0.11538183 0.083653286 0.01952793
000040 f5 63 9b be a5 89 51 bd bc dd 85 3e ad 72 80 be
       -0.303497 -0.05115666 0.26145732 -0.2508749

gen.0.1.running_var f4 [20]
000000 b3 b2 6c 3e a5 ba 8e 3e 15 0f c0 3e 91 23 c6 3e
       0.23115043 0.27876773 0.37511507 0.3869901
000010 e0 cf a1 3e 00 4d d0 3e e4 57 7e 3e a0 b0 df 3e
       0.3160391 0.40683746 0.24838215 0.43689442
000020 61 88 c8 3e ac f1 c5 3e e9 b3 b7 3e bc 21 88 3e
       0.3916655 0.38660944 0.35879448 0.26588237
000030 4d 22 9d 3e 8b 28 13 3e 11 87 e7 3e 0f c8 b8 3e
       0.30690232 0.14370935 0.45220235 0.36090133
000040 6a 82 8c 3e 87 d6 eb 3e 4f 3a 40 3e c6 b6 ac 3e
       0.27443248 0.4606211 0.18772243 0.33733195

gen.1.0.weight f4 [40, 20]
000000 33 de 3b 3d 19 df 82 3e 35 a7 2b bc 8a 1f b2 3c
       0.045866203 0.25560835 -0.010476877 0.021743555
000010 07 79 06 be a4 73 26 3b 7c 89 f0 bd 78 ed fd bd
       -0.13132106 0.0025398517 -0.11744973 -0.12398809
000020 04 ca 95 bd 41 00 d9 bd 9b 1d 0e bb 3a 85 16 3e
       -0.07313922 -0.105957516 -0.0021685127 0.1469926
000030 b5 84 ca bc ad f7 5d 3e 17 ba 8b 3d 14 29 37 be
       -0.024721483 0.21676512 0.06822603 -0.17886764
000040 22 05 0a 3e 81 a9 41 be c3 20 1d be 8c 80 81 3c
       0.1347852 -0.18912317 -0.15344529 0.015808366
000050 57 a3 0d 3e c5 0d 50 3e ea 7f 33 bd ac d7 31 3d
       0.1383184 0.20317753 -0.04382316 0.04341857
000060 f7 37 c2 3d a9 e3 63 be 5e 87 46 3e 0b a6 57 be
       0.09483331 -0.22254814 0.19387576 -0.21059434
000070 31 6b b9 3c ff c5 83 bd ba fd 6c bd db a8 7b 3d
       0.02263412 -0.06434249 -0.05785916 0.06144033
000080 52 85 20 3e 7c 1a 1a bc dd 72 2b be 63 15 a4 bd
       0.15675858 -0.009405728 -0.16743036 -0.08011892
000090 34 98 2c be ab 6b bf bc 80 b3 12 be 3d 82 ca bd
       -0.16854936 -0.02336677 -0.14326286 -0.09888122
0000a0 a0 e6 83 3c be a1 43 3e a0 01 e9 3d 5b ff 51 3e
       0.016101182 0.19104668 0.11377263 0.20507567
0000b0 f6 86 93 3d b7 0a bc bd 62 41 aa bc fc 99 6b bc
       0.07203476 -0.09181731 -0.02078313 -0.014379974
0000c0 92 b9 eb 3d 8b af 01 3d 20 98 90 bc 31 ca b6 bd
       0.11510004 0.03166155 -0.017650664 -0.08925284
0000d0 7c 62 11 be 4e 5b c3 3d 56 67 0d be 3c 73 58 be
       -0.14197725 0.09538899 -0.13808951 -0.21137708
0000e0 16 c6 82 3e bb bb f5 bd 56 59 c7 bd e8 c7 01 3e
       0.25541753 -0.11998697 -0.09733836 0.12673914
0000f0 23 59 ca bd 31 ba 94 be ef 6a 43 be 3c 1b 0d 3e
       -0.09880283 -0.29048303 -0.1908376 0.1377992
000100 d6 99 a1 bc 2e b1 41 3e d5 04 83 bd 80 9f b4 3d
       -0.019726675 0.18915245 -0.06397406 0.08819485
000110 a1 02 71 bc 80 8f 86 bc a2 1c 00 be aa 52 65 3d
       -0.014710099 -0.016425848 -0.12510923 0.055987038
000120 0a a1 26 3d 43 50 c4 bc cb 0d 28 bd fc df c3 bd
       0.040680923 -0.023964053 -0.04102878 -0.09564206
000130 74 09 56 3d 7e 53 f5 bd 75 7c d9 3d 82 58 c6 bd
       0.05225511 -0.119788155 0.106194414 -0.0968485
000140 e5 4f 50 be e2 e8 88 bd c9 e0 77 bd ba c6 4f bc
       -0.20342977 -0.06685044 -0.060517106 -0.012681657
000150 49 b4 c9 bc 62 5a cd bd 00 82 d2 bc 00 7d cf 3d
       -0.0246221 -0.10027005 -0.025696754 0.10131264
000160 00 e0 8a 3d 60 71 c2 bc aa 23 b9 bd dc f5 94 bd
       0.06781006 -0.023735702 -0.090400055 -0.072734565
000170 cb e6 a3 3d 9d 53 1d be d1 64 e3 3d 28 d4 c3 3d
       0.08003005 -0.15363927 0.111032136 0.0956195
000180 7e a9 3b be 4c 21 61 3d dd a6 d1 3d 01 1e 3d 3d
       -0.18326375 0.054963395 0.10236905 0.046171192
000190 19 9c 68 3e 4f f3 1c 3e 82 52 14 be 4e ac c4 3d
       0.22715797 0.1532719 -0.14484599 0.09603177
0001a0 0b 39 28 3e ea 04 0f 3e 7a f6 00 3e 30 6f 8a bb
       0.1642801 0.13966718 0.12594023 -0.0042246804
0001b0 16 95 95 3d e8 95 07 be 86 55 2a be 79 74 4d be
       0.073038265 -0.13240778 -0.16634187 -0.20063962
0001c0 b8 0c 2a 3e 68 94 1c 3e 46 b6 2c be 66 8e 61 3c
       0.16606414 0.15290987 -0.16866407 0.013766861
0001d0 77 db 74 3e bf db 39 3e b8 7d bc 3d 4e af 30 3e
       0.23911844 0.18150233 0.092036664 0.17254373
0001e0 41 c8 77 be fa b1 65 be c9 62 b9 3d b9 f1 de 3c
       -0.24197485 -0.22431174 0.09052045 0.027214872
0001f0 40 e3 05 be 8c 9c 09 3e 1a 9c e8 3c 42 19 f0 3d
       -0.1307497 0.13438624 0.028394748 0.117235675
000200 76 22 cd bd 5e cd 47 3d 52 7e d2 bd 34 70 99 3d
       -0.100163385 0.048779838 -0.10278 0.07492104
000210 60 15 16 bd c6 9b b6 bb 1c ab 1c 3d c4 cc c3 3d
       -0.03664148 -0.005572769 0.03824912 0.0956054
000220 ac 33 7c be 15 a5 3c 3e d9 8c e9 bd 28 8e 36 bd
       -0.24629086 0.18422349 -0.11403818 -0.044569165
000230 f6 bc ff bd c4 11 5c be b9 4c 0f be 9f 03 6f 3e
       -0.12487213 -0.21491152 -0.13994111 0.23341225
000240 7c ab ce 3d c7 13 53 3e ca fd 8a 3e be e6 6a be
       0.10091302 0.20613013 0.2714675 -0.22939584
000250 37 96 ae bd 87 b0 6b bd 9c 0d 31 be e3 b3 84 3e
       -0.08524745 -0.057541396 -0.17290348 0.25918493
000260 13 de 18 be 84 70 ed 3c f8 38 7d be 79 94 94 bd
       -0.14928465 0.028984316 -0.24728763 -0.072548814
000270 3b 49 1d 3e 5a 83 7d 3d 51 ab 29 3d 1a c3 17 3e
       0.15359966 0.061892845 0.041423146 0.14820519
000280 d9 5c a3 3e 11 ff 92 3c 48 2a 50 3d 73 4e 3c 3e
       0.31906775 0.01794389 0.050821573 0.18389301
000290 28 c1 a9 3d d4 c4 0e 3e 68 ba ee 3d 2b 52 cd 3d
       0.08288795 0.13942271 0.11656648 0.10025438
0002a0 af b5 9f bd cc f2 3b 3d 2b 49 ed 3b bf 22 8e bd
       -0.07798325 0.045885846 0.0072413883 -0.06940221
0002b0 63 ce 1a be 4d 7b b3 bd 5b ba 5c be 72 a3 c7 3d
       -0.15117793 -0.08763752 -0.21555464 0.097479716
0002c0 ba a1 60 3e d4 35 48 bc d1 ed 16 be 55 38 02 3e
       0.21936694 -0.012219865 -0.14739157 0.12716801
0002d0 78 67 7e 3e 6d 6d cd 3d f6 7a ec bd 16 be 3c 3e
       0.24844158 0.10030637 -0.115468904 0.18431887
0002e0 4a 3e ed 3d af dd 41 be b1 87 52 3e 7f c9 7d 3d
       0.11584146 -0.18932222 0.20559575 0.06195974
0002f0 1f d3 79 bd 9c a8 0d 3d 0b 63 03 be 8d 67 eb bc
       -0.060992356 0.034584627 -0.1283075 -0.0287359
000300 71 f8 f6 3d 21 2d 1c 3d c3 63 61 be e3 ae cb bd
       0.12059105 0.038128976 -0.22010712 -0.09945466
000310 90 7c d8 3c 2a 07 ea bd 4f 64 8b bd f7 de 10 3e
       0.026426584 -0.11427148 -0.06806242 0.14147554
000320 b3 8d 93 3b d2 ea 1d be e3 75 61 3c d4 9d 08 3e
       0.004502976 -0.15421608 0.013761017 0.13341457
000330 02 f3 94 3d c7 e0 3c be 7a f6 c3 3c 9a 4f 46 be
       0.072729126 -0.18445121 0.02392124 -0.19366303
000340 6a 7e 80 bd 36 29 29 3d 37 b6 d0 bd b8 49 ff 3d
       -0.062741116 0.041299067 -0.10191005 0.124652326
000350 ce 96 44 3e 67 5f 9d 3d 45 3f 44 be 91 a8 a6 bd
       0.19198152 0.07684212 -0.1916476 -0.0813762
000360 cc 4a 44 3d 66 13 6e be 50 3b 5c 3d b1 1b 21 be
       0.047922894 -0.23249587 0.053767502 -0.1573322
000370 0f a7 ba be 81 87 93 be 1a bb 20 bd 7a f8 93 3d
       -0.3645558 -0.2881432 -0.039240934 0.072251275
000380 91 c7 5e be e7 9f 23 3e 32 e9 c7 bd ca 9e d3 3c
       -0.21755816 0.15978967 -0.09761275 0.025832552
000390 78 0a e0 3a f8 e9 40 be a8 20 10 3e 3b 43 d5 3d
       0.0017092964 -0.18839252 0.14074957 0.10413214
0003a0 2a 8a 47 3e 23 73 9d 3d 8d 64 18 be c1 34 1f 3e
       0.19486299 0.07687976 -0.14882107 0.15547468
0003b0 d7 1a af bd ad 91 86 3d 02 23 2e be 8c 2e e4 bd
       -0.08550041 0.06570754 -0.17005542 -0.111416906
0003c0 85 3a 95 be 0d 67 0a be 65 2e 14 3d cf 1f 42 be
       -0.2914621 -0.13515873 0.036177058 -0.18957447
0003d0 80 47 60 3d 14 44 8e 3d b9 50 6d 3d 52 8c 18 be
       0.054755688 0.069465786 0.05793831 -0.14897278
0003e0 15 c5 06 be 59 99 e4 bd 8c a8 3c 3d a5 04 74 3e
       -0.13161118 -0.11162061 0.046059176 0.23829897
0003f0 bd c8 b4 3d ca ed 1f 3c 38 2d d0 3b 95 4c 3b be
       0.0882735 0.009761283 0.0063530467 -0.18290932

gen.1.0.bias f4 [40]
000000 b2 81 01 3e 33 57 0f be 48 ee 01 be 45 d9 cd 3d
       0.12647131 -0.13998108 -0.12688553 0.100512065
000010 b3 da 86 bc 4f 73 58 be 99 b9 03 be 29 83 b9 3d
       -0.016461706 -0.21137737 -0.12863769 0.0905822
000020 b3 36 9f bd 01 f9 1d 3e d1 0d 35 3e 82 db 04 3d
       -0.07774105 0.15427019 0.17681052 0.0324359
000030 43 67 87 bc d6 5a 88 bd 7c 94 35 bc c9 12 1c 3d
       -0.016528731 -0.066579506 -0.011082765 0.038103852
000040 e4 32 31 be 90 e7 62 bd 05 19 3c be ba a9 0d 3e
       -0.1730457 -0.055396616 -0.18368919 0.13834277
000050 04 1c 10 be 04 75 53 3e 8c fc 73 bd 0e 7e 04 be
       -0.14073187 0.20650107 -0.05956702 -0.12938711
000060 f0 c1 dd 3d 6c 76 0c 3d 64 15 1f 3e f4 85 bc 3d
       0.10828006 0.034292623 0.15535504 0.09205237
000070 c6 54 5d be b1 33 0e 3e 8f 2c 30 bd 5f 7c c9 bd
       -0.2161437 0.13886906 -0.043011244 -0.09838175
000080 55 be 11 3e 31 74 26 3e e2 ad 46 be ef b5 9d bc
       0.14232762 0.16255261 -0.19402269 -0.019251792
000090 6c cb 3a 3e e5 52 b2 3d 33 99 44 3e c9 6c 9d bd
       0.18241662 0.08707217 0.19199066 -0.07686765

gen.1.1.weight f4 [40]
000000 11 aa 84 3f 5f 13 71 3f 04 44 87 3f a9 5d 4e 3f
       1.03644 0.9417018 1.0567632 0.80611664
000010 2b 60 8d 3f 43 60 84 3f cf 3d 7b 3f 7e 90 62 3f
       1.1044973 1.0341877 0.9814119 0.8850173
000020 00 d0 83 3f a2 78 75 3f aa 22 61 3f 3c f3 6b 3f
       1.0297852 0.95887196 0.8794352 0.9216802
000030 85 df 6b 3f e9 d9 8a 3f ea 52 84 3f 77 a4 74 3f
       0.9213794 1.0847751 1.0337803 0.95563453
000040 d1 15 86 3f b5 ce 74 3f bf 4d 8c 3f d3 10 88 3f
       1.0475408 0.9562791 1.0961226 1.0630134
000050 51 74 5e 3f 88 32 78 3f e8 10 8b 3f 9e 95 8b 3f
       0.86896235 0.96952105 1.0864534 1.0905035
000060 4f e8 8e 3f 3d 4b 60 3f fb bb 6b 3f 6c 57 7a 3f
       1.1164645 0.87614805 0.9208371 0.97789645
000070 66 86 63 3f d7 5d 73 3f e4 a5 89 3f 0f de 76 3f
       0.8887695 0.95065063 1.0753751 0.96432585
000080 57 00 82 3f ee 7b 70 3f 7b d1 82 3f 57 06 6c 3f
       1.0156354 0.939391 1.0220178 0.92197174
000090 f1 68 79 3f b9 96 69 3f ab 9c 86 3f 79 f8 55 3f
       0.9742575 0.9124561 1.0516561 0.83582264

gen.1.1.bias f4 [40]
000000 29 dc 0f 3e ea 79 16 3d 7a 4c dd 3c f1 25 b7 bd
       0.14048828 0.03673736 0.027014006 -0.089427836
000010 54 56 84 3b c0 b8 db 3c e8 23 ca 3d c6 b8 80 bd
       0.0040386114 0.026821494 0.0987013 -0.06285243
000020 2a 9d 96 bb 9d 42 7d 3d 53 84 83 bd 05 9b 63 3c
       -0.004596372 0.061831106 -0.06421723 0.01389194
000030 b2 5b 01 bc 6c cb aa 3d d4 66 52 3d 89 4c 03 3c
       -0.007895397 0.08339581 0.051367596 0.008013853
000040 b7 43 d4 bc 22 d7 f4 3c 33 46 ac 3d 49 68 fc 3c
       -0.025911195 0.02988774 0.08411827 0.030811446
000050 67 73 80 bd aa 48 0e bc 95 c0 43 3d 3e 62 b2 ba
       -0.06272011 -0.008684317 0.047791082 -0.0013609601
000060 fe 2a 54 3d 6f 6d dc bd 84 e5 af bb cc b9 11 3c
       0.051798813 -0.1076306 -0.0053679366 0.008894395
000070 43 5d b7 bd 3c 5a 24 bd 5a 3e eb 3c 11 00 c7 3b
       -0.08953335 -0.040125117 0.028716255 0.006073006
000080 1a c0 88 3d e0 8a 4b bd 95 41 b8 b9 c6 e2 46 bd
       0.066772655 -0.04969299 -0.00035144077 -0.04855611
000090 75 f1 0b bc 63 9d 3c bc 3f 7b 4d 3c fa 05 8f bd
       -0.008541455 -0.011512133 0.012541591 -0.06983562

gen.1.1.running_mean f4 [40]
000000 f5 a5 f0 3d 5f c0 83 be 35 22 c5 3c 23 bd 06 be
       0.11750404 -0.25732705 0.024064163 -0.13158087
000010 1e f7 6c be 6e c5 ac 3e af 7c c4 be ac 04 96 3d
       -0.23141143 0.33744377 -0.38376376 0.0732511
000020 49 25 99 3e ed 52 b2 3e 93 16 20 bd ed 16 c4 be
       0.2991126 0.34828892 -0.03908403 -0.3829874
000030 51 98 00 bf 12 b8 c3 be 15 76 7e be 95 fc 41 be
       -0.50232416 -0.38226372 -0.24849732 -0.18944009
000040 20 14 16 bf 35 8e 12 bf 46 9f c2 be 92 16 3a be
       -0.5862446 -0.5724824 -0.3801214 -0.18172672
000050 89 65 cb be 5d 85 26 be 40 a4 7c be 34 24 03 3e
       -0.39725903 -0.16261812 -0.24672031 0.12806779
000060 c8 a3 3a be 73 76 89 be 96 ae f3 3c ce 58 d4 3e
       -0.1822654 -0.26848182 0.029746335 0.41474003
000070 cc 44 fb be da 79 a7 bd d8 11 66 3d 58 2e b4 be
       -0.49075925 -0.08177538 0.05616936 -0.35191607
000080 54 97 d6 3e bb 03 16 3e 50 37 02 3e 98 2c 7e 3e
       0.4191233 0.1464986 0.12716413 0.24821699
000090 d9 61 ef be da a2 48 bd 16 bc 39 be 30 e1 61 be
       -0.4675434 -0.048983432 -0.18138155 -0.22058558

gen.1.1.running_var f4 [40]
000000 82 c7 85 3e 65 86 5e 3e f4 0a aa 3e 83 0c e5 3d
       0.26128775 0.21730955 0.33211482 0.11184027
000010 39 67 73 3e 43 0f b3 3e da 41 f6 3e e7 2e 82 3e
       0.23769845 0.3497258 0.48097116 0.2542641
000020 1e 98 96 3e 61 4b ca 3e c7 12 0c 3e 35 e6 f7 3e
       0.2941293 0.39510635 0.13679038 0.48417822
000030 84 2f 8e 3e 4c 52 c8 3e 71 c7 bb 3e 25 b1 1d 3e
       0.27770627 0.39125288 0.366756 0.15399607
000040 73 d9 fa 3e 06 d4 1b 3f 56 12 01 3f 75 20 bb 3e
       0.48994026 0.608704 0.50418603 0.365482
000050 1b 98 02 3e 37 5c 9e 3e 53 22 10 3f 49 49 dd 3e
       0.12753336 0.3092973 0.56302375 0.43219975
000060 60 ea c7 3e 9a 80 63 3e a5 9f 3e 3e bf 29 b0 3e
       0.39046 0.22217026 0.18615587 0.3440685
000070 3d d7 be 3d a5 87 92 3e 33 a0 3c 3e 77 b2 8a 3e
       0.09318397 0.28619114 0.18420486 0.27089283
000080 00 be e1 3e 64 27 6d 3e b9 87 b6 3e 55 c6 f1 3e
       0.4409027 0.23159558 0.35650423 0.47221628
000090 e1 82 82 3e 89 c8 4c 3e 8a 05 54 3e e7 0a aa 3d
       0.25490478 0.19998373 0.20705238 0.08302861

gen.2.0.weight f4 [80, 40]
000000 fe b2 ab bd 16 c9 ca 3d 0e 86 2d 3d 8d 88 a0 3d
       -0.083837494 0.09901635 0.042364173 0.07838545
000010 d6 61 47 be 26 e2 01 be a0 67 73 bd 23 ec 06 be
       -0.19470915 -0.12683925 -0.059424996 -0.13176017
000020 29 6d 9d 3c e4 c9 62 3d 2b 53 d9 ba 6d 86 bd bc
       0.01921709 0.05536832 -0.0016580572 -0.023135388
000030 ed 6c bb 3d a6 7e 5f be 98 25 cf 3c 07 15 e1 bd
       0.09151635 -0.21825656 0.02528648 -0.10990339
000040 fb e9 8a be 1a 5e a8 bd 49 33 9e 3c c3 92 9c bd
       -0.27131638 -0.082210734 0.019311564 -0.0764518
000050 7d f4 c1 3d fa 54 fb bd 0f 42 92 bd 8a c2 31 bd
       0.094704606 -0.12272067 -0.07141506 -0.043398418
000060 c3 4f 97 bd b5 52 b9 3d 9d 93 68 3d 06 b3 4f bd
       -0.0738826 0.09048978 0.0567814 -0.05070784
000070 ef 6c ef 3c 0b 2e 05 be 81 f2 61 bd 05 56 b2 bc
       0.029226748 -0.13005845 -0.05516291 -0.021769533
000080 c9 d7 af bd 4a 2b 9a 3d 1c f4 bf bd 76 87 24 bd
       -0.085860796 0.07527788 -0.09372732 -0.040168248
000090 3f 4e e0 bc 32 07 d7 bd 6e 3e a6 bd 60 7d 30 3d
       -0.02738106 -0.10499419 -0.08117376 0.043088317
0000a0 60 a7 cb bd e8 c7 fd bc 0e ef 89 bb c9 aa 83 3d
       -0.099440336 -0.030979112 -0.0042094057 0.06429059
0000b0 27 c7 e2 bd c5 05 e9 bc 14 fc da bd 8c a4 d0 bd
       -0.110731415 -0.028445134 -0.10692611 -0.10187635
0000c0 1e 95 1c bd d4 cb 04 bd 79 d2 aa bd fe 09 e9 bd
       -0.038228147 -0.03242095 -0.08340926 -0.11378859
0000d0 35 3d 7e bd 23 1e df 3b 65 69 06 be 5b 87 bf bd
       -0.06207009 0.0068090125 -0.13126142 -0.09351989
0000e0 50 67 13 bc 04 d1 e8 bd a7 63 1b be 9f fa 82 bd
       -0.0089968 -0.113679916 -0.15174733 -0.063954584
0000f0 7c e7 50 3c 94 49 b5 bd db 74 ec bd 36 1f 8d bd
       0.012750503 -0.088519245 -0.11545726 -0.06890719
000100 75 38 2a be 7b 36 0f 3c dd 67 80 bd 7e 28 47 be
       -0.16623099 0.0087410165 -0.0626981 -0.1944904
000110 2b 1c c0 3d 74 f8 b9 bd 5d 13 37 be 4a bd 53 3d
       0.093803726 -0.09080592 -0.1787848 0.051694192
000120 4b cd a3 bd bb 50 2d 3e 85 0b 03 be 09 bd c2 bd
       -0.07998141 0.16925327 -0.12797363 -0.09508712
000130 7c 34 0c bd 35 36 fe 3c ff fc 9e 3d 2a 4d c2 bd
       -0.03422974 0.031031707 0.07763099 -0.09487374
000140 ee c9 b1 bd 0a 68 3c bd 31 8d 26 be 07 8d 72 bd
       -0.08681093 -0.045997657 -0.16264798 -0.059216525
000150 1e 10 85 3d c0 c6 10 be 8d c0 16 3d e8 f9 c7 bd
       0.06497215 -0.14138317 0.036804724 -0.09764463
000160 9d d5 70 3d 6a 9d 2b be 4c f4 9b 3c 82 0b 90 bd
       0.058797467 -0.16759267 0.019037388 -0.07033445
000170 1d 29 10 bd cd 8a c9 3c 67 09 c5 3d ac 89 5b be
       -0.03519546 0.024602318 0.09620934 -0.21439236
000180 c9 04 fb bc 33 35 32 3e b1 39 9a bd 14 df 3b 3d
       -0.03064193 0.17403106 -0.07530535 0.04586704
000190 ec e8 22 be 66 ef cd 3a 6d af ce bd 16 62 a7 3d
       -0.15909165 0.0015711605 -0.100920536 0.08173005
0001a0 ce be ef 3c 86 2c ec bd 5a 09 96 3d 60 ab 05 bd
       0.029265787 -0.1153193 0.073260024 -0.03263414
0001b0 7c 44 e2 bd 43 a3 64 bd 8e c5 0e be a8 9c a9 3d
       -0.110482186 -0.05581976 -0.13942549 0.08281833
0001c0 7a 5d 3d be d5 cc c8 bd 3b bf ce bd a3 f6 7a bd
       -0.1849269 -0.098046936 -0.10095068 -0.061270367
0001d0 0e 4f 02 3d da f1 3b 3d 65 8d 2e 3d 31 0b 0c bd
       0.031813674 0.045884944 0.042615313 -0.03419036
0001e0 19 b6 bf bd 98 c4 4b bc 8f 91 b1 3d b6 0b ca bd
       -0.09360904 -0.012437008 0.08670341 -0.09865515
0001f0 f4 f7 33 be 5d b8 27 be 93 cc 6a bd 39 16 21 3e
       -0.17575055 -0.16378923 -0.057324003 0.15731134
000200 1d 9e a2 3d 98 d8 2d be a2 db 3b 3d d7 f8 2b 3d
       0.07940314 -0.16977155 0.045863755 0.04198536
000210 0f 0e c0 3d a3 2a 7e 3d f1 ce 9b bd 96 08 c1 bd
       0.093776815 0.06205238 -0.0760783 -0.09425466
000220 a6 a6 62 3c b9 8e b0 bd ea ed a3 3b b4 75 f0 bd
       0.013833677 -0.08620972 0.005002727 -0.117412
000230 f4 31 a2 3d 91 19 39 3c d7 37 6e 3d bb 94 33 be
       0.07919684 0.011297599 0.05815872 -0.17537205
000240 2d ba 59 be 6e 30 fd 3c 6c 27 9f bd 90 4b 01 3e
       -0.21262427 0.030906882 -0.07771191 0.12626481
000250 f1 46 38 3c d3 15 21 be 1c b5 0b be 01 af 14 be
       0.0112473825 -0.15730982 -0.13643306 -0.14519884
000260 ca 1b 22 3d 6c a4 64 bd d1 ab 2a be 2f 57 c1 bd
       0.039577283 -0.055820867 -0.16667105 -0.09440457
000270 d6 4b 25 3d 31 47 7d 3d 51 89 cc bd a4 75 ab 3b
       0.040355526 0.06183547 -0.099871285 0.0052325297
000280 da ba 40 3c 6c 75 54 bd 2e 2d 18 be 97 2d 0b bd
       0.011763299 -0.051869795 -0.14860985 -0.033979025
000290 3e 0c 4d 3d 98 03 30 bc c3 a8 e1 bd 56 fd 14 3d
       0.050060503 -0.010743044 -0.11018517 0.036374412
0002a0 cb 7c 9d 3c 05 fa 02 be eb 4e 23 3d fd 6e 39 3e
       0.019224545 -0.12790687 0.039870184 0.18108745
0002b0 08 96 48 3d 2b 50 00 3d 11 61 65 3d 6a 31 4d be
       0.048971206 0.031326454 0.056000773 -0.20038381
0002c0 2e 88 09 3e d3 13 04 3d 93 75 dd 3d ae 17 c4 bd
       0.13430855 0.03224547 0.10813441 -0.09574829
0002d0 d6 ef 0d be 20 5c b6 3d 1f 32 47 3d 9b 53 76 be
       -0.13861021 0.0890429 0.048631784 -0.2405533
0002e0 cd 20 ae bd 5e 4b 09 be eb 70 e0 bc fd ed db bd
       -0.0850235 -0.13407657 -0.027397593 -0.10738752
0002f0 16 53 30 3d 46 de 6d 3c 1e a6 01 bd 14 d3 cc 3d
       0.043047987 0.014518326 -0.031652562 0.100011975
000300 6e 3d 81 bd bd 6f 14 be 21 7f 30 bd df d6 80 bc
       -0.06310545 -0.1449575 -0.04308999 -0.015727459
000310 cc 1c ec 3d 3c f3 e5 bd ca 97 54 3e 6f 45 b2 3d
       0.1152893 -0.11228034 0.20761028 0.0870465
000320 4a 3f 3d be 4b 55 7e bd a3 77 3e 3d fd bc cc bd
       -0.18481174 -0.06209306 0.046500813 -0.09996984
000330 65 00 b6 3d 56 2e 8f 3c c5 78 1b 3d 72 b7 ba 3d
       0.08886794 0.01747815 0.03795697 0.09117021
000340 1e 40 b9 3d a8 10 9b 3d c8 d1 66 bd 2f 67 20 3e
       0.090454325 0.07571536 -0.056352407 0.15664361
000350 fe ac 75 3b dd bd d0 3b ee 12 ab bc 43 d1 1d be
       0.0037487145 0.0063702897 -0.02088305 -0.15411858
000360 ee c0 67 3e 4c 3a cb 3d a2 a0 c0 3d 19 a5 b1 3d
       0.2263219 0.099232286 0.09405638 0.08674068
000370 59 3d 02 be 8d a2 3d 3d da b9 9d 3c 58 ce 83 3b
       -0.12718715 0.0462976 0.01925366 0.004022401
000380 d6 96 7a 3d 76 8f c1 bd e2 c7 7a 3c 5f 5c 48 3d
       0.061179005 -0.09451191 0.015306445 0.048916217
000390 8d a6 c2 bd dd e0 2b bd 97 85 21 3d 13 5f da 3d
       -0.09504423 -0.041962493 0.03943404 0.10662665
0003a0 2a 5e eb bd 56 8a a0 bd b0 91 1f be 5e 8d 25 be
       -0.1149257 -0.078388855 -0.15582919 -0.16167209
0003b0 df 99 be 3d 2b f5 52 bd e6 be 70 3e b9 49 8c bd
       0.09306692 -0.05150334 0.23510322 -0.06849999
0003c0 85 bf 63 bd bf b0 f6 bc e5 0c c7 3c 1e dc b5 3d
       -0.05560257 -0.030113576 0.02429814 0.08879875
0003d0 1d a0 8c bc 34 1a dd 3b b4 ae 69 bd b9 0a be bd
       -0.017166192 0.0067475084 -0.057051376 -0.09279389
0003e0 a0 4e 2c be da b8 3b bb a1 be 96 3d 86 66 19 bd
       -0.16826868 -0.0028644116 0.07360578 -0.03745129
0003f0 53 32 25 3c 1d e9 27 be 0d 7e 08 3a 32 da 09 3e
       0.010082799 -0.1639752 0.00052067713 0.13462141

gen.2.0.bias f4 [80]
000000 4c 24 f8 bd f3 5f 07 be 9d 55 74 3d 91 d2 97 3d
       -0.12116298 -0.13220195 0.05965196 0.07413209
000010 53 bf 97 bd 9c c8 ca 3c a3 e6 1f be 3d 6a ff 3a
       -0.07409539 0.024753861 -0.15615325 0.0019486618
000020 2c 51 1c 3d 36 fb 4d 3b 62 64 d8 bc 61 ea 86 3d
       0.03816335 0.003143025 -0.026415054 0.06587673
000030 9a ed 36 bd a8 49 f1 3d 48 3a 0b be e5 e6 b9 bd
       -0.04466019 0.11781627 -0.13596451 -0.09077243
000040 82 fe 06 be 7e f4 11 be 6a 27 f0 3d b2 83 22 bd
       -0.13183025 -0.14253423 0.11726268 -0.039676376
000050 61 59 00 be 6c 42 fb 3c 26 22 f6 bd 3b e5 03 3c
       -0.12534095 0.03067132 -0.12018232 0.008050258
000060 1a 08 9a 3d fb 44 07 bd 41 c6 a6 3d 04 54 07 3d
       0.075210765 -0.03302477 0.08143283 0.033039108
000070 8f 17 02 be 15 95 fd 3c 74 17 d1 3d af 2d 17 bd
       -0.127043 0.030954877 0.102095515 -0.0369088
000080 23 b1 49 3c d0 9e a6 3c 0a 19 77 3c f0 19 2b 3d
       0.012310299 0.0203394 0.015081653 0.041772783
000090 ae 18 1a be 6c eb f7 3d 93 65 8c 3d 95 f4 9d 3c
       -0.15048477 0.1210545 0.06855311 0.019281665
0000a0 d6 2a ee 3c 15 35 02 be 10 c1 3f bd 92 a0 cc bb
       0.02907316 -0.12715562 -0.046814978 -0.0062447274
0000b0 04 22 19 3d 2d 7e b1 bd 63 f0 88 3c ac 11 47 bd
       0.037385955 -0.08666644 0.016716188 -0.048600838
0000c0 24 15 eb 3d 76 e4 0a be 38 b4 88 3c 63 83 db 3d
       0.11478642 -0.13563713 0.016687497 0.107184194
0000d0 6a c6 f9 bd 1e 81 c6 bb db bc 96 3d c4 f1 83 3d
       -0.121960476 -0.0060578724 0.0736024 0.064425975
0000e0 35 90 96 3c ac 7c 80 3d 0d b5 e1 bd 48 67 06 3e
       0.01837931 0.06273779 -0.11020861 0.13125336
0000f0 5e a7 8a 3b e2 56 cd 3d 87 30 10 3d d1 08 90 bc
       0.0042313775 0.10026337 0.03520253 -0.017582329
000100 03 19 8a 3d 96 08 1a 3e 69 dd 1f 3e 91 a3 07 be
       0.06743052 0.15042338 0.15611805 -0.1324599
000110 e5 f4 25 3c c0 1f ea bd 9c a0 bb 3d ce 97 eb 3d
       0.010129188 -0.11431837 0.09161493 0.11503564
000120 21 09 e3 bd 44 0d 11 bc 28 10 e2 3d 2b 61 d5 3d
       -0.110857256 -0.00885326 0.11038238 0.10418924
000130 16 3e f5 bd b4 78 d8 3d 2b 0d e0 bc a9 4d 0a be
       -0.119747326 0.10569897 -0.027350029 -0.13506187

gen.2.1.weight f4 [80]
000000 0c bf 85 3f d1 6f 6e 3f 3d cc 88 3f 6e f7 7d 3f
       1.0448928 0.9313937 1.0687329 0.9920567
000010 f9 5d 88 3f ba 59 8a 3f 2e c1 7c 3f 67 f3 84 3f
       1.0653678 1.0808632 0.9873227 1.038678
000020 a6 56 7c 3f e7 65 6d 3f b1 45 81 3f 99 0e 83 3f
       0.98569715 0.92733616 1.0099393 1.023883
000030 fc fd 73 3f 4d 64 85 3f 23 9f 85 3f 11 b4 7e 3f
       0.95309424 1.0421234 1.043919 0.9949351
000040 01 6f 83 3f bc 23 77 3f 2a 8a 82 3f a2 eb 80 3f
       1.0268251 0.965389 1.0198414 1.007191
000050 ff 10 83 3f 8b fe 7a 3f d0 ac 83 3f 25 c2 8a 3f
       1.0239562 0.9804465 1.0287113 1.0840498
000060 cd 4e 85 3f d9 93 83 3f d5 b0 85 3f 48 74 71 3f
       1.0414673 1.0279495 1.044459 0.94318056
000070 87 c1 84 3f 9c 5f 78 3f 95 30 8d 3f b6 cf 6d 3f
       1.037156 0.9702089 1.1030451 0.92895067
000080 2c 97 78 3f 6e f6 62 3f 81 49 76 3f c0 ce 70 3f
       0.9710567 0.8865727 0.9620591 0.94065475
000090 2d 41 87 3f d9 0d 82 3f bf b0 80 3f 32 a5 5c 3f
       1.0566765 1.0160476 1.0053939 0.8618957
0000a0 08 ae 7e 3f 2d 91 6b 3f 85 a5 86 3f 37 fe 82 3f
       0.994843 0.92018396 1.0519263 1.023383
0000b0 09 82 90 3f cb 58 76 3f 71 31 80 3f 9b 81 86 3f
       1.1289684 0.9622924 1.0015088 1.0508302
0000c0 e0 b5 76 3f ef a0 87 3f cf 46 7a 3f 98 45 81 3f
       0.9637127 1.0595988 0.97764295 1.0099363
0000d0 21 de 73 3f f0 94 89 3f 16 93 7f 3f 3b 41 78 3f
       0.95260817 1.0748577 0.9983381 0.96974534
0000e0 8e e7 8b 3f 54 14 76 3f c0 28 85 3f fe ec 7a 3f
       1.093004 0.9612477 1.0403061 0.9801787
0000f0 de 84 72 3f 44 4d 84 3f 83 ca 80 3f 10 df 70 3f
       0.9473399 1.033608 1.0061802 0.94090366
000100 9d 32 76 3f 30 f4 75 3f df e0 76 3f bd a1 84 3f
       0.9617098 0.96075726 0.96436876 1.0361859
000110 18 16 63 3f 30 9a 6e 3f c9 8c 82 3f 5d 93 81 3f
       0.8870559 0.9320402 1.0199214 1.0123097
000120 25 70 86 3f e5 63 81 3f e9 30 7d 3f 25 cf 80 3f
       1.0502974 1.010861 0.98902756 1.0063215
000130 ef a5 81 3f af d3 7a 3f 62 6d 7d 3f fa 36 77 3f
       1.0128764 0.97979254 0.9899503 0.9656826

gen.2.1.bias f4 [80]
000000 b7 5d f9 bc af 97 c2 bd ed e7 a9 3c c4 e2 93 bd
       -0.030440195 -0.095015876 0.020740474 -0.072209865
000010 12 a9 db 3d 41 0a ed 3d c2 a3 f6 bb 20 20 c3 3d
       0.10725607 0.115742214 -0.0075268457 0.09527612
000020 c2 96 21 3e b0 a1 cc bd eb 0c 83 3d 67 8b 47 3d
       0.15780166 -0.09991777 0.06398948 0.04871693
000030 c0 59 9c 3b 50 76 5c bb 6d 69 b6 3d 39 0c 2d 3d
       0.004771441 -0.0033639856 0.08906827 0.042247985
000040 be e5 9b 3d 7c 67 bf bd 75 37 3e 3b 1e 33 33 bd
       0.07612179 -0.0934591 0.0029024754 -0.04374992
000050 8b e9 aa bd 80 cc 72 bd 4a 1e f7 bc c8 b9 ad 3d
       -0.08345326 -0.059277058 -0.03016581 0.084827006
000060 cd d6 78 3d 85 75 74 3d 91 ae 8a bb e3 12 aa bd
       0.060751725 0.059682388 -0.0042322357 -0.083043836
000070 5f 8e 95 3d 8c ba f5 bd b1 04 d5 3d 59 e0 9f bd
       0.07302546 -0.119984716 0.104012854 -0.07806463
000080 7e bc cc bc 84 0c 1d be df 6a a2 bd bb c0 20 be
       -0.024992224 -0.15336806 -0.0793054 -0.15698521
000090 4a cb cf bc 64 42 95 bd be c2 6d bd fb cc d7 bd
       -0.02536549 -0.07288054 -0.05804705 -0.10537144
0000a0 92 6c 5a 3d 59 12 32 bd 15 5c e0 3d cc a9 e0 39
       0.053326197 -0.04347453 0.10955063 0.00042851118
0000b0 ca 4f b3 3d 6f 08 b5 bb 17 df ac 3d fe 38 c1 3d
       0.08755453 -0.005524687 0.084409885 0.094346985
0000c0 2c a8 59 bd d2 8b cf bc 5e 91 a1 3d c4 e1 03 3c
       -0.053138897 -0.025335226 0.07889055 0.008049432
0000d0 5e ca c9 bd 5c 07 07 3d 77 a7 ff 3c b2 91 be 3b
       -0.098530516 0.032966003 0.031207783 0.005815708
0000e0 5d 01 05 3e 8f dd d6 bd ef 24 05 3e a1 87 a0 3d
       0.12988801 -0.10491478 0.1300237 0.07838369
0000f0 ce 2f 9e bd 01 83 2e 3d aa 97 11 bd 6b 1a 17 bd
       -0.07723962 0.042605404 -0.03554503 -0.03689043
000100 3d e7 9c bd 2d c5 0a be 5c aa 94 bc dc 78 41 3d
       -0.07661293 -0.13551779 -0.01814764 0.0472344
000110 6a 63 32 bc a1 3c ce bc 87 cc 8b 3c 6e 9f c2 3d
       -0.01088796 -0.025175394 0.0170653 0.09503065
000120 a1 90 0f 3d c5 b1 e3 3d 7b d6 24 bd 6e 17 fb 3c
       0.03505004 0.11117891 -0.040243607 0.03065082
000130 42 b7 17 bd 16 e6 bb 3c 08 9b cb bd d8 04 89 bc
       -0.037040003 0.022936862 -0.09941679 -0.016725942

gen.2.1.running_mean f4 [80]
000000 6f 55 57 bf 11 b4 8f bf 84 58 01 bf b1 35 11 bf
       -0.84114736 -1.1226827 -0.5052569 -0.5672255
000010 26 e3 86 be b6 69 3c 3e 4e 42 4f bf 92 02 73 be
       -0.26345176 0.183997 -0.8096055 -0.23731449
000020 74 5d 28 bf b4 64 4a bf 3e 14 ab bd f5 c1 2e bf
       -0.657676 -0.7905991 -0.0835347 -0.68264705
000030 53 2f 47 bf 76 aa f3 3d 5f c3 7b be cd 3c d9 be
       -0.77806586 0.11897747 -0.24586247 -0.424292
000040 c3 f5 dc bd 55 1e 42 bf 34 97 0f bf ab 20 c4 3d
       -0.10789063 -0.75827533 -0.5609009 0.095765434
000050 8c a1 5a bf 16 66 06 bf e2 e2 53 bf e2 a1 19 be
       -0.8540275 -0.5249952 -0.8276807 -0.1500316
000060 3b 28 fa 3e 96 ae 08 bf 5b 99 aa 3e b4 47 3b bf
       0.48858818 -0.53391397 0.33320126 -0.73156285
000070 05 76 e6 be 81 dc 1b bf 44 68 86 be fc 44 d7 bc
       -0.45011917 -0.6088334 -0.26251423 -0.026278012
000080 d6 02 17 bf 59 ec 38 bf ed 8c 24 bf de 01 31 bf
       -0.589887 -0.7223564 -0.64277536 -0.69143474
000090 08 b2 70 bf 7a f7 21 bf 4d b6 2e bf bf 9b 03 bf
       -0.94021654 -0.63268244 -0.6824692 -0.51409525
0000a0 f5 df 18 3e da 9d 8c bf a0 0c 1d bf 58 0f 4f bf
       0.14929183 -1.0985672 -0.6134739 -0.8088279
0000b0 ab 2e 4e bd 5c 24 9b be d6 f9 2f bf 81 48 c7 be
       -0.050337475 -0.30301178 -0.68740594 -0.38922504
0000c0 47 fc fe 3e b5 4c 40 bf 68 59 58 3d 83 4a 49 3e
       0.49801847 -0.75117046 0.05281964 0.1965733
0000d0 b9 d5 70 bf 6f df 26 bf da 74 0d 3d 57 5c df be
       -0.94076115 -0.6518468 0.034535266 -0.43625137
0000e0 3e 2d 26 bf 77 49 24 bf e0 9f 65 bf a6 6f 33 bf
       -0.64912784 -0.641746 -0.89697075 -0.70092237
0000f0 07 ee 83 bf 70 ea 3e bf ae c3 46 bf 2d d7 20 bf
       -1.0307015 -0.74576473 -0.77642334 -0.6282833
000100 3a 7d 24 bf 8f 99 0d bf f7 03 fa be 6d 77 ba b9
       -0.6425358 -0.55312437 -0.4883115 -0.00035565664
000110 88 9a 61 bf b9 c2 61 bf 70 52 17 bf 75 21 0b bf
       -0.8812642 -0.8818775 -0.59110165 -0.54347926
000120 39 66 39 bf 64 40 1f bf d1 87 06 bf bd ed 2f bf
       -0.72421604 -0.6220763 -0.5255099 -0.68722135
000130 8f 1c 11 3e ad 11 16 3e 76 5e 23 bf d5 e7 56 bf
       0.1417105 0.1465518 -0.6381601 -0.839475

gen.2.1.running_var f4 [80]
000000 41 56 af 3e 24 8f ab 3e 54 21 48 3f fe 76 5c 3e
       0.34245494 0.33507645 0.78175855 0.21529767
000010 91 78 4f 3f 82 14 42 3f 89 70 87 3e 86 69 74 3f
       0.81043345 0.7581254 0.26453045 0.95473516
000020 34 a6 87 3f 51 15 22 3e b3 cd 31 3f 37 69 31 3e
       1.0597596 0.15828444 0.694545 0.17325293
000030 de be a3 3e eb 51 f8 3e 2b 3d 1c 3f f2 72 2d 3f
       0.31981558 0.48499998 0.61030835 0.6775352
000040 e6 d7 32 3f e6 1d 4b 3e af be 6c 3e d7 ee f5 3e
       0.69860685 0.19835624 0.23119615 0.48033783
000050 1d 6b 83 3e c8 6f b4 3e 68 3a 80 3e 60 9f 1d 3f
       0.25667658 0.35241532 0.2504456 0.6157131
000060 57 9f fb 3e cd 0b 5a 3f a0 f4 24 3e 03 c4 a0 3e
       0.49145004 0.85174257 0.16108942 0.31399545
000070 58 88 72 3f 82 5d 53 3e 18 d7 38 3f bf 6e 34 3f
       0.94739294 0.20641139 0.72203207 0.70481485
000080 01 7c 2a 3e 47 da 30 3e 7b 65 52 3e f9 09 8d 3e
       0.16648866 0.17270766 0.20546524 0.2754667
000090 e1 8e ad 3e 51 d1 a8 3e 47 05 8f 3e 27 e0 f0 3d
       0.3389807 0.32972196 0.27933714 0.11761504
0000a0 fe 3b 47 3f 44 c8 89 3f 22 5e c1 3e c0 3d b4 3e
       0.77825916 1.0764241 0.3776713 0.35203362
0000b0 a8 a3 d6 3e 9b 54 61 3f 26 bd a1 3e 49 bd 9a 3f
       0.41921735 0.8801972 0.3158962 1.2089015
0000c0 b3 9b 46 3f 81 b1 58 3e 2b 1b 0c 3f 9a 58 f8 3e
       0.7758133 0.21161462 0.54728955 0.48505098
0000d0 ed 74 b0 3e fe 85 ea 3e 0e ff 1c 3f 2c c7 39 3f
       0.34464207 0.45805353 0.6132668 0.7256954
0000e0 55 35 36 3e 95 a1 08 3f 9d c0 c7 3e 28 c3 8f 3e
       0.17793782 0.53371555 0.3901414 0.2807858
0000f0 24 e4 a9 3e 42 16 b0 3e 58 1c 0d 3f a9 36 ff 3e
       0.3318187 0.3439198 0.55121374 0.4984639
000100 a5 d9 57 3e e9 f3 74 3e 97 ca a4 3e 38 21 f1 3e
       0.21079119 0.2392117 0.32185814 0.47095656
000110 b1 b7 bc 3e 30 5f 62 3e cb a4 76 3e 89 7e 86 3e
       0.36858895 0.22106624 0.24086301 0.26268414
000120 7c 35 35 3f 4f a3 af 3f ad 75 b5 3e 05 67 00 3f
       0.70784736 1.3721713 0.35441342 0.50157195
000130 cf 74 a5 3e ea 04 46 3f 9e fb e1 3e 50 fc 89 3e
       0.3231568 0.7735125 0.4413728 0.26950312

gen.3.0.weight f4 [160, 80]
000000 07 e6 29 3b f3 ba 80 3d 1a 83 ae 3d 67 8b 3a bd
       0.002592446 0.06285658 0.085210994 -0.0455431
000010 aa 3f 51 bd bb be a0 bd 70 6a 27 3d 94 41 a0 bd
       -0.051086105 -0.07848879 0.04087299 -0.07825008
000020 05 5a 01 bc bf 80 f7 3c c9 ac b9 3c d1 97 d6 bc
       -0.0078949975 0.030212758 0.022665398 -0.026195439
000030 e6 32 2b bc 33 18 40 3d cb 0a 90 3d 9b 5b 44 bc
       -0.010449147 0.04689808 0.070333086 -0.011984731
000040 bc 64 30 bc d7 2a 00 3b 57 38 cd bd 58 08 3d bd
       -0.010766204 0.0019556785 -0.100205116 -0.046150535
000050 61 df 62 bd 67 4c 74 bd 27 6f e7 3d 68 ec e7 ba
       -0.055388812 -0.059643175 0.113004975 -0.0017694356
000060 e5 c1 9e 3d 64 2e d9 bc fa c0 3b bd af 81 5f 3d
       0.07751826 -0.026511379 -0.045838334 0.054567035
000070 d6 f0 74 bd 76 34 8d bc aa 59 d9 bd 4e 0e df 3d
       -0.05979999 -0.01723693 -0.10612805 0.108914
000080 a5 f5 00 3d 1d f6 51 bc 84 42 c6 bc e8 4a 37 bd
       0.031484265 -0.012815026 -0.024201639 -0.04474917
000090 2a fa ea bc 7f 8a 0f 3e 1d 91 91 3d 8a 02 31 3b
       -0.02868374 0.14017676 0.07107756 0.002700957
0000a0 7b 8e 0f 3d e6 ed 62 3b ee 66 4e 3d 8c 07 aa bd
       0.03504799 0.0034626662 0.05039113 -0.08302221
0000b0 93 e4 94 3d ba 08 d0 bd 5b 4e 14 bd 87 72 27 bd
       0.072701596 -0.101579145 -0.036207538 -0.040880706
0000c0 73 c6 30 bd a0 9e d4 bd bc b4 91 3c 1c 79 3e 3d
       -0.043158006 -0.10381818 0.017786376 0.046502218
0000d0 d8 86 21 3d 09 c2 49 3d 75 09 8b 3d 3f 24 91 bc
       0.039435238 0.049257312 0.06788913 -0.017717479
0000e0 a4 28 60 bd 54 3d 8c bd 9b ec 21 be 0a 03 cf bc
       -0.054726258 -0.06847635 -0.15812914 -0.025270004
0000f0 4e cb 49 bd 8f d9 06 bd 47 3c 9a 3d cf 2a 5b 3d
       -0.049266152 -0.032922324 0.07531028 0.053507622
000100 ec 49 e6 3d b0 97 90 3d 87 5f 10 bd 1c e0 b5 bd
       0.11244568 0.07060182 -0.035247352 -0.08880636
000110 59 1e 24 3c 8f 9e 8e bd f9 72 00 3d cc 47 52 bd
       0.010017001 -0.069638364 0.031359646 -0.051338002
000120 8f e9 83 bd f4 42 ae bd e0 35 1a bd d8 29 ba 3c
       -0.06441032 -0.08508864 -0.037649035 0.02272503
000130 da c0 8a 3d bd ce 60 3d cb 86 85 bb 8c d9 43 bd
       0.06775065 0.05488466 -0.0040749065 -0.04781489
000140 0f b7 93 bc c1 8f 24 bd 7f de 39 bc 21 3b e0 bd
       -0.018031625 -0.040176157 -0.011344551 -0.10948778
000150 af d2 b5 3d 3b a4 b3 bd 67 93 82 bd 4b 0d 88 3d
       0.08878075 -0.08771559 -0.06375771 0.066431604
000160 6b 25 e4 bd 1e 4b f7 3b b1 80 69 3d 3e c4 62 3d
       -0.111399494 0.0075467965 0.057007495 0.055362932
000170 82 35 13 3c 27 fd 9e bb c1 3a 85 3d 87 26 ab bc
       0.008984925 -0.0048519555 0.06505347 -0.020892395
000180 7f 7b 28 bd 43 91 9f bb 1b 16 bc b9 63 4d 52 3d
       -0.0411334 -0.0048696115 -0.00035874624 0.051343333
000190 82 d0 ab 3c c6 84 5e 3d 92 1e 2a bc 9e 28 7c bc
       0.020973448 0.05432584 -0.010383265 -0.015390543
0001a0 14 54 99 3d 1b 23 10 3d 3c e7 ba bd 48 b4 03 bd
       0.0748674 0.03518973 -0.09126136 -0.03215435
0001b0 eb 85 8e bd 14 0c 3a bc c1 dd 22 3c 3e 57 2b 3d
       -0.069591366 -0.011355419 0.009940566 0.041831248
0001c0 9b 2c 06 bd e4 0c 37 bd ee a1 04 b6 51 d6 02 3e
       -0.032757383 -0.044690028 -1.9763788e-06 0.12777068
0001d0 40 6e 02 bd 4f fb 0f 3d 86 16 03 be 8a 3b 34 3c
       -0.031843424 0.035151776 -0.12801561 0.011000523
0001e0 f8 25 55 3d 34 b8 bf 3c 98 46 c1 3c 53 c0 cb bb
       0.052038163 0.023403265 0.023593232 -0.006217995
0001f0 ae b8 a5 3c 9c 20 2d 3e 00 3a d5 bc 80 db bf bd
       0.020229664 0.1690697 -0.026028633 -0.09368038
000200 25 c3 59 3d a4 d7 71 3c 9f 41 f8 3c 10 2c 01 bd
       0.05316462 0.014760885 0.030304728 -0.031536162
000210 44 e4 50 3d 81 5f 06 bc 54 6d 01 3d 39 98 c3 bd
       0.05099894 -0.008201481 0.031598404 -0.095505185
000220 af 0f 17 bd 7d 15 9a ba 87 63 7c bd b6 4f 8b 3c
       -0.03688019 -0.0011755672 -0.061618354 0.017005783
000230 1c 39 ea bc 5d d0 f8 bd ab 51 03 bd dc 83 53 bd
       -0.028591685 -0.12149117 -0.032060307 -0.051639423
000240 c3 29 29 3c 00 89 87 3d c0 08 6d bc 03 1d 14 bc
       0.010324898 0.066179276 -0.014467418 -0.00904012
000250 b2 14 28 3c 34 90 01 be ee b9 ef 3c 6f b5 43 bd
       0.01025884 -0.12652665 0.029263463 -0.04778045
000260 97 cb 3c 3d be 78 9d 3d 66 fc a7 bc b4 ad c1 3b
       0.046092596 0.07689045 -0.020506095 0.0059105996
000270 12 e8 84 bd ae 7c 04 3d e1 a2 99 3b 31 ad 58 bd
       -0.064895764 0.032345466 0.004688606 -0.052899543
000280 99 3a 0f 3c 08 80 14 3c 70 39 3a 3d a7 a1 07 bc
       0.008741998 0.009063728 0.045464933 -0.008278287
000290 d3 20 38 3d 09 c8 0f be bf ad 59 3d 8f d4 fd bb
       0.04495318 -0.14041151 0.053144213 -0.007746286
0002a0 d9 17 4f 3d 9a 54 33 3b 39 9a d1 3c 10 eb 72 3d
       0.050559852 0.002736366 0.025586234 0.059306204
0002b0 2d 40 f4 3c 7f 39 0d be 4e 65 80 3d 88 61 2e 3c
       0.029815758 -0.13791464 0.06269322 0.01064337
0002c0 24 f3 78 bd 13 c6 7f 3d 7b 81 98 3c d8 11 89 3d
       -0.060778752 0.062444758 0.018616429 0.066928566
0002d0 dc 47 7c bd 13 2b a3 bd ba 2f f2 3d 10 6a c7 3c
       -0.061591968 -0.079672 0.11825509 0.024342567
0002e0 7c 60 a7 3d 37 4a b7 3d a6 30 ab bd c0 d0 b7 3c
       0.081727 0.08949702 -0.08358888 0.022438407
0002f0 70 dc bd bd b0 2e 91 3d 6b de 15 be 92 35 01 be
       -0.09270561 0.07088983 -0.14635627 -0.12618092
000300 b9 7e c1 bd 71 75 19 3d f3 5f c0 3c 75 28 54 3d
       -0.094479986 0.037465516 0.023483252 0.051796395
000310 47 36 e1 3a dc 32 91 3c d2 29 47 3c 23 88 29 bd
       0.0017182314 0.017724447 0.012155967 -0.041389596
000320 8d 7b c4 3c 67 69 88 bd 51 83 7b 3c e6 8a 8f 3d
       0.023984695 -0.06660729 0.0153511325 0.07008915
000330 30 50 87 bd 6e c0 ef 3c 15 9f 59 bd d0 f0 69 bd
       -0.066070914 0.029266562 -0.053130228 -0.057114422
000340 57 58 0d 3c 24 1a 8b bc c4 69 86 3d 37 1c 7c ba
       0.008627019 -0.016980238 0.06563142 -0.00096172414
000350 cf c7 a0 3c 0d 21 76 bc 43 82 25 3d 2b 55 9c bd
       0.019626526 -0.015022528 0.04040743 -0.07633432
000360 ec 91 ee bd d4 68 b7 bd f8 87 bd bc 5b b1 0c bd
       -0.11648926 -0.08955541 -0.023136124 -0.034348827
000370 44 e6 83 bd e9 33 f7 3c 5f 57 d3 3d ba a4 49 bc
       -0.06440404 0.03017612 0.10319399 -0.01230734
000380 d9 9d c9 bd d4 63 16 bd fe ff 9f bb 45 d2 48 bd
       -0.0984456 -0.036716297 -0.0048828116 -0.049028654
000390 a4 9f d5 bc 68 bd 84 bd 77 a5 b2 bd 23 77 36 bd
       -0.0260771 -0.06481439 -0.08722966 -0.04454721
0003a0 1b d3 f7 3c 22 d1 be bd d7 42 fb 3d 3b d6 f7 ba
       0.03025203 -0.09317233 0.12268608 -0.001890845
0003b0 e4 4d ff bc 99 59 b5 bd 7f 1f aa 3d 8d 7b ab bc
       -0.03116507 -0.0885498 0.08306789 -0.020932937
0003c0 b1 1d e8 3c ad 94 cd bd ea a8 0f be 98 26 07 be
       0.02833447 -0.10038123 -0.1402928 -0.13198316
0003d0 21 e2 39 bd 32 9e 2c bd 10 a1 21 bd b5 e8 24 3d
       -0.04538167 -0.042143054 -0.03946024 0.04026099
0003e0 a6 e7 52 bd e9 7a 80 3d 71 b2 2c 3d 58 4c 42 3d
       -0.05149045 0.06273443 0.042162362 0.04743609
0003f0 54 4f 31 bd af 07 32 bd 52 b2 09 3d 62 83 8a 3d
       -0.043288544 -0.04346436 0.033617325 0.067633405

gen.3.0.bias f4 [160]
000000 1c 40 34 bc aa c0 85 bd 40 bd ab 3d f8 96 44 3c
       -0.011001613 -0.065308884 0.08385706 0.011998884
000010 d9 ad e1 3b 15 dd 67 3d b9 51 da bd 60 f8 5b bd
       0.0068871793 0.056607325 -0.106601186 -0.053703666
000020 c7 cb 16 3d 49 84 c0 3b bf a7 34 bd 7b 29 a8 bd
       0.03681543 0.0058751446 -0.044105288 -0.08211037
000030 73 9f a3 3d 33 0f 09 bd 1b 56 02 bc 39 fc 81 3d
       0.07989397 -0.03346176 -0.007955099 0.06346936
000040 7c a5 b8 ba ed a8 b6 bd bc cc d0 bd d4 67 22 3c
       -0.0014087404 -0.08918939 -0.101953 0.00991245
000050 04 e4 c3 3c 4f 12 9b 3d e8 e1 69 3d 75 54 e2 3d
       0.023912437 0.075718515 0.057100207 0.11051265
000060 16 96 50 3d cf 38 5c 3d e0 29 c7 3d e6 bb 3d bd
       0.050924383 0.053765114 0.09724784 -0.046321772
000070 2e 67 67 3d 40 ac 02 bd 64 ee 7a 3c 0f ad 75 3d
       0.056494884 -0.03190255 0.015315626 0.059979495
000080 b0 69 d5 bd 92 97 88 3d 4a 13 a5 3c ef 99 00 bd
       -0.10420549 0.06669535 0.0201508 -0.031396803
000090 d3 bb 2f bd 64 68 25 bd 9f 18 d3 3c bc 28 52 bc
       -0.042903733 -0.040382758 0.025768576 -0.012827095
0000a0 bf 9d df 3c e0 2f 15 bd 46 9f b2 3a 1c 28 b5 3d
       0.027296899 -0.03642261 0.001362779 0.08845541
0000b0 ba a2 e4 bd ce 69 55 bc fe 03 7d 3d 5b 25 47 3d
       -0.1116385 -0.013025714 0.061771385 0.04861961
0000c0 49 ed 0b 3d 22 fc 9b 3d b2 80 dc bd d0 e4 b3 bd
       0.03416184 0.0761645 -0.10766734 -0.08783877
0000d0 f5 d4 d9 bd 8a 25 c4 3d 2b 6a 83 3d bc e9 9a 3d
       -0.106363215 0.095774725 0.06416734 0.075641125
0000e0 6b 26 d7 3d 52 fb 04 bd a2 0e d7 3d 5a f4 1d 3c
       0.105053745 -0.03246624 0.10500838 0.0096407775
0000f0 89 ff cc 3c 58 fd eb bc 5d 88 18 bd 8d ee 83 bd
       0.025024192 -0.028807327 -0.03723942 -0.06441984
000100 93 e0 fa 3c 23 55 87 3d d2 d7 88 bd 00 f8 58 bd
       0.030624663 0.066080354 -0.066817895 -0.052970886
000110 25 e9 98 bc bb df d5 bd 1b 3c 91 bc c1 1a c8 3c
       -0.01866586 -0.10443064 -0.017728856 0.02442682
000120 e0 6e 0d bc 66 df 02 3c a5 af 8a 3d bc f6 9d bd
       -0.008632392 0.007987833 0.06771783 -0.077130765
000130 0a 41 16 bd d6 50 c1 bc 59 74 43 3d d2 59 06 3d
       -0.03668312 -0.023598116 0.04771838 0.032800503
000140 4a 94 c6 bd 4e ca 16 bc e4 0d b1 bd b0 c4 b2 bd
       -0.09696253 -0.009203507 -0.086452276 -0.087289214
000150 cc e7 59 3c 65 63 86 bd e6 e8 b5 3d 08 a7 72 bd
       0.013299894 -0.06561927 0.088823125 -0.059241325
000160 4d b6 b9 bc 89 9d 4d 3d 66 0e 05 3d f4 9d 8d 3c
       -0.022669936 0.050199065 0.032484435 0.017287232
000170 d5 fb 4f bb 9f f6 b5 bc bd 0d 54 bd 36 9f de 3d
       -0.0031735797 -0.022212325 -0.051770914 0.10870211
000180 1b 0b ad 3d 54 1d 63 bd 9c b5 88 3d 2e d4 13 3d
       0.08449384 -0.05544789 0.06675264 0.036091022
000190 01 97 9a bd 2a 4d 59 bd 89 c0 96 b9 92 ac 86 bd
       -0.07548333 -0.053052105 -0.0002875368 -0.06575884
0001a0 94 3a 8e bd 13 63 0f bb e4 74 c9 bd 44 1d 96 bd
       -0.06944767 -0.0021879121 -0.09836748 -0.07329801
0001b0 44 db 91 3c 2d 33 3f bc c0 78 5c 3d 4f e7 a3 3d
       0.01780475 -0.011669916 0.053826094 0.08003103
0001c0 4d 21 92 3d 22 b6 4c bd 5a c4 57 3c 18 5b 18 bd
       0.07135258 -0.049978383 0.013169372 -0.03719625
0001d0 e3 41 e2 3c 0e 11 d2 bd 43 77 ba 3d cb 7c 96 3d
       0.027619308 -0.10257159 0.091047786 0.07348021
0001e0 c8 39 c5 bc bb 83 45 bd 93 d3 be 3d 26 84 7b 3d
       -0.024075404 -0.04822133 0.09317698 0.061405323
0001f0 4b 70 de 3d e9 47 86 bd ac 34 a1 bd 33 96 ce bd
       0.10861262 -0.065566845 -0.078713745 -0.10087242
000200 96 67 8b bc 80 0c 11 3a 2e db b9 3d 03 3b 6c bd
       -0.017017167 0.00055331737 0.09075008 -0.057673465
000210 28 d3 cc bd f5 66 9c 3b 66 4b 9f 3c 82 85 fd 3c
       -0.10001212 0.0047730156 0.019445132 0.03094745
000220 c2 46 34 bd d3 cd b3 bd ed dd d5 bd ed ce e3 3d
       -0.044012792 -0.08779492 -0.104427196 0.11123452
000230 f2 95 ec bc 69 1f aa bc 34 4e 7a 3d 8b e3 70 bd
       -0.028880093 -0.02076693 0.061109737 -0.058810752
000240 44 b8 d1 bd 30 72 df bd 34 99 d3 bb 2b 64 10 3d
       -0.10240224 -0.109104514 -0.006457472 0.035251778
000250 e9 a6 55 3d 19 38 4d bd c4 47 07 3c 3d 8a 99 3b
       0.05216113 -0.050102327 0.008256856 0.0046856687
000260 65 54 8b 3d ff 60 8a bd 92 39 a8 3d eb 1c d7 bc
       0.06803206 -0.06756782 0.08214106 -0.026258906
000270 6e 54 45 3d 3b c3 bc bd ca 7d 23 bd 6e ff 7d bd
       0.04817622 -0.09216925 -0.039914884 -0.062011175
