gan/genmodel_1.pt (torch, 105755 bytes, 26 tensors)

weight f4 [20, 10]
-0.18726228 -0.058765322 -0.2119542 -0.027260534 -0.033245903 0.0006975021 0.20559144 0.22158688
0.1683585 -0.25583097 0.1161507 -0.0501388 -0.20740327 -0.107077286 -0.31325307 -0.3419898
0.0858338 -0.14160655 -0.17266536 -0.13557534 0.15538271 0.1566151 -0.19465943 0.14119633
0.23654662 -0.28707013 0.05488667 -0.053470965 -0.041249104 0.08987898 -0.20266493 0.2778835
0.21866603 0.015225828 -0.2675615 0.085352 0.124239735 -0.24025093 0.13577327 -0.09542482
-0.22144163 -0.041795645 0.23117167 -0.09908123 -0.3296825 -0.18975744 0.16022183 -0.20279822
0.1636726 -0.2858462 0.101491176 -0.25324103 0.31388694 0.1805139 0.20035465 0.19210954
0.16769198 0.20711072 0.25154197 0.040405203 -0.05292653 -0.10449335 0.059993673 0.3227045
0.2503382 0.07171499 -0.092457585 -0.30475792 0.16278209 0.0312 0.28911513 0.102565505
0.06453493 0.0184674 -0.25843126 -0.13288923 0.1608765 0.30289897 -0.2560219 0.09694431
0.20086701 -0.14206824 -0.006973758 0.31045076 0.30394018 0.008499032 -0.11140416 -0.049072877
-0.28217202 0.2794313 -0.0219015 -0.14258057 0.2519105 -0.10188714 0.07127915 0.2992993
-0.16119212 0.15440238 -0.14345582 0.27609658 0.33906904 0.29226005 -0.19914064 0.26437742
0.28560922 -0.22531524 -0.13431868 -0.027666887 0.16190927 -0.21561289 0.20804949 0.096447
0.18982062 -0.37260517 -0.1414914 0.048867017 0.004029413 0.22321166 -0.036985025 -0.07400279
-0.018117515 0.044445872 0.22250357 -0.19604833 -0.033593193 -0.28247535 0.006262963 -0.0019295901
-0.22203803 -0.03089336 -0.020967346 -0.17556618 -0.21060537 -0.0052449773 -0.21823162 -0.32615542
0.046010826 -0.14453095 -0.10293357 -0.103643045 -0.22357677 -0.05749823 0.12854092 0.17057922
0.2641794 0.28474665 -0.06664008 0.10945514 0.09254439 0.24376568 -0.20323783 -0.13510935
-0.026989756 0.26142734 0.013295713 0.008371284 0.084217995 -0.07155184 0.10835726 -0.16457067
-0.23761363 -0.13172057 -0.16236869 0.33474845 0.19983709 -0.14869985 0.2391637 0.14354083
0.17020753 0.31467032 -0.34414122 0.23443866 0.030846456 0.13262418 0.32830915 0.3077534
-0.26193216 -0.12824292 -0.24591196 -0.12994385 0.0044001243 -0.12046313 -0.078500524 0.28108773
0.20763503 -0.11509886 -0.061325233 -0.22863291 -0.16400367 0.1528763 -0.28743842 0.09484249
-0.18606715 0.26367983 0.24601862 -0.08674827 -0.027078632 0.045550164 0.006573952 0.296383
00000000: afc1 3fbe e8b3 70bd 860a 59be 7c51 dfbc
00000010: db2c 08bd 93d8 363a 9086 523e ace7 623e
00000020: 2c66 2c3e 47fc 82be 6be0 ed3d 585e 4dbd
00000030: 8661 54be 564b dbbd b562 a0be 4919 afbe
00000040: a2c9 af3d 4f01 11be 30cf 30be 43d4 0abe
00000050: a51c 1f3e b55f 203e cd54 47be c595 103e
00000060: 4739 723e dbfa 92be d8d0 603d 5f04 5bbd
00000070: d2f4 28bd 7812 b83d 6587 4fbe bf46 8e3e
00000080: fde9 5f3e c075 793c d2fd 88be 08cd ae3d
00000090: 6771 fe3d 5704 76be 2608 0b3e 176e c3bd
000000a0: 98c1 62be e931 2bbd 44b8 6c3e 1aeb cabd
000000b0: 25cc a8be c64f 42be 3111 243e 56aa 4fbe
000000c0: ca99 273e 6f5a 92be 9bda cf3d cfa8 81be
000000d0: cab5 a03e a3d8 383e c529 4d3e 5db8 443e
000000e0: 72b7 2b3e d514 543e 1cca 803e ed7f 253d
000000f0: 7dc9 58bd 9c00 d6bd edbb 753d 8639 a53e
00000100: 542c 803e 4fdf 923d 675a bdbd 3b09 9cbe
00000110: 59b0 263e 2497 ff3c e606 943e dd0d d23d
00000120: e42a 843d f248 973c 1a51 84be 1d14 08be
00000130: cfbc 243e 9315 9b3e 4d15 83be bd8a c63d
00000140: 15b0 4d3e 567a 11be 1f84 e4bb 67f3 9e3e
00000150: 0c9e 9b3e 863f 0b3c dd27 e4bd a400 49bd
00000160: da78 90be 9f11 8f3e c66a b3bc a400 12be
00000170: 6afa 803e 34aa d0bd cefa 913d c23d 993e
00000180: 8c0f 25be a81b 1e3e 15e6 12be 885c 8d3e
00000190: 759a ad3e 1ca3 953e 86eb 4bbe 7a5c 873e
000001a0: 5f3b 923e 0ab9 66be d68a 09be aba5 e2bc
000001b0: 8bcb 253e a0c9 5cbe ed0a 553e 0186 c53d
000001c0: 5660 423e 1bc6 bebe 1fe3 10be c828 483d
000001d0: 2b09 843b 9991 643e 9c7d 17bd c68e 97bd
000001e0: 2f6b 94bc e00c 363d fad7 633e e5c0 48be
000001f0: 0499 09bd 9ca0 90be 8b39 cd3b 4dea fcba
00000200: f05d 63be 1214 fdbc b6c3 abbc 9fc7 33be
00000210: efa8 57be 0fde abbb 1c78 5fbe d8fd a6be
00000220: d975 3c3d ecff 13be d6ce d2bd ce42 d4bd
00000230: 4ff1 64be 4483 6bbd 3ba0 033e 52ac 2e3e
00000240: 8642 873e 50ca 913e 987a 88bd 042a e03d
00000250: ea87 bd3d b69d 793e 941d 50be 1b5a 0abe
00000260: 9f19 ddbc ced9 853e 43d6 593c b627 093c
00000270: 7c7a ac3d c589 92bd 69ea dd3d 3785 28be
00000280: fd50 73be c2e1 06be fa43 26be 2664 ab3e
00000290: 18a2 4c3e c644 18be 54e7 743e 5efc 123e
000002a0: e24a 2e3e 781c a13e 4733 b0be b010 703e
000002b0: b5b1 fc3c a2ce 073e 2318 a83e db91 9d3e
000002c0: f91b 86be 1d52 03be 58d0 7bbe 0010 05be
000002d0: eb2e 903b 60b5 f6bd e2c4 a0bd bbea 8f3e
000002e0: 479e 543e f3b8 ebbd 2b30 7bbd bf1e 6abe
000002f0: 94f0 27be 9b8b 1c3e 212b 93be c83c c23d
00000300: 6388 3ebe 0b01 873e 4eec 7b3e 14a9 b1bd
00000310: 02d4 ddbc cf92 3a3d 4e6a d73b 83bf 973e

bias f4 [20]
-0.29903156 0.10499951 0.12763605 0.10004613 0.26791954 0.28514946 -0.023415806 0.26520452
-0.19432913 -0.22439067 0.3038222 -0.229165 0.1388978 0.2609254 -0.13477404 -0.07176669
-0.19892958 0.09771977 0.26450703 0.09413568
00000000: aa1a 99be fc09 d73d 06b3 023e fce4 cc3d
00000010: c02c 893e 1cff 913e 81d2 bfbc e3c8 873e
00000020: 37fe 46be abc6 65be 958e 9b3e 3baa 6abe
00000030: 3a3b 0e3e 0498 853e 3502 0abe 6afa 92bd
00000040: 32b4 4bbe 4e21 c83d 776d 873e 35ca c03d

weight f4 [20]
0.94028693 0.8976798 0.8825496 0.8486467 0.9929174 0.88573354 1.0456102 0.9266241
0.99228305 1.1472926 0.85591114 1.0520608 0.88461894 0.8693029 0.963367 0.97044605
0.97678584 0.9261174 1.1487745 1.086632
00000000: a5b6 703f 58ce 653f c5ee 613f e940 593f
00000010: d62f 7e3f 6fbf 623f 8ed6 853f 3d37 6d3f
00000020: 4306 7e3f 7cda 923f fe1c 5b3f eea9 863f
00000030: 6376 623f a38a 5e3f 389f 763f 276f 783f
00000040: a30e 7a3f 0816 6d3f 0b0b 933f c216 8b3f

bias f4 [20]
-0.02002776 -0.024663536 -0.024264697 -0.09012201 0.015351987 -0.09126525 0.040667787 -0.043775816
0.065674074 -0.1958585 -0.1174204 0.064692125 -0.071752064 -0.024063043 0.04974856 0.01552167
0.043385725 -0.029332701 0.15883546 0.08617287
00000000: 4211 a4bc 2f0b cabc c2c6 c6bc e391 b8bd
00000010: e786 7b3c 47e9 babd 4493 263d 454e 33bd
00000020: 2180 863d 218f 48be 1b7a f0bd 4e7d 843d
00000030: bff2 92bd dc1f c5bc 25c5 4b3d 9a4e 7e3c
00000040: 3bb5 313d 224b f0bc c3a5 223e 677b b03d

running_mean f4 [20]
-0.36599857 0.010559987 0.12917222 0.04274016 0.1642021 0.29884169 0.107879 0.1301551
-0.08815665 -0.16625904 0.37268522 -0.30738023 0.06579145 0.20731764 -0.045241613 -0.05353944
-0.22176431 0.2471889 0.34707704 0.13932802
00000000: 2a64 bbbe cc03 2d3c b945 043e 4e10 2f3d
00000010: 9824 283e c701 993e aaef dc3d 6147 053e
00000020: 798b b4bd cf3f 2abe 99d0 be3e f160 9dbe
00000030: abbd 863d 134b 543e 454f 39bd 2c4c 5bbd
00000040: 2f16 63be 161f 7d3e 15b4 b13e 01ac 0e3e

running_var f4 [20]
0.26876086 0.33025044 0.24352337 0.34011948 0.39671606 0.37035045 0.26725763 0.32960117
0.38426796 0.3938844 0.53319895 0.26137304 0.23657438 0.25394872 0.31096157 0.1558448
0.47796103 0.5609426 0.22833718 0.28739423
00000000: 069b 893e 9616 a93e 315e 793e 2424 ae3e
00000010: 5e1e cb3e 939e bd3e fed5 883e 7cc1 a83e
00000020: c5be c43e 37ab c93e ba7f 083f b0d2 853e
00000030: 8e40 723e 9105 823e 5b36 9f3e c795 1f3e
00000040: 4fb7 f43e ef99 0f3f 39d1 693e 5625 933e

weight f4 [40, 20]
0.023038995 -0.17131038 -0.116108924 -0.125787 0.16948597 0.0071859984 -0.15998341 0.104569934
-0.27352846 -0.09769446 0.12953351 0.2280258 -0.035094507 0.09235113 -0.092995346 -0.0011260251
-0.13070646 -0.04889579 -0.0053529134 -0.051776692 0.03640833 -0.044208784 0.13029118 -0.14622444
0.10647395 -0.08302995 -0.15851094 -0.12260794 -0.08928718 -0.09059584 0.0013513174 -0.16252401
0.05418184 -0.053409833 -0.07741648 -0.023088666 -0.19899854 -0.19438308 -0.1753708 -0.038581334
0.06371358 0.0562623 0.1404088 -0.07840199 0.19897667 0.009571901 0.009060944 0.026849382
-0.13919957 0.17325078 0.06008555 0.14432395 -0.15333095 0.13699318 0.24039647 -0.03946383
0.058576778 0.15597871 -0.054824688 0.264772 -0.14455123 0.19256562 0.18251473 -0.18632056
0.13986543 -0.17741221 -0.09298759 -0.069571316 -0.16451015 -0.36189297 0.03114885 -0.07566647
0.05282371 -0.13035667 -0.053687744 0.17138611 -0.05510011 0.028879492 -0.18512766 -0.06252757
0.078620434 -0.12290829 -0.03090906 0.13480519 0.0071447794 -0.17044713 -0.20041355 0.047619842
0.08334664 -0.20113775 -0.24532817 0.13314193 0.13099799 0.11036702 0.098826826 -0.13066699
0.053932477 -0.114594914 -0.004188331 -0.2851429 0.14740126 0.02574445 0.03417108 0.011625975
0.16602501 -0.069170974 -0.016318828 0.20477499 -0.13555843 -0.1844509 -0.085541345 0.23503716
-0.11375843 0.08606443 -0.12207978 -0.012296084 -0.17277269 0.035181176 -0.23195088 -0.1064214
0.09471282 -0.16613433 -0.14131506 0.14353919 -0.2062428 -0.024237256 -0.08860993 0.09625812
-0.20629576 0.26140228 0.060547892 0.013966442 -0.10211816 0.107807286 -0.1828871 -0.020095132
0.10633807 -0.05242746 -0.09930203 -0.24000157 -0.15097953 -0.08705121 0.14377078 0.230434
0.0436123 0.17309482 -0.22548199 -0.017546145 0.10461651 -0.029354056 0.16523978 -0.1180859
-0.18811627 -0.06057791 0.077265814 0.17210741 0.17953323 0.13715787 -0.23260671 -0.15032381
0.19596429 0.048681136 0.03771123 -0.004387185 -0.08841836 0.14453113 -0.019174926 0.028931068
0.06072665 0.2819571 0.08502895 0.039183468 -0.04123458 0.067941174 -0.19901316 -0.03586452
0.09627766 0.14459516 -0.2653066 -0.18319261 0.032026365 0.045516342 0.02726871 -0.09677332
0.17830299 0.17033704 -0.25197026 -0.075260386 0.041298777 0.056161348 -0.20335016 0.23666419
-0.06696035 0.0886715 0.06969483 0.06283184 -0.19086811 0.017358122 0.05415449 -0.05967158
0.07984069 -0.15943027 -0.09947387 0.11717052 -0.1726331 -0.026190566 -0.079593726 0.15054518
0.06730243 0.19424395 -0.08434958 0.1364541 0.052256074 -0.07302754 -0.11041488 -0.07634504
0.12581146 0.07323738 -0.267706 -0.22130042 0.08564015 0.036852073 -0.009144206 0.13370417
0.06118598 0.12970212 -0.16270334 0.052018717 0.07470969 0.21445759 -0.07923057 0.1409134
-0.042146914 0.14943716 0.07803049 -0.106469855 -0.17861211 -0.09418253 -0.18388635 -0.10099072
0.101205684 -0.074765824 -0.13915297 -0.102921136 0.19449916 -0.02073841 -0.19821124 0.16323367
-0.20976536 -0.1990385 0.16408455 0.11379579 0.0018163257 -0.07641758 -0.060555775 -0.15011322
00000000: 46bc bc3c fd6b 2fbe 84ca edbd 4fce 00be
00000010: bb8d 2d3e 8678 eb3b b1d2 23be c328 d63d
00000020: ec0b 8cbe 0814 c8bd 6fa4 043e 987f 693e
00000030: 42bf 0fbd 9722 bd3d 5874 bebd 2297 93ba
00000040: ead7 05be f446 48bd 7e67 afbb cc13 54bd
00000050: e720 153d 4514 35bd 0d6b 053e dcbb 15be
00000060: 040f da3d 9b0b aabd b150 22be df19 fbbd
00000070: 32dc b6bd 508a b9bd b01e b13a b26c 26be
00000080: c7ed 5d3d 45c4 5abd 888c 9ebd 7124 bdbc
00000090: 46c6 4bbe 5c0c 47be 6794 33be 7607 1ebd
000000a0: 447c 823d 4c73 663d 53c7 0f3e 3991 a0bd
000000b0: 8ac0 4b3e 76d3 1c3c 5b74 143c 3cf3 db3c
000000c0: 558a 0ebe a768 313e 441c 763d a8c9 133e
000000d0: ca02 1dbe f147 0c3e 7e2a 763e d3a4 21bd
000000e0: 34ee 6f3d e2b8 1f3e da8f 60bd 3290 873e
000000f0: 3d05 14be ec2f 453e 24e5 3a3e d1ca 3ebe
00000100: e238 0f3e 8cab 35be 4770 bebd 687b 8ebd
00000110: 5975 28be 094a b9be e02b ff3c 06f7 9abd
00000120: ad5d 583d 387c 05be aee7 5bbd d77f 2f3e
00000130: a7b0 61bd af94 ec3c 1b92 3dbe 740e 80bd
00000140: c003 a13d 57b7 fbbd ff34 fdbc 5f0a 0a3e
00000150: c11e ea3b b189 2ebe 3639 4dbe 060d 433d
00000160: a5b1 aa3d 0ef7 4dbe 4f37 7bbe 5c56 083e
00000170: 5624 063e 1b08 e23d b865 ca3d 91cd 05be
00000180: 4de8 5c3d bdb0 eabd 443e 89bb 40fe 91be
00000190: 5bf0 163e 06e6 d23c f9f6 0b3d e07a 3e3c
000001a0: 7602 2a3e 83a9 8dbd 10af 85bc 89b0 513e
000001b0: d4cf 0abe b2e0 3cbe 4d30 afbd 95ad 703e
000001c0: 2efa e8bd 8c42 b03d f704 fabd 8475 49bc
000001d0: 53eb 30be 231a 103d 8884 6dbe 77f3 d9bd
000001e0: ccf8 c13d 1e1f 2abe e5b4 10be f0fb 123e
000001f0: 5031 53be 368d c6bc 1f79 b5bd fa22 c53d
00000200: 323f 53be 85d6 853e 1101 783d 81d3 643c
00000210: 5323 d1bd 11ca dc3d c246 3bbe 8c9e a4bc
00000220: c6c7 d93d 2dbe 56bd dd5e cbbd f9c2 75be
00000230: 619a 1abe e847 b2bd a638 133e e4f6 6b3e
00000240: d0a2 323d c53f 313e c0e4 66be efbc 8fbc
00000250: 2e41 d63d eb77 f0bc 9e34 293e 05d7 f1bd
00000260: 8da1 40be 8b20 78bd 8a3d 9e3d ed3c 303e
00000270: 8fd7 373e 1d73 0c3e 7430 6ebe 7cee 19be
00000280: ddaa 483e df65 473d 1777 1a3d 60c2 8fbb
00000290: af14 b5bd f8ff 133e bc14 9dbc d900 ed3c
000002a0: 82bc 783d ae5c 903e a823 ae3d d87e 203d
000002b0: 97e5 28bd be24 8b3d 1bca 4bbe ade6 12bd
000002c0: 392d c53d c110 143e 44d6 87be d896 3bbe
000002d0: 142e 033d 586f 3a3d a162 df3c 1731 c6bd
000002e0: 0f95 363e d56c 2e3e 3f02 81be 1e22 9abd
000002f0: e828 293d 7109 663d 063b 50be 1958 723e
00000300: 8222 89bd 6799 b53d 2abc 8e3d fbad 803d
00000310: ee72 43be 9f32 8e3c 19d1 5d3d 306a 74bd
00000320: 8483 a33d b041 23be f5b8 cbbd 19f7 ef3d
00000330: bbc6 30be 998d d6bc 0902 a3bd 8428 1a3e
00000340: dbd5 893d e3e7 463e 79bf acbd a0ba 0b3e
00000350: 770a 563d 778f 95bd 3221 e2bd ca5a 9cbd
00000360: b8d4 003e 7bfd 953d c310 89be 949c 62be
00000370: 1a64 af3d 33f2 163d 94d1 15bc bfe9 083e
00000380: 269e 7a3d a2d0 043e b49b 26be 9411 553d
00000390: 6501 993d c59a 5b3e a343 a2bd 9a4b 103e
000003a0: 3ea2 2cbd 0e06 193e 73ce 9f3d de0c dabd
000003b0: 18e6 36be c5e2 c0bd b44c 3cbe 39d4 cebd
000003c0: ed44 cf3d d31e 99bd 1e7e 0ebe 51c8 d2bd
000003d0: ca2a 473e 99e3 a9bc e3f7 4abe ba26 273e
000003e0: bbcc 56be c0d0 4bbe c805 283e c40d e93d
000003f0: c711 ee3a d280 9cbd 5509 78bd 48b7 19be

bias f4 [40]
-0.16550672 0.0884088 0.2074222 -0.12613449 0.060651504 -0.19160806 -0.17616317 -0.19335009
-0.21378516 -0.03164651 -0.1905352 0.052725896 0.1603314 -0.006435339 0.10452318 0.022111265
0.15160304 -0.13926837 -0.041175775 0.081530616 -0.021234758 -0.19742207 -0.12534808 0.001770171
-0.054380678 -0.1174761 0.052568473 0.12015773 0.19328125 0.10929549 -0.040190656 -0.122446865
0.14316921 0.058146864 0.092271216 -0.05041525 -0.15960173 0.05593643 0.077933155 -0.10270974
00000000: 987a 29be ac0f b53d 7c66 543e 6629 01be
00000010: b66d 783d e734 44be 1e64 34be 91fd 45be
00000020: 7fea 5abe c59f 01bd a91b 43be 1cf7 573d
00000030: ea2d 243e 89df d2bb 4010 d63d af22 b53c
00000040: d43d 1b3e 5e9c 0ebe eea7 28bd 86f9 a63d
00000050: 84f4 adbc 0329 4abe 3f5b 00be 1505 e83a
00000060: 46be 5ebd 4f97 f0bd 0a52 573d 4215 f63d
00000070: 85eb 453e 50d6 df3d f59e 24bd 6cc5 fabd
00000080: f39a 123e 682b 6e3d b1f8 bc3d 3980 4ebd
00000090: a36e 23be 991d 653d 6b9b 9f3d 7c59 d2bd

weight f4 [40]
1.1124173 1.0182496 0.7649193 0.93731606 0.9730273 1.109818 0.99593973 0.8275036
0.97525024 0.84190387 1.0287251 1.0259305 1.1153238 0.8215351 0.8859389 0.8801737
0.9783266 0.9703815 0.9141512 0.85433125 1.0904503 1.0125197 0.76772434 0.99762076
0.99542373 0.967861 1.0149405 1.0302758 0.8979781 0.95777017 1.0974747 0.98580563
0.9943042 0.9809048 0.8310752 0.9817158 1.0424733 1.0449101 0.90003294 1.0866655
00000000: b163 8e3f 0156 823f c0d1 433f f2f3 6f3f
00000010: 5118 793f 840e 8e3f e8f5 7e3f 47d7 533f
00000020: 00aa 793f 0387 573f 44ad 833f b151 833f
00000030: eec2 8e3f 2050 523f e4cc 623f 1053 613f
00000040: 9d73 7a3f ec6a 783f d005 6a3f 74b5 5a3f
00000050: e093 8b3f 3f9a 813f 9589 443f 1364 7f3f
00000060: 17d4 7e3f bdc5 773f 92e9 813f 14e0 833f
00000070: e5e1 653f 6d30 753f 0d7a 8c3f c25d 7c3f
00000080: b88a 7e3f 941c 7b3f 58c1 543f ba51 7b3f
00000090: c46f 853f 9dbf 853f 8f68 663f db17 8b3f

bias f4 [40]
-0.0013353857 -0.02269685 -0.09870278 0.010305383 0.030043008 0.034828346 -0.03718732 -0.09515474
-0.091059476 -0.10596093 -0.0654643 -0.26342952 -0.03666843 -0.069511235 0.01092387 -0.07243689
0.053490236 0.0023025651 -0.033440955 -0.0760453 -0.020973932 -0.061392296 -0.139626 0.24586643
-0.13457757 -0.22920883 0.12449741 -0.2784195 -0.052347902 0.0729441 -0.025658617 -0.23041378
-0.0068148877 -0.12725534 -0.046645544 0.17658283 -0.01055755 0.002234163 -0.1768277 0.27194723
00000000: 1c08 afba bfee b9bc af24 cabd e9d7 283c
00000010: c11c f63c 2ba8 0e3d bb51 18bd 7de0 c2bd
00000020: 647d babd 0b02 d9bd 2612 86bd 3ce0 86be
00000030: a331 16bd e85b 8ebd 08fa 323c cb59 94bd
00000040: 9418 5b3d a2e6 163b 62f9 08bd a3bd 9bbd
00000050: 86d1 abbc 7d76 7bbd 1efa 0ebe 69c4 7b3e
00000060: b4ce 09be b8b5 6abe 80f8 fe3d 008d 8ebe
00000070: c16a 56bd b763 953d 0532 d2bc 97f1 6bbe
00000080: 6c4f dfbb 394f 02be 660f 3fbd 21d2 343e
00000090: 93f9 2cbc 096b 123b 5212 35be ab3c 8b3e

running_mean f4 [40]
-0.391408 -0.4702163 0.7322389 -0.5279104 -0.186683 -0.34673148 -0.5036064 -0.22135517
-0.15483691 0.05062524 -0.39620778 0.07362785 -0.17361572 -0.17216845 0.40323263 0.18313254
0.32805765 -0.29995272 -0.59199613 0.17972657 -0.52541256 -0.59837496 -0.4558223 0.098630376
0.06861809 -0.3156166 0.039493527 0.25543153 -0.039339986 0.039840892 -0.4147234 -0.14808981
-0.27256995 0.24594744 0.108465366 0.11334192 -0.6391685 -0.08463264 -0.022524305 -0.15587279
00000000: a166 c8be 31c0 f0be 0274 3b3f 2325 07bf
00000010: d429 3fbe ca86 b1be 59ec 00bf eeaa 62be
00000020: 918d 1ebe 695c 4f3d bfdb cabe 33ca 963d
00000030: 52c8 31be ed4c 30be 8274 ce3e 1987 3b3e
00000040: 2cf7 a73e 6793 99be 0f8d 17bf 3e0a 383e
00000050: 7081 06bf 1a2f 19bf 8a61 e9be b9fe c93d
00000060: a487 8c3d 8098 a1be f7c3 213d ecc7 823e
00000070: f722 21bd 3430 233d a056 d4be dba4 17be
00000080: 4a8e 8bbe a5d9 7b3e 1723 de3d cf1f e83d
00000090: 8ca0 23bf e153 adbd e484 b8bc 1e9d 1fbe

running_var f4 [40]
0.20193769 0.12220005 0.08655003 0.2066767 0.14288528 0.3620865 0.14725716 0.0866439
0.11456422 0.11085886 0.21848792 0.20793979 0.26299268 0.070155874 0.18002672 0.11255798
0.23179577 0.28984994 0.30065793 0.20424366 0.30633935 0.26014885 0.11194852 0.2491024
0.17760845 0.09040085 0.23911199 0.13648453 0.28219333 0.109647095 0.30476826 0.07416306
0.33692822 0.17784248 0.13596442 0.27978212 0.116794124 0.4357468 0.1796565 0.219568
00000000: c1c8 4e3e 0544 fa3d 2441 b13d 0fa3 533e
00000010: 8550 123e 6763 b93e 95ca 163e 5b72 b13d
00000020: a5a0 ea3d f809 e33d 4cbb 5f3e 2bee 543e
00000030: faa6 863e e2ad 8f3d ed58 383e cc84 e63d
00000040: df5b 6d3e 3667 943e d6ef 993e 4025 513e
00000050: 83d8 9c3e 3b32 853e 4445 e53d b314 7f3e
00000060: fdde 353e 1524 b93d c6d9 743e 9ac2 0b3e
00000070: a57b 903e a88e e03d 960a 9c3e cde2 973d
00000080: db81 ac3e 571c 363e 423a 0b3e 9a3f 8f3e
00000090: c231 ef3d 341a df3e e0f7 373e 6fd6 603e

weight f4 [80, 40]
-0.07201919 0.029761652 -0.08958949 0.12572499 -0.17895746 0.06953652 0.105418295 0.018161153
0.03042411 -0.02244851 0.16843423 0.12240765 -0.121509075 -0.034853872 -0.018095858 -0.007264302
0.07284873 -0.17220736 -0.029539432 -0.054918576 -0.043232627 -0.114964895 0.024192695 -0.009738745
0.144952 0.07064773 0.1277178 0.17024773 0.008418899 0.0059336754 0.035750814 0.043988705
-0.04508125 0.008946806 -0.031164054 0.057731166 0.027759746 -0.01970425 -0.054660074 -0.033638004
-0.031097155 0.12351521 0.08176422 0.16305849 -0.16894972 -0.21395412 0.1342968 0.10606758
0.070448145 0.048650786 0.13914219 0.20137702 -0.109082945 0.052041605 -0.028440354 0.025074538
0.098068826 -0.044898853 0.0813534 -0.09763533 -0.033398405 -0.1408845 -0.03809144 0.11056066
0.10350254 0.09556921 0.025273712 0.001237389 0.032778237 -0.051131174 0.07464463 0.05894854
0.07230064 0.023964064 -0.11765258 0.05871201 0.005468747 0.0019577674 0.07552094 0.036029585
-0.13077328 -0.01419012 -0.11417692 0.15522043 -0.07833872 -0.08258199 0.072278194 -0.032345947
0.12593283 0.019951744 0.054262247 -0.031543776 -0.21412085 0.01069893 -0.08782319 0.12535721
-0.065837905 -0.1420224 0.089980565 0.08426168 0.04642566 0.023909675 -0.058064528 0.07614299
0.09458422 0.16902563 0.17007501 0.0750698 0.09435217 0.06562424 -0.014135046 0.17307937
0.09583799 0.15065092 0.026188746 0.1395381 -0.002292577 0.06529928 0.13997033 0.028714888
-0.21323018 -0.17178917 -0.0264048 0.011025147 -0.10766084 -0.15494561 -0.076715045 -0.025473341
0.00430689 0.069858275 -0.18154421 -0.14941794 -0.016313534 0.014426406 0.040716853 -0.026463116
0.03005455 -0.07584925 -0.13713653 -0.012531371 -0.12153318 -0.06790819 0.07269104 -0.11103587
-0.11015626 0.005491031 -0.042496875 -0.0674697 0.001741761 -0.06291738 0.019151598 -0.07985609
-0.07693898 -0.14690045 -0.07621049 -0.04662424 -0.041437414 -0.12644343 0.004176405 0.062004253
-0.21491958 0.0076072766 0.07881636 0.11164325 -0.051401976 -0.15741976 0.033225466 0.008680884
0.0042980225 0.08375833 0.1394288 0.16841562 0.06526965 -0.012785807 0.08645942 0.053465344
-0.015248855 -0.053258095 0.019184165 -0.06913344 0.074480265 0.020061687 -0.09763356 0.010657713
0.08050063 0.059502844 0.09771265 0.076692335 0.061799046 0.110306084 0.121562436 0.1622712
-0.0524233 0.12374468 -0.109581575 -0.029363345 0.0061837165 -0.12850036 0.07630223 0.04267352
0.10870131 0.16281307 0.011728882 0.0835987 0.030059494 0.16864724 0.069472484 0.10407704
0.13133718 -0.011655397 0.0068518315 -0.23745345 0.023156982 -0.062873356 -0.0015067556 -0.08738711
-0.028675674 0.07832527 0.09880428 0.08622521 0.11104435 0.04698381 -0.11222336 -0.14423734
-0.027732097 0.067493275 -0.015195543 0.045417402 0.030661356 0.0369305 0.13246593 -0.12886481
0.11768676 -0.04583487 0.018575061 -0.17858285 0.21437435 -0.07683116 0.088958874 -0.087716766
-0.19810824 -0.023942668 0.05504947 -0.16258161 0.06214376 -0.21578775 -0.18339087 -0.04384805
-0.05709804 -0.061509952 -0.08505231 -0.12162427 -0.0861679 -0.0025050228 0.028237836 0.057226226
00000000: cc7e 93bd b5ce f33c b27a b7bd 0dbe 003e
00000010: a040 37be 2a69 8e3d 8ce5 d73d b3c6 943c
00000020: fc3b f93c f0e5 b7bc 067a 2c3e ddb0 fa3d
00000030: c0d9 f8bd efc2 0ebd c43d 94bc 6209 eebb
00000040: b731 953d 2057 30be aefc f1bc 4df2 60bd
00000050: b214 31bd b772 ebbd c22f c63c 428f 1fbc
00000060: 4c6e 143e c2af 903d 74c8 023e 6c55 2e3e
00000070: 6cef 093c 476f c23b 726f 123d 802d 343d
00000080: 1ea7 38bd a095 123c c24b ffbc 8477 6c3d
00000090: 6868 e33c cf6a a1bc 3ee3 5fbd 01c8 09bd
000000a0: 76bf febc 8bf5 fc3d 0074 a73d cef8 263e
000000b0: 2801 2dbe ca16 5bbe 1a85 093e f639 d93d
000000c0: 1e47 903d 0c46 473d 4a7b 0e3e c735 4e3e
000000d0: e166 dfbd 9429 553d bffb e8bc 1e69 cd3c
000000e0: 4fd8 c83d dce7 37bd 9d9c a63d 08f5 c7bd
000000f0: c4cc 08bd 0744 10be c505 1cbd a16d e23d
00000100: 24f9 d33d cab9 c33d d10a cf3c e32f a23a
00000110: 7942 063d ec6e 51bd 49df 983d 0674 713d
00000120: 5c12 943d 4950 c43c d6f3 f0bd 017c 703d
00000130: 2d33 b33b e34d 003b b9aa 9a3d c293 133d
00000140: 6ee9 05be ad7d 68bc 97d5 e9bd 1bf2 1e3e
00000150: 0d70 a0bd bf20 a9bd 9706 943d 2f7d 04bd
00000160: 89f4 003e d771 a33c 1742 5e3d 0c34 01bd
00000170: 7f42 5bbe 914a 2f3c a5dc b3bd a45d 003e
00000180: 06d6 86bd 526e 11be bb47 b83d 6391 ac3d
00000190: d528 3e3d 39de c33c 12d5 6dbd dbf0 9b3d
000001a0: 5fb5 c13d 0e15 2d3e 2528 2e3e 32be 993d
000001b0: b63b c13d 0066 863d ae96 67bc b83b 313e
000001c0: b546 c43d 3c44 1a3e c889 d63c 13e3 0e3e
000001d0: 0f3f 16bb a1bb 853d 6254 0f3e 7c3b eb3c
000001e0: 0359 5abe 80e9 2fbe e14e d8bc d1a2 343c
000001f0: 497d dcbd 10aa 1ebe c71c 9dbd 78ad d0bc
00000200: d020 8d3b db11 8f3d bae6 39be 0401 19be
00000210: f6a3 85bc bb5c 6c3c b7c6 263d 2dc9 d8bc
00000220: f634 f63c da56 9bbd 856d 0cbe 6150 4dbc
00000230: 63e6 f8bd 7313 8bbd 0adf 943d c666 e3bd
00000240: 9b99 e1bd 1bee b33b 3411 2ebd 8e2d 8abd
00000250: cd4b e43a d4da 80bd d0e3 9c3c 978b a3bd
00000260: 2f92 9dbd 126d 16be 3f14 9cbd 0ff9 3ebd
00000270: 47ba 29bd 637a 01be 39da 883b 2cf8 7d3d
00000280: e113 5cbe 7646 f93b 796a a13d 37a5 e43d
00000290: e18a 52bd a532 21be 6d17 083d 443a 0e3c
000002a0: 6dd6 8c3b 7d89 ab3d 6cc6 0e3e 2575 2c3e
000002b0: 18ac 853d 907b 51bc a311 b13d 7afe 5a3d
000002c0: 55d6 79bc 2925 5abd 1c28 9d3c d595 8dbd
000002d0: 1c89 983d 6858 a43c 1bf4 c7bd b09d 2e3c
000002e0: 84dd a43d 41b9 733d 921d c83d df10 9d3d
000002f0: ff20 7d3d 28e8 e13d baf5 f83d 6c2a 263e
00000300: d0b9 56bd da6d fd3d 4e6c e0bd 668b f0bc
00000310: c6a0 ca3b 9995 03be 5844 9c3d 6eca 2e3d
00000320: cb9e de3d 78b8 263e 7f2a 403c cc35 ab3d
00000330: 543f f63c ddb1 2c3e 9747 8e3d 5826 d53d
00000340: 417d 063e 47f6 3ebc 5485 e03b ff26 73be
00000350: b6b3 bd3c bfc3 80bd 547e c5ba 03f8 b2bd
00000360: 3fe9 eabc 0069 a03d e659 ca3d d896 b03d
00000370: 386b e33d 1872 403d 5cd5 e5bd f4b2 13be
00000380: 6c2e e3bc ea39 8a3d baf6 78bc 9907 3a3d
00000390: 862d fb3c 7044 173d 26a5 073e 23f5 03be
000003a0: c205 f13d 58bd 3bbd ba2a 983c 6cde 36be
000003b0: f384 5b3e a859 9dbd 1230 b63d d9a4 b3bd
000003c0: e3dc 4abe 6a23 c4bc 8e7b 613d cb7b 26be
000003d0: 758a 7e3d 77f7 5cbe d1ca 3bbe 039a 33bd
000003e0: a2df 69bd dcf1 7bbd e82f aebd 2516 f9bd
000003f0: cc78 b0bd 4f2b 24bb 0953 e73c 0c66 6a3d

bias f4 [80]
-0.088150695 -0.056604374 -0.15681504 -0.0041231387 0.14817482 -0.02424585 -0.024797536 -0.074825965
0.0026559676 0.06931601 0.15648472 0.09555763 0.06284212 0.12320007 -0.050416615 -0.057194807
0.13779177 -0.031024866 0.110389195 0.10565444 -0.10051842 0.08884071 -0.1426544 -0.11247286
-0.08237716 0.1010161 0.024676736 -0.06288847 -0.15447392 0.087993145 0.08161667 -0.041310478
-0.05956675 0.116134055 -0.068801284 0.15263318 -0.06421938 -0.076226056 0.12753698 -0.08651347
-0.04772353 -0.045044255 -0.08889113 0.10413375 0.14229193 -0.15313785 -0.03946192 -0.15401956
0.10196141 -0.1501747 -0.08777128 -0.12584803 0.12851211 0.057901774 0.009292013 0.013324669
0.14296927 0.15345319 0.009712628 -0.07951215 0.07175751 -0.10552432 -0.07301354 0.14336152
-0.08797129 -0.091302596 -0.06734387 -0.06713661 -0.054794785 -0.079545334 -0.06994646 -0.039166212
0.081785396 0.103802174 -0.15592761 0.14985089 0.15432402 0.0735967 0.086143196 -0.12048615
00000000: 5a88 b4bd fdd9 67bd 1f94 20be 651b 87bb
00000010: 24bb 173e 3c9f c6bc 3424 cbbc 5b3e 99bd
00000020: be0f 2e3b 8df5 8d3d 883d 203e b8b3 c33d
00000030: 5fb3 803d 5150 fc3d a781 4ebd 1a45 6abd
00000040: 4919 0d3e dc27 febc bb13 e23d 5b61 d83d
00000050: 9adc cdbd 1ef2 b53d ff13 12be 2c58 e6bd
00000060: 5bb5 a8bd 87e1 ce3d de26 ca3c accb 80bd
00000070: 692e 1ebe c035 b43d a426 a73d 2d35 29bd
00000080: 44fc 73bd b1d7 ed3d b0e7 8cbd df4b 1c3e
00000090: 7385 83bd 681c 9cbd 0e99 023e f92d b1bd
000000a0: c079 43bd 5380 38bd 8e0c b6bd 1344 d53d
000000b0: fab4 113e 2bd0 1cbe d2a2 21bd 4eb7 1dbe
000000c0: 25d1 d03d 66c7 19be 6ec1 b3bd 4ede 00be
000000d0: ae98 033e 692a 6d3d 873d 183c b64f 5a3c
000000e0: 8966 123e d522 1d3e b721 1f3c 44d7 a2bd
000000f0: 9af5 923d 221d d8bd 1f88 95bd 5dcd 123e
00000100: 4b2a b4bd dbfc babd 95eb 89bd eb7e 89bd
00000110: 7f70 60bd aae8 a2bd 1740 8fbd c06c 20bd
00000120: 1a7f a73d 3c96 d43d 7dab 1fbe 8372 193e
00000130: 1e07 1e3e deb9 963d d86b b03d 71c1 f6bd

weight f4 [80]
1.0018495 0.98987323 0.9775991 0.9615653 1.0497154 1.0014834 1.0016491 1.0001081
0.96788627 0.9856969 0.9717786 1.0115513 1.027933 1.0298996 0.91881204 0.97813344
0.90651435 0.9673814 1.0016854 0.9751213 0.9515608 0.93130386 0.96336144 0.9895373
0.9356964 1.0227059 0.9541506 0.91488916 1.0266157 1.0413537 0.9278086 0.9365169
1.0330033 0.957643 1.0560328 1.0102152 1.026661 0.9099446 0.9406138 0.9690209
1.0224983 0.9276808 0.9566941 0.97846687 1.0507883 1.025974 1.0711806 1.085161
1.0540818 0.9248792 0.9449955 1.0035944 0.93962836 1.0129706 0.9934799 0.97814375
1.045829 0.9495521 0.99459726 0.9991851 1.0092685 0.9537057 0.8830556 0.9652555
0.9348298 1.0328687 1.003917 0.93375474 0.954388 0.9470514 0.99319404 0.986229
0.9793695 0.95508033 0.9919921 0.96832865 0.9833411 1.0044396 1.0693654 0.9736489
00000000: 9b3c 803f 5568 7d3f ef43 7a3f 2529 763f
00000010: 135d 863f 9c30 803f 0a36 803f 8b03 803f
00000020: 65c7 773f a256 7c3f 7bc6 783f 837a 813f
00000030: 4f93 833f c0d3 833f 4437 6b3f f466 7a3f
00000040: 5311 683f 4fa6 773f 3a37 803f 8da1 793f
00000050: 7d99 733f ee69 6e3f db9e 763f 5152 7d3f
00000060: cd89 6f3f 07e8 823f 3743 743f 2d36 6a3f
00000070: 2568 833f 144b 853f dd84 6d3f 92bf 6f3f
00000080: 7439 843f 1728 753f 152c 873f bb4e 813f
00000090: a169 833f 21f2 683f 11cc 703f c111 783f
000000a0: 39e1 823f 7d7c 6d3f e8e9 743f ce7c 7a3f
000000b0: 3b80 863f 1e53 833f 721c 893f 8ee6 8a3f
000000c0: 27ec 863f e2c4 6c3f 3aeb 713f c875 803f
000000d0: 7c8b 703f 05a9 813f b354 7e3f a167 7a3f
000000e0: badd 853f d915 733f ed9d 7e3f 98ca 7f3f
000000f0: b62f 813f 0f26 743f ef0f 623f fc1a 773f
00000100: 0151 6f3f 0b35 843f 5a80 803f 8d0a 6f3f
00000110: c652 743f f671 723f f741 7e3f 8179 7c3f
00000120: f6b7 7a3f 2580 743f 32f3 7d3f 63e4 773f
00000130: 3ebc 7b3f 7a91 803f f7e0 883f 0e41 793f

bias f4 [80]
-0.3008714 -0.30326 -0.21222176 0.07637287 -0.26374134 0.076805346 0.18173666 0.080133766
-0.006081048 -0.039938893 0.07293802 0.14876817 -0.2911119 0.1871148 -0.121500075 -0.041894734
-0.14145501 0.16236378 -0.33879462 0.10884391 -0.15133646 0.042735264 -0.3050343 0.011596306
-0.07891102 0.04692558 -0.026310835 -0.30082572 -0.068648614 -0.30483747 -0.11885748 -0.29696614
-0.035170294 -0.039521538 -0.025609134 0.17216346 0.18940167 -0.11332407 0.07429634 -0.25236756
-0.06887839 -0.09835838 -0.09852302 0.1357449 0.13493143 -0.35971454 -0.17696336 0.2672777
-0.23473877 -0.09428875 -0.06730007 0.065735675 -0.13810663 0.060715493 -0.114066035 0.058272723
-0.3558436 -0.11398789 0.099426635 0.18638033 0.06954797 0.068397105 -0.14080293 -0.3145018
-0.07733208 -0.29104367 -0.051956695 -0.069244176 0.077413365 -0.34533507 -0.116936184 -0.08665549
-0.33525488 -0.13706192 0.017145975 -0.13353488 -0.17371215 -0.11139193 0.17760108 -0.12129321
00000000: d10b 9abe e544 9bbe a950 59be 6169 9c3d
00000010: 1b09 87be 1f4c 9d3d 2d19 3a3e 2c1d a43d
00000020: 8743 c7bb f796 23bd 8760 953d af56 183e
00000030: 9e0c 95be 069b 3f3e 08d5 f8bd d099 2bbd
00000040: 95d9 10be b142 263e 7d76 adbe 8ee9 de3d
00000050: f2f7 1abe 2c0b 2f3d 752d 9cbe 6ffe 3d3c
00000060: 1a9c a1bd 0935 403d d289 d7bc d405 9abe
00000070: a597 8cbd a813 9cbe 8d6b f3bd f20b 98be
00000080: ba0e 10bd 56e1 21bd 3fca d1bc 9e4b 303e
00000090: 83f2 413e 7316 e8bd ae28 983d 5236 81be
000000a0: 1d10 8dbd 1e70 c9bd 70c6 c9bd b600 0b3e
000000b0: 772b 0a3e 812c b8be e235 35be 9fd8 883e
000000c0: 5c5f 70be 761a c1bd 9ed4 89bd 6da0 863d
000000d0: d36b 0dbe cfb0 783d 749b e9bd 61af 6e3d
000000e0: 2231 b6be 7c72 e9bd 31a0 cb3d 7cda 3e3e
000000f0: 2b6f 8e3d c813 8c3d a52e 10be 6106 a1be
00000100: 4860 9ebd ad03 95be 8bd0 54bd e4cf 8dbd
00000110: e68a 9e3d c2cf b0be 3d7c efbd 6f78 b1bd
00000120: 87a6 abbe f659 0cbe b775 8c3c 5ebd 08be
00000130: 99e1 31be 7421 e4bd 0fdd 353e 9368 f8bd

running_mean f4 [80]
0.0067959805 0.27334318 0.29387045 -0.8839671 0.46662986 0.2912261 -0.9684254 0.1148628
-0.0045293416 0.45564008 -0.6810191 -0.70733136 0.22513017 -0.46875954 0.19805613 0.41458082
-0.057908244 -0.75146866 0.16246483 -0.6373861 -0.1260599 -0.51348794 -0.0073495326 0.08207264
-0.19317627 -0.7200297 0.14739752 0.0010450885 0.15385449 0.36730945 0.29399437 0.35639432
0.398583 0.03683147 0.2994685 -0.5425548 -0.9978529 -0.34174478 -0.6829802 0.5751269
0.13324422 -0.6738421 -0.220445 -0.7364822 -0.45805663 -0.13859558 0.71381646 -0.8570761
0.30030763 -0.3497148 0.31499305 -0.8547812 -0.008462219 -0.5282327 0.24174204 -0.6794258
0.4596182 -0.022477793 -0.87569535 -1.0334244 -0.7612247 -0.8713019 -0.118131936 0.3866235
-0.6863762 0.1968741 0.10053404 -0.35376284 -0.84457445 0.21488364 -0.1222575 0.3143661
0.1946581 0.2593061 -0.25198126 0.37513006 0.3704588 0.26628393 -0.69236314 0.14490396
00000000: d1b0 de3b a3f3 8b3e 3076 963e ab4b 62bf
00000010: 1cea ee3e 961b 953e baea 77bf 303d eb3d
00000020: df6a 94bb a849 e93e 4557 2ebf ab13 35bf
00000030: 8688 663e 4001 f0be 3acf 4a3e f043 d43e
00000040: 3231 6dbd 4060 40bf 2e5d 263e bc2b 23bf
00000050: d915 01be f273 03bf 59d4 f0bb b315 a83d
00000060: 00d0 45be de53 38bf 60ef 163e 5afb 883a
00000070: 088c 1d3e fc0f bc3e 6e86 963e 5179 b63e
00000080: 1213 cc3e 98dc 163d ef53 993e dfe4 0abf
00000090: 4a73 7fbf 2cf9 aebe cad7 2ebf 843b 133f
000000a0: 2c71 083e ea80 2cbf 56bc 61be 198a 3cbf
000000b0: 6686 eabe 00ec 0dbe adbc 363f 5769 5bbf
000000c0: ecc1 993e d10d b3be c546 a13e f1d2 5abf
000000d0: 1ea5 0abc 423a 07bf 3a8b 773e d9ee 2dbf
000000e0: 1453 eb3e 5923 b8bc 922d 60bf 4047 84bf
000000f0: 9fdf 42bf a40d 5fbf 28ef f1bd 84f3 c53e
00000100: 5ab6 2fbf 5d99 493e cae4 cd3d 6720 b5be
00000110: 0836 58bf 750a 5c3e 2462 fabd 98f4 a03e
00000120: 7454 473e c5c3 843e b003 81be 0c11 c03e
00000130: c7ac bd3e 5e56 883e b63e 31bf b461 143e

running_var f4 [80]
0.10378778 0.123778865 0.19265856 0.5241338 0.14291178 0.53822696 0.8226749 0.5979853
0.8093781 0.41527125 0.5868216 0.5107605 0.12223256 0.8986007 0.7771511 0.5918012
0.26766405 0.40154573 0.072068095 0.6896111 0.23477823 0.45719042 0.15911624 0.71053326
0.68039054 0.9604999 0.63171893 0.16130662 0.54636663 0.14604303 0.22396673 0.14026988
0.4502809 0.946329 0.54098994 0.56884944 0.4527554 0.6380066 0.21712999 0.12753202
0.52781093 0.19078574 0.3635593 0.5513614 0.29753467 0.106043786 0.28807688 0.17589492
0.11659696 0.4511307 0.59680516 0.9562502 0.14755636 0.52432734 0.70611876 0.8645671
0.12637496 0.72100997 0.6159867 0.74231833 0.70023435 0.5203445 0.23036227 0.11616073
0.23025167 0.20432289 0.62272906 0.24586552 0.62837905 0.11359788 0.6944004 0.39900455
0.11475216 0.16426922 0.7608984 0.18325363 0.6142398 0.56066966 0.56491244 0.57954913
00000000: b08e d43d c67f fd3d 4948 453e a22d 063f
00000010: 7757 123e 3ec9 093f d29a 523f 9115 193f
00000020: 6733 4f3f 6f9e d43e f139 163f 33c1 023f
00000030: 1055 fa3d b20a 663f 60f3 463f 4980 173f
00000040: 430b 893e 6797 cd3e 7098 933d 5a8a 303f
00000050: b469 703e dd14 ea3e 5eef 223e 82e5 353f
00000060: 132e 2e3f 52e3 753f 55b8 213f 902d 253e
00000070: afde 0b3f 4e8c 153e 8957 653e e8a2 0f3e
00000080: 388b e63e 9e42 723f 517e 0a3f 1ea0 113f
00000090: 8ecf e73e 6754 233f 5357 5e3e c197 023e
000000a0: 9e1e 073f 565d 433e 7224 ba3e 0526 0d3f
000000b0: 7756 983e 7c2d d93d d07e 933e cc1d 343e
000000c0: 63ca ee3d 9afa e63e 39c8 183f d0cc 743f
000000d0: 0419 173e 513a 063f 33c4 343f 4554 5d3f
000000e0: 7068 013e 1c94 383f 4eb1 1d3f 9308 3e3f
000000f0: 8f42 333f 4c35 053f 16e4 6b3e ade5 ed3d
00000100: 18c7 6b3e 053a 513e 2c6b 1f3f 2cc4 7b3e
00000110: 73dd 203f 01a6 e83d 3ac4 313f 534a cc3e
00000120: 2e03 eb3d 3136 283e 3dca 423f d7a6 3b3e
00000130: d23e 1d3f 0c88 0f3f 1a9e 103f 555d 143f

weight f4 [160, 80]
-0.004565675 -0.048312746 -0.07179878 -0.04906399 0.08971288 -0.055046096 0.10522484 0.039660797
0.010859168 -0.05539954 -0.10888047 -0.06957733 0.013225907 0.117138155 -0.03702556 -0.09927623
-0.04131886 0.024542974 0.037395246 0.01321355 0.009189434 0.046205346 0.069256656 -0.077542536
-0.009739751 -0.013835403 -0.029037632 0.092383586 -0.028029371 0.0044412035 0.030250037 0.12330461
-0.022585051 -0.06300194 0.0020665731 0.056850072 0.010603779 0.001982161 0.038223293 0.018774295
-0.07727648 -0.007270722 -0.008196048 -0.016973805 -0.022236718 0.050546758 -0.059503227 -0.005662383
0.021476943 -0.007125024 0.012196713 0.12507862 0.07121146 0.028296184 -0.04636964 0.12953047
-0.091204636 -0.123063006 0.012893501 0.016823336 0.016718892 0.062028177 0.04359654 0.117197484
0.06311268 -0.0097814 0.015593936 0.0029948484 0.075403206 0.101203695 -0.027112808 0.048456836
0.066394895 -0.09911831 0.038719915 -0.0810162 0.004694998 0.015621616 0.06979691 -0.019355683
0.033979278 0.03522826 0.14154375 -0.14001007 0.05529895 -0.06765416 -0.0044842563 -0.041388463
-0.0020955729 -0.063008524 -0.09238022 -0.047374755 0.0020919817 0.10716266 -0.017310767 -0.04666837
0.027155073 -0.02164196 0.020795813 0.091609485 0.006420187 0.03724227 0.1438357 -0.01082147
-0.06819751 -0.0076166578 -0.049326133 0.08571289 0.10852575 0.121853024 -0.058403272 0.049436737
-0.028259112 -0.0698452 0.037591647 0.079263866 0.12340491 0.081954144 0.065217 -0.036936615
0.051036913 -0.09331127 -0.012639446 0.034303024 0.08679403 -0.013020318 0.0539022 0.05015256
0.070220284 -0.006863235 0.058978494 -0.001123981 0.034726296 -0.08334628 0.026297731 0.036080945
0.076922715 -0.048091717 0.02411123 0.019122997 -0.07714269 -0.11253073 -0.039760564 0.030275112
0.0008051754 -0.07310785 0.017599633 -0.083463974 -0.039195336 0.07949138 0.11290469 -0.009377619
0.019658249 0.12129327 -0.057775807 0.011447316 -0.026695136 0.027845355 0.0020158405 0.13256557
-0.01611731 0.12571959 0.03182863 0.04408724 0.0374649 0.007912354 -0.03763131 -0.07398655
0.04904209 0.030472526 0.023257142 -0.025194123 0.07557888 -0.05377341 -0.015982674 -0.072691835
-0.03755426 0.123933196 0.051694844 -0.044176992 -0.025902146 0.071203046 0.05817515 -0.010775225
0.08541361 -0.056597967 -0.084175535 0.0051324274 0.019598946 0.017814742 -0.03015298 0.080077685
-0.10634888 -0.0036371252 0.002021311 0.020109693 -0.032441642 0.03885908 -0.0027286457 0.03198681
-0.04379825 0.06355525 0.0075984513 0.019454855 -0.049125794 0.15160044 0.07085328 0.107419275
0.030819027 -0.10745438 -0.03396512 -0.005081943 -0.013202047 0.023549585 -0.10498376 -0.0027523802
0.013057142 -0.08753064 0.07300238 0.015962182 0.048287097 0.01852812 -0.029908786 0.14340846
0.04979863 0.016529152 -0.004860791 -0.037829272 -0.039112143 0.05920255 -0.01341591 -0.021326404
0.08606314 -0.005872475 -0.08639819 -0.045690928 -0.14022711 0.020536965 -0.02564797 -0.010380503
-0.019732675 0.08641557 -0.0027628785 -0.019729462 0.033798743 -0.10064886 0.077607766 -0.11743938
0.052222893 0.00765839 0.014478151 0.019773196 0.032521807 0.033398125 -0.03985101 -0.094270505
00000000: a89b 95bb 96e3 45bd 3d0b 93bd 53f7 48bd
00000010: 63bb b73d 0478 61bd 1f80 d73d 5c73 223d
00000020: a7ea 313c a1ea 62bd b9fc debd 8f7e 8ebd
00000030: 7ab1 583c 21e6 ef3d 1da8 17bd 5651 cbbd
00000040: f73d 29bd 590e c93c c22b 193d a57d 583c
00000050: 488f 163c d141 3d3d 6fd6 8d3d 9fce 9ebd
00000060: 7a93 1fbc e3ad 62bc 54e0 edbc 9b33 bd3d
00000070: da9d e5bc 8487 913b edce f73c 2187 fc3d
00000080: 4904 b9bc 2907 81bd 586f 073b 9fdb 683d
00000090: 79bb 2d3c 25e7 013b 0790 1c3d 8dcc 993c
000000a0: 2243 9ebd 3d3f eebb b848 06bc a60c 8bbc
000000b0: c729 b6bc 1e0a 4f3d a8b9 73bd 838b b9bb
000000c0: 6af0 af3c 0979 e9bb b9d4 473c 9c14 003e
000000d0: 50d7 913d 66cd e73c 17ee 3dbd a3a3 043e
000000e0: 7fc9 babd 7508 fcbd 433f 533c 18d1 893c
000000f0: 0ff6 883c 4211 7e3d 4992 323d 3c05 f03d
00000100: 3941 813d 2a42 20bc b57d 7f3c 3845 443b
00000110: ff6c 9a3d e243 cf3d ae1b debc ad7a 463d
00000120: 0cfa 873d 8afe cabd c698 1e3d d2eb a5bd
00000130: 7fd8 993b cef1 7f3c aff1 8e3d cf8f 9ebc
00000140: db2d 0b3d 824b 103d d8f0 103e cd5e 0fbe
00000150: 2781 623d 448e 8abd abf0 92bb f386 29bd
00000160: e155 09bb 9d0a 81bd d731 bdbd 080c 42bd
00000170: a119 093b 1978 db3d 4fcf 8dbc 5527 3fbd
00000180: 5174 de3c 7b4a b1bc fb5b aa3c c19d bb3d
00000190: 6f60 d23b 5a8b 183d aa49 133e 894c 31bc
000001a0: 23ab 8bbd 2895 f9bb 330a 4abd 3d8a af3d
000001b0: c042 de3d 148e f93d 4538 6fbd 2d7e 4a3d
000001c0: a77f e7bc 000b 8fbd b3f9 193d 1855 a23d
000001d0: b7bb fc3d 93d7 a73d 7e90 853d d94a 17bd
000001e0: 150c 513d fb19 bfbd ae15 4fbc 5481 0c3d
000001f0: 12c1 b13d 2c53 55bc 8ec8 5c3d c56c 4d3d
00000200: a7cf 8f3d fde4 e0bb 6f93 713d 8b52 93ba
00000210: 293d 0e3d 74b1 aabd 576e d73c 9dc9 133d
00000220: a889 9d3d d2fb 44bd ea84 c53c d5a7 9c3c
00000230: fdfc 9dbd 8376 e6bd f9db 22bd 8303 f83c
00000240: 6812 533a 92b9 95bd 1b2d 903c 29ef aabd
00000250: 4a8b 20bd 60cc a23d 933a e73d 96a4 19bc
00000260: 560a a13c 9b68 f83d 53a6 6cbd 868d 3b3c
00000270: c2af dabc f11b e43c 311c 043b 45bf 073e
00000280: 7308 84bc a3bc 003e bd5e 023d d294 343d
00000290: cc74 193d d1a2 013c 4a23 1abd 4386 97bd
000002a0: 5ce0 483d 85a1 f93c c385 be3c e863 cebc
000002b0: 1ac9 9a3d 8241 5cbd 19ee 82bc 75df 94bd
000002c0: 7fd2 19bd b0d0 fd3d f9bd 533d eff2 34bd
000002d0: bd30 d4bc e7d2 913d 1149 6e3d 928a 30bc
000002e0: 55ed ae3d 45d3 67bd 3964 acbd ec2d a83b
000002f0: f88d a03c 39f0 913c 6203 f7bc c5ff a33d
00000300: 71cd d9bd d65c 6ebb f977 043b 15bd a43c
00000310: 87e1 04bd b32a 1f3d 14d3 32bb 9a04 033d
00000320: cb65 33bd 4129 823d 6efc f83b ca5f 9f3c
00000330: 2138 49bd 253d 1b3e 861b 913d a3fe db3d
00000340: 2f78 fc3c 0b11 dcbd 021f 0bbd 6d86 a6bb
00000350: 664d 58bc 0feb c03c ba01 d7bd 4761 34bb
00000360: 9fed 553c 4443 b3bd 4682 953d 1fc3 823c
00000370: b1c8 453d 49c8 973c 4503 f5bc abd9 123e
00000380: a6f9 4b3d 2568 873c 4547 9fbb def2 1abd
00000390: 0e34 20bd 607e 723d 68ce 5bbc b6b4 aebc
000003a0: df41 b03d e46d c0bb 89f1 b0bd 6926 3bbd
000003b0: b297 0fbe 233d a83c b11b d2bc fc12 2abc
000003c0: 6ba6 a1bc a5fa b03d 6911 35bb ae9f a1bc
000003d0: 8d70 0a3d fd20 cebd d2f0 9e3d 0f84 f0bd
000003e0: ace7 553d 3bf3 fa3b c435 6d3c 66fb a13c
000003f0: 9635 053d 79cc 083d d03a 23bd e510 c1bd

bias f4 [160]
0.083031945 0.03218819 0.044712853 -0.07968621 0.017099455 0.08813933 -0.031701837 -0.021726014
0.0039129737 0.10448486 -0.10321107 -0.101575196 -0.10567173 -0.083359696 -0.017560547 0.035403464
-0.01897936 0.110532776 0.031681083 -0.009174434 0.03535777 -0.014062003 -0.008603192 -0.109769434
-0.07371172 0.020885563 0.044204522 -0.105466224 0.05928143 0.019829405 -0.03871295 -0.003306666
-0.057672173 0.049782798 0.03757899 0.011070955 -0.10093856 0.028723726 -0.07977435 -0.018460639
0.061781358 -0.05132195 0.10582291 -0.029461171 0.044696238 -0.04997764 -0.1051503 -0.09378924
0.07634454 -0.029374955 -0.013599453 -0.092939265 -0.10308167 0.09133183 0.047204304 0.09566653
-0.07673678 -0.0973825 0.10173902 -0.08055243 -0.009489721 0.10053411 0.09315978 0.04892402
-0.0364191 -0.083410345 0.07633377 -0.022047311 -0.11152756 0.041945893 -0.047181703 -0.07782303
0.07632862 0.024857748 -0.046567768 0.032012165 -0.077866256 0.0026891695 -0.08004899 0.0029888055
-0.013254582 0.0299874 -0.092566594 0.07181459 -0.08726622 -0.05489123 -0.058827717 0.072607204
-0.013841898 -0.0341151 -0.0060670003 -0.056245696 -0.028906256 0.048781607 -0.052236527 0.049257036
0.0040078233 0.024593234 -0.07884974 -0.09356793 0.103373416 0.110751905 -0.0518724 -0.098347105
-0.057757784 0.07375914 -0.105527446 0.01611591 -0.073323734 -0.01873457 0.05142827 0.03594234
-0.02807919 0.007301473 0.070161365 -0.08419471 -0.058476727 -0.08341612 -0.013489966 -0.07466561
0.042326033 0.0003024357 -0.027041333 0.10238094 0.10745023 -0.09693935 0.106528156 0.08563583
-0.04560435 -0.100949146 -0.055899307 -0.033253647 0.05944237 0.017781142 0.023150368 0.023652269
-0.046414975 -0.036478817 -0.08637244 -0.102938205 -0.09423337 0.06948891 0.10227144 0.0971073
0.07589491 0.09987204 -0.10336924 -0.09425758 0.01883606 0.05637138 0.005619256 -0.01522733
-0.092565365 -0.067891575 -0.054633867 -0.07069446 -0.09138838 0.06457352 -0.0072323484 0.104262
00000000: a70c aa3d c3d7 033d d324 373d 8632 a3bd
00000010: 2814 8c3c 6582 b43d c9d9 01bd c1fa b1bc
00000020: 6738 803b 29fc d53d 5360 d3bd a806 d0bd
00000030: 6c6a d8bd 7db8 aabd 23db 8fbc 3903 113d
00000040: 9a7a 9bbc 025f e23d 06c4 013d 5d50 16bc
00000050: 4fd3 103d 5164 66bc 67f4 0cbc ccce e0bd
00000060: 2cf6 96bd 3318 ab3c cd0f 353d adfe d7bd
00000070: 16d1 723d 4771 a23c 7891 1ebd a6b4 58bb
00000080: a839 6cbd 0ce9 4b3d 6dec 193d f362 353c
00000090: e0b8 cebd 054e eb3c bc60 a3bd c43a 97bc
000000a0: 730e 7d3d f736 52bd afb9 d83d 8e58 f1bc
000000b0: 6713 373d 5bb5 4cbd 0a59 d7bd 9314 c0bd
000000c0: 875a 9c3d bfa3 f0bc 3dd0 5ebc f156 bebd
000000d0: 7c1c d3bd 2f0c bb3d 4d59 413d d0ec c33d
000000e0: 2c28 9dbd 7a70 c7bd 8c5c d03d acf8 a4bd
000000f0: c67a 1bbc d4e4 cd3d 8eca be3d 8e64 483d
00000100: 322c 15bd 0bd3 aabd e154 9c3d 909c b4bc
00000110: 9068 e4bd 75cf 2b3d 9a41 41bd ae61 9fbd
00000120: 2e52 9c3d 7aa2 cb3c d8bd 3ebd 301f 033d
00000130: 5878 9fbd c73c 303b baf0 a3bd d6df 433b
00000140: bf29 59bc 23a8 f53c 8e93 bdbd 8713 933d
00000150: a2b8 b2bd a0d5 60bd 55f5 70bd 16b3 943d
00000160: 21c9 62bc 46bc 0bbd b0cd c6bb e361 66bd
00000170: d0cc ecbc 39cf 473d f8f5 55bd bfc1 493d
00000180: 0f54 833b c077 c93c f97b a1bd 8ba0 bfbd
00000190: 71b5 d33d e5d1 e23d 2778 54bd 356a c9bd
000001a0: 6d93 6cbd 080f 973d c61e d8bd 8305 843c
000001b0: c12a 96bd 3e79 99bc 73a6 523d 4638 133d
000001c0: 5406 e6bc 3241 ef3b c3b0 8f3d 476e acbd
000001d0: 4b85 6fbd 12d6 aabd 0505 5dbc 49ea 98bd
000001e0: 105e 2d3d 3c90 9e39 c985 ddbc 19ad d13d
000001f0: de0e dc3d 2388 c6bd 6f2b da3d d761 af3d
00000200: a0cb 3abd 6dbe cebd acf6 64bd fa34 08bd
00000210: d879 733d c2a9 913c d7a5 bd3c 67c2 c13c
00000220: a11d 3ebd d06a 15bd 09e4 b0bd 44d1 d2bd
00000230: 6dfd c0bd 3450 8e3d b073 d13d 31e0 c63d
00000240: ca6e 9b3d b689 cc3d 41b3 d3bd 1e0a c1bd
00000250: 154e 9a3c ade5 663d bc21 b83b 0d7c 79bc
00000260: e992 bdbd bd0a 8bbd c3c7 5fbd 42c8 90bd
00000270: d529 bbbd 1f3f 843d 56fd ecbb 5187 d53d

weight f4 [160]
1.4484109 1.4774454 1.5348963 1.4133849 1.3879925 1.2020352 1.4574057 1.4324586
1.4650588 1.5879627 1.1281948 1.3617923 1.1150742 1.3767899 1.6615274 2.142535
1.3281947 1.5877529 1.2190931 1.4997191 1.4756194 1.4192523 1.9170364 1.6983197
1.4429296 1.6468405 1.5773183 1.8328252 1.221258 1.4380867 1.6564249 2.058203
1.6777395 1.9265357 1.6717396 1.3710473 1.2915606 1.8335238 1.1299138 1.510788
1.4457346 1.8225666 1.5377873 1.7038667 1.6741099 1.58589 1.8057479 1.9789037
1.1520658 1.3747429 1.3570143 1.5755692 1.3742867 1.3949038 1.2730025 1.2925215
1.4399165 2.0268743 1.4853463 1.8706229 1.5373137 1.6021408 1.5325717 1.4089708
1.4450717 1.6357338 1.6670203 1.3533777 1.5363296 1.5007482 1.4632633 1.1608639
1.3630112 1.2103847 1.1750076 1.3215729 1.7072543 1.4547414 1.1848713 1.4453154
1.4100549 1.422201 1.557763 1.2572739 1.611691 1.9709276 1.411434 1.2192749
1.6269819 1.0777313 1.7509528 1.3235354 1.5053737 1.453316 1.7558203 1.5218308
1.2765424 2.0620456 1.3892311 1.4804163 1.6843832 1.2821696 1.1799159 1.4767771
1.3144977 1.2164543 1.5057955 1.6773038 1.3762443 1.473942 1.1622589 0.99934465
1.6542773 1.4757266 1.9603566 1.410661 1.5251029 1.9884192 1.5647795 1.5056143
1.8816322 1.4304248 1.627993 1.3872132 1.7055289 1.393783 1.2864166 1.6269426
1.44564 1.2662649 1.5544158 1.6561023 1.5544212 1.9734392 1.1637268 1.4049889
1.6650944 1.3233662 1.3832196 1.5707916 1.8397126 1.3686213 1.4354107 1.3095458
2.130445 1.8413945 1.6969944 1.4285096 1.5237738 1.9554913 1.3105882 1.4647987
1.9497228 1.3444737 1.581944 1.6225768 1.471427 1.2696569 1.3592016 1.635552
00000000: 8765 b93f ee1c bd3f 7b77 c43f cce9 b43f
00000010: bda9 b13f 4adc 993f 458c ba3f ce5a b73f
00000020: 0c87 bb3f 5d42 cb3f b068 903f 364f ae3f
00000030: c0ba 8e3f a73a b03f eeac d43f 4b1f 0940
00000040: 4902 aa3f 7d3b cb3f 3e0b 9c3f ccf6 bf3f
00000050: 19e1 bc3f 0faa b53f 7361 f53f 8a62 d93f
00000060: ebb1 b83f abcb d23f 91e5 c93f 049a ea3f
00000070: 2f52 9c3f 3a13 b83f bb05 d43f 99b9 0340
00000080: 2bc0 d63f b998 f63f 90fb d53f 7a7e af3f
00000090: dc51 a53f e8b0 ea3f 04a1 903f 8061 c13f
000000a0: d50d b93f dd49 e93f 37d6 c43f 4e18 da3f
000000b0: 3c49 d63f 72fe ca3f bf22 e73f b74c fd3f
000000c0: e476 933f 93f7 af3f a5b2 ad3f 40ac c93f
000000d0: a0e8 af3f 358c b23f bff1 a23f 5871 a53f
000000e0: 2f4f b83f 4fb8 0140 d41f be3f 9270 ef3f
000000f0: b2c6 c43f f312 cd3f 4f2b c43f 2859 b43f
00000100: 1cf8 b83f ba5f d13f ec60 d53f 7b3b ad3f
00000110: 73a6 c43f 8418 c03f 364c bb3f 3097 943f
00000120: 2777 ae3f e3ed 9a3f a666 963f 4d29 a93f
00000130: 4f87 da3f f734 ba3f dda9 973f 1800 b93f
00000140: ae7c b43f af0a b63f c764 c73f 5aee a03f
00000150: e44b ce3f 5b47 fc3f dfa9 b43f 3311 9c3f
00000160: f140 d03f 19f3 893f 391f e03f 9c69 a93f
00000170: 16b0 c03f 4206 ba3f b8be e03f 5acb c23f
00000180: be65 a33f 8ef8 0340 53d2 b13f 487e bd3f
00000190: de99 d73f 221e a43f 7c07 973f 0807 bd3f
000001a0: 7641 a83f c6b4 9b3f e8bd c03f e4b1 d63f
000001b0: c628 b03f 22aa bc3f e6c4 943f 0dd5 7f3f
000001c0: 5cbf d33f 9ce4 bc3f f7ec fa3f 8a90 b43f
000001d0: 9236 c33f 8584 fe3f b24a c83f f8b7 c03f
000001e0: 53d9 f03f 2918 b73f 1362 d03f 3490 b13f
000001f0: c54e da3f 7b67 b23f 4da9 a43f a83f d03f
00000200: bb0a b93f f814 a23f 19f7 c63f 29fb d33f
00000210: 46f7 c63f a899 fc3f 00f5 943f add6 b33f
00000220: d021 d53f 1064 a93f 570d b13f b30f c93f
00000230: b47b eb3f fc2e af3f 8abb b73f 329f a73f
00000240: 3659 0840 d1b2 eb3f 1d37 d93f 67d9 b63f
00000250: 050b c33f 8a4d fa3f 5bc1 a73f 867e bb3f
00000260: 8490 f93f b717 ac3f 247d ca3f 99b0 cf3f
00000270: b857 bc3f 1e84 a23f 51fa ad3f c559 d13f
