gan/genmodel_2.pt (torch, 105755 bytes, 26 tensors)

weight f4 [20, 10]
000000 14 f9 69 be 8a 34 c5 bd 82 11 81 be 67 3d 04 3d
       -0.22848922 -0.09629162 -0.2520867 0.03228512
000010 2d 53 82 3c cc 0f 86 bb 97 15 45 3e 98 8d 5b 3e
       0.015908802 -0.0040912386 0.19246517 0.21440732
000020 cf 43 1c 3e 7e b0 48 be 64 a3 bb 3d bc 4b a3 bd
       0.15260242 -0.19598576 0.09162024 -0.079734296
000030 23 f5 53 be b7 e3 e5 bd 93 d9 a0 be 9f 50 99 be
       -0.20698981 -0.11225074 -0.31415996 -0.29944322
000040 33 46 6b 3d 54 72 1e be 60 3c 89 be 1b f9 8e bd
       0.057439994 -0.154733 -0.26803875 -0.06981107
000050 ad 42 10 3e 9c 08 1b 3e 04 43 5a be 45 c6 2a 3e
       0.14087935 0.15140003 -0.21314627 0.16677196
000060 7b 3d 87 3e ce 38 7f be 8f 17 87 3c c5 39 b8 bd
       0.26414093 -0.24924013 0.016490726 -0.08995394
000070 37 1a bf bc c4 2a 57 3d 49 c3 1e be c1 e5 87 3e
       -0.02332793 0.05253102 -0.15504183 0.26542476
000080 fa 6f 66 3e da 6d d5 bc ca 31 9b be 10 d6 e5 3d
       0.22503653 -0.026053358 -0.30311424 0.1122247
000090 ae 58 08 3e c5 09 77 be fe a5 ff 3d 48 8b 9b bd
       0.13315079 -0.2412482 0.12482832 -0.07594925
0000a0 cc 1d 88 be 67 0b 62 bd e3 ec 54 3e 75 14 a6 bc
       -0.26585233 -0.055186655 0.2079349 -0.020273427
0000b0 6c 58 93 be ba a0 47 be 4a 57 11 3e 44 e1 8a be
       -0.28778398 -0.19494906 0.14193454 -0.2712499
0000c0 6a 2e 2d 3e d9 bb 88 be 3b 65 cf 3d 95 f3 85 be
       0.16912237 -0.26705816 0.1012673 -0.261624
0000d0 82 72 95 3e 09 28 5f 3e c8 f5 7c 3e 4f 3a 2f 3e
       0.29188925 0.21792616 0.24703133 0.17112087
0000e0 69 dd 12 3e a3 61 1b 3e 27 29 8a 3e 64 3c 0f 3d
       0.14342274 0.15173964 0.26984522 0.034969702
0000f0 2d 28 61 bd 2a 3f f5 bd 39 8f db 3d ec 10 9a 3e
       -0.054969955 -0.11974938 0.10720677 0.30091035
000100 f1 e8 4f 3e 08 88 a7 3d 0c b0 91 bd a6 32 9f be
       0.20303704 0.08180243 -0.071136564 -0.3109333
000110 73 48 61 3e 05 17 9b bc 6d fa 91 3e fc 8a 9b 3d
       0.22000293 -0.018931875 0.28511372 0.075948685
000120 6a 51 5b 3d 7e b2 14 bb e2 0c 70 be 4b d6 18 be
       0.05354444 -0.0022689397 -0.23442414 -0.14925496
000130 8c 4e 13 3e ed 4f 8b 3e f2 9f 9e be 64 01 0f 3e
       0.14385432 0.27209416 -0.30981404 0.13965374
000140 d0 b3 42 3e 10 f2 06 be 0c 90 26 3c b0 1d 96 3e
       0.19013906 -0.13178277 0.010166179 0.29319525
000150 39 5a a6 3e 36 26 f5 3b 7a 86 d4 bd 6c 59 e9 bb
       0.3249071 0.0074813617 -0.10377212 -0.0071212556
000160 8c ee 8e be 15 41 97 3e 1c 35 e2 bc 86 c5 1a be
       -0.27916372 0.2954184 -0.027613215 -0.15114412
000170 63 3e 7f 3e b5 58 7a bd 47 bf bc 3d 26 c8 98 3e
       0.24926142 -0.061119754 0.09216171 0.298402
000180 0c b1 1f be ff 5c 19 3e 20 d5 0c be 7b 6c 94 3e
       -0.15594882 0.14976881 -0.13753176 0.28989014
000190 64 1e a0 3e 41 26 89 3e ae d3 49 be 50 52 8b 3e
       0.31273186 0.26786998 -0.19709656 0.27211237
0001a0 e3 f2 a6 3e ae d1 66 be 37 96 0d be cd 3e 62 bd
       0.32607183 -0.22540924 -0.13826834 -0.055235673
0001b0 9d 66 21 3e 9e 75 5c be 20 e3 94 3e 7c cf 02 3e
       0.157618 -0.21529242 0.29079533 0.12774462
0001c0 d3 7c 4c 3e 8f b7 9c be 52 fb 4f bd 1b 90 47 bc
       0.19969492 -0.30608794 -0.050776787 -0.0121803535
0001d0 bb ff cc bc 53 bf 5e 3e 4f 86 ee bd 0b f0 b5 bc
       -0.025024286 0.21752672 -0.11646711 -0.022209188
0001e0 84 ef a2 bb 09 df ac 38 f2 0f 5e 3e 68 2b 42 be
       -0.0049724 8.243143e-05 0.2168577 -0.1896187
0001f0 99 a9 8c bc 86 dc 7f be 96 82 76 bc 77 51 6a 3c
       -0.017170714 -0.24986467 -0.015045783 0.014301649
000200 f9 31 8a be a6 bc a7 3c 04 68 39 bc b4 2e 72 be
       -0.2699125 0.020475697 -0.011316303 -0.23650628
000210 5e cf 3c be 86 b0 4f 3c 4a 42 4c be e5 8a 99 be
       -0.1843848 0.012676364 -0.19947162 -0.2998878
000220 fe 65 69 3c 98 82 1e be 3f 83 0d be e0 b0 ae bd
       0.014245508 -0.15479505 -0.13819598 -0.0852983
000230 5b d8 51 be 18 56 b6 bd 93 9c 08 3e c9 53 26 3e
       -0.2049269 -0.0890314 0.13340978 0.16242899
000240 21 67 8b 3e 05 33 90 3e 25 11 7d bd f9 6c ed 3d
       0.2722712 0.28163925 -0.06178393 0.115930505
000250 2b f1 8e 3d d0 dd 81 3e 1c 66 44 be 4f c1 ff bd
       0.06979593 0.25364542 -0.19179577 -0.124880426
000260 5b 7f 47 bd 8e 88 7b 3e 1e b5 bf 3a 24 a0 2c 3b
       -0.04870544 0.2456381 0.0014626121 0.0026340568
000270 ff 98 80 3d 15 3d c4 bd ff a8 ed 3d 18 28 48 be
       0.06279182 -0.09581963 0.11604499 -0.19546545
000280 ee 74 52 be 16 31 f3 bd 4d af 22 be d7 60 aa 3e
       -0.20552418 -0.11874597 -0.15887184 0.33277008
000290 f4 ff 33 3e e9 3a 24 be 64 c0 8f 3e 2f 38 2f 3e
       0.17578107 -0.16038097 0.2807647 0.17111276
0002a0 63 30 20 3e 92 16 a1 3e c8 fa a1 be bf e2 90 3e
       0.15643458 0.31462532 -0.31636643 0.28297994
0002b0 8d 13 32 3d 5c f5 d5 3d e1 27 a4 3e b5 df 97 3e
       0.043475676 0.10447189 0.32061675 0.29662862
0002c0 13 07 82 be 91 36 eb bd aa e2 75 be dd c6 40 be
       -0.25396022 -0.11485017 -0.24012247 -0.1882586
0002d0 89 73 05 3d 44 74 14 be f1 86 9f bd cd 16 8b 3e
       0.032580886 -0.14497477 -0.0778941 0.27165833
0002e0 94 67 38 3e 06 69 34 be 05 aa fd bc 0a cd 60 be
       0.18008262 -0.17618188 -0.03096486 -0.21953216
0002f0 4b b4 2d be 9c 45 0c 3e f4 8e 9d be 00 50 a6 3d
       -0.16963308 0.13698429 -0.30773127 0.081207275
000300 b9 5f 54 be 98 d8 6c 3e fe 36 7b 3e f1 c6 ae bd
       -0.2073964 0.23129499 0.24532697 -0.08534039
000310 1d d0 7d bc b2 ee 9d 3d 69 60 b6 3c d8 ef 92 3e
       -0.015491513 0.07711543 0.022262769 0.2869861

bias f4 [20]
000000 ea c9 98 be 10 36 d5 3d 9e aa 00 3e fb 2a cd 3d
       -0.29841548 0.10410702 0.12565085 0.100179635
000010 0a 9a 8a 3e ac f7 91 3e 00 72 ee bc a0 c6 88 3e
       0.27070647 0.2850927 -0.029107094 0.2671404
000020 7b 7d 44 be 88 84 65 be c5 d9 9b 3e a1 06 66 be
       -0.19188492 -0.22413838 0.30439582 -0.22463466
000030 93 db 08 3e 80 d5 84 3e cf f8 0a be 23 bc 97 bd
       0.13365011 0.25944138 -0.13571475 -0.07408931
000040 cd c6 4b be 92 a0 c9 3d 45 13 87 3e 8e 16 bc 3d
       -0.19900055 0.098450795 0.2638189 0.091839895

weight f4 [20]
000000 e2 3a 73 3f 03 76 80 3f c9 87 82 3f d5 c8 81 3f
       0.95011723 1.0036014 1.0197688 1.0139414
000010 6b 77 7d 3f 4c 27 76 3f 6c 7f 78 3f bd c7 78 3f
       0.9901034 0.9615371 0.9706943 0.97179776
000020 56 b1 83 3f af 91 8c 3f e3 1a 83 3f 38 70 83 3f
       1.0288494 1.0981959 1.024258 1.0268621
000030 9f f8 79 3f 55 4e 7b 3f 2d 41 86 3f 0e 08 74 3f
       0.9764499 0.981664 1.048864 0.9532479
000040 1a 94 6e 3f 0b e6 71 3f 45 37 86 3f 5f 09 7e 3f
       0.93194735 0.9449164 1.0485617 0.9923305

bias f4 [20]
000000 40 bc e4 bc 1a 4f c1 3b 81 19 a7 3c 8d 8c 80 3b
       -0.027921796 0.005899322 0.020397903 0.003923005
000010 85 03 86 3c 4e 8b c0 bc b5 cd b2 bc e7 51 75 bc
       0.0163591 -0.023503926 -0.021826604 -0.01497314
000020 be 8d 07 3d e4 9b 8b 3d bf 69 35 3c bb 6f 90 3c
       0.03309416 0.06816843 0.011072575 0.017631402
000030 2d 5d 6f bc 15 69 15 bc cd 3c 81 3d 34 7a b7 bc
       -0.014609617 -0.009119292 0.06310425 -0.022397138
000040 d7 8a 16 bd aa 93 32 bd 24 df 2a 3d c0 68 f8 3b
       -0.0367535 -0.043597855 0.04171671 0.0075808465

running_mean f4 [20]
000000 18 e8 b1 be 99 d6 b3 3c 47 0e 1c 3e b7 24 16 3d
       -0.34747386 0.021952914 0.15239821 0.036656108
000010 f5 df 43 3e 5a 84 a3 3e b2 70 b9 3d 72 77 0f 3e
       0.19128402 0.31936914 0.09054698 0.14010409
000020 af b4 bb bd b9 f7 23 be ee e0 c4 3e 85 22 93 be
       -0.09165322 -0.16012467 0.38452858 -0.28737274
000030 24 4f 95 3d a8 3f 65 3e 28 81 3e bd 69 64 51 bd
       0.072904855 0.22387564 -0.04650989 -0.05112115
000040 6f 9f 76 be fb d8 72 3e a7 8a a7 3e 7e 6c 05 3e
       -0.24084257 0.23715584 0.3272297 0.13029668

running_var f4 [20]
000000 80 89 87 3e 59 83 a3 3e f7 bd 74 3e f4 c8 b1 3e
       0.26472092 0.31936148 0.23900591 0.34723628
000010 0a 21 c8 3e e7 f3 bd 3e d3 7a 88 3e 07 0d a5 3e
       0.39087707 0.37100145 0.26656207 0.32236502
000020 1c 71 c5 3e ff a8 c8 3e 0e fe 05 3f fd d4 85 3e
       0.38562858 0.39191434 0.5234078 0.2613906
000030 1f 0f 75 3e d8 a5 7b 3e 61 49 a2 3e 18 5f 21 3e
       0.2393155 0.24574983 0.3169661 0.15758932
000040 c7 59 fb 3e 35 c9 0f 3f ad 35 6a 3e 8e 0e 94 3e
       0.49091932 0.5616639 0.22872038 0.28917354

weight f4 [40, 20]
000000 48 ad 09 3d 92 3e 1c be 2a 53 6e bd c8 bc 2e be
       0.03361252 -0.15258244 -0.05818478 -0.17064202
000010 83 fa 35 3e 78 fa bf bc 30 af bb bd 3f d6 af 3d
       0.17771344 -0.023434862 -0.09164274 0.08585786
000020 49 f2 73 be a7 bf ef bd 6f 54 42 3e 41 8a 44 3e
       -0.23822893 -0.11706477 0.18977521 0.19193365
000030 52 c2 14 bd 9d f6 18 3e 59 90 cf bd 29 23 31 3d
       -0.03631813 0.14937826 -0.10134954 0.043246422
000040 a4 18 d8 bd e1 6e cb bc 15 22 f9 3d a6 37 86 3c
       -0.10551575 -0.024833145 0.12164704 0.016383957
000050 29 6a 96 3d 31 88 9a bd 4b 43 24 3e f3 4a 6c be
       0.07344467 -0.07545508 0.16041295 -0.23075466
000060 b7 0b 6e 3d 62 4a b9 bd 2e 6a f3 bd 1e 72 21 be
       0.05811664 -0.090473905 -0.118854865 -0.15766189
000070 53 78 36 bd 30 a6 ec bd ac f9 2e 3c 12 89 53 be
       -0.044548344 -0.11555135 0.010679644 -0.20657757
000080 b7 27 e1 3c 1b f6 84 bd 9f 70 dc bc f8 a3 dc bc
       0.027484758 -0.064922534 -0.02690917 -0.026933655
000090 87 9a 17 be 0c bc 34 be bc 0d bd bd 1d a2 23 3d
       -0.14805041 -0.17649859 -0.09231135 0.039949525
0000a0 1c 31 73 3d 46 8d 29 3d eb dc 1b 3e d3 b4 81 bd
       0.059373006 0.041394494 0.15220992 -0.063333176
0000b0 1e 45 46 3e 84 e6 7f 3d 02 07 8d bc ad 81 08 3d
       0.19362304 0.062475696 -0.017215256 0.033326793
0000c0 a5 de 2e be 55 b3 4e 3e a5 38 92 3d 87 dc d0 3d
       -0.1707712 0.20185597 0.0713971 0.10198312
0000d0 68 a6 27 be 83 96 14 3e b0 72 78 3e 03 ad b6 3c
       -0.16372073 0.1451054 0.242625 0.022299295
0000e0 d0 21 9a 3d 3f 16 2d 3e 60 0a c2 bd d2 0e 4c 3e
       0.075259805 0.16903017 -0.09474635 0.19927529
0000f0 4a de 27 be ca 25 49 3e e7 62 44 3e 98 1f 16 be
       -0.1639339 0.19643322 0.19178353 -0.1466049
000100 41 a1 55 3e 6a 74 3b be 53 91 b2 bc e8 07 2e be
       0.20862295 -0.18306127 -0.021797812 -0.16995203
000110 98 1f 28 be f8 8e 70 be a2 e3 ef 3c 8f 89 1c be
       -0.16418302 -0.23492038 0.029283348 -0.1528685
000120 21 4d 55 3d 42 ed dc bd 4c 3d 84 3c 14 0d 62 3e
       0.05207551 -0.10787441 0.01614251 0.22075301
000130 b3 5f 68 bd 24 7e ec 3d f3 97 b1 bd e9 7d 97 bc
       -0.05673189 0.11547497 -0.0867156 -0.018492656
000140 e8 77 25 3d 1c e8 3c bd 66 8a e4 3d da 12 dc 3d
       0.040397555 -0.046119794 0.1115921 0.10745783
000150 59 9d be bc 77 d2 52 be 99 3c 0b be 11 7c 98 3d
       -0.023268389 -0.20588098 -0.13597335 0.07445539
000160 45 9b 47 3e 51 64 fc bd e5 0f 45 be 90 5f 12 3d
       0.19492824 -0.12323821 -0.19244345 0.035735667
000170 4c 68 14 3e 7d 3f 54 3e 72 a6 1c 3e b4 48 69 bd
       0.14492911 0.20727344 0.15297869 -0.0569541
000180 6c 28 07 3e 00 02 d9 bd 85 8d 24 3e 73 d0 4e be
       0.13199013 -0.105960846 0.1606961 -0.20196705
000190 06 5d 36 3e d1 a9 e9 3d 32 b4 ce 3d 7e 68 81 3c
       0.17808923 0.11409343 0.10092963 0.015796896
0001a0 6a 15 48 3e 71 3c 15 be e9 41 9b 3d 60 f2 41 3e
       0.19539419 -0.14573838 0.07580931 0.18940115
0001b0 68 0b 93 bd 9d 37 64 be 08 db 8a bd c3 5c 0c 3e
       -0.0717991 -0.2228684 -0.06780058 0.13707261
0001c0 b4 d9 fb bd 3c 3a 52 3e 88 73 0d be c5 e9 85 3d
       -0.12297383 0.20530027 -0.13813603 0.065387286
0001d0 50 cc 00 be e9 e5 94 3d a7 cb 84 bd ad d4 08 bc
       -0.12577939 0.072704144 -0.06484156 -0.008351487
0001e0 f6 6b 01 3e 56 9b 55 be bf ce 5a be ad 22 24 3e
       0.1263884 -0.20860037 -0.2136793 0.16028853
0001f0 12 94 75 be 59 f1 fc bc b2 f3 83 bd e6 20 d9 3d
       -0.23982266 -0.030876802 -0.064429656 0.10601978
000200 94 c4 43 be 7a 3f 4b 3e fb 03 9d bc 8f 35 16 bd
       -0.19117957 0.19848433 -0.019166937 -0.03667217
000210 a8 c8 1e be 97 e8 80 3d 46 33 03 be 11 3f 18 bd
       -0.15506232 0.06294363 -0.12812528 -0.03716952
000220 3a 85 2f 3e 4b 24 90 bd 92 a7 15 bd 50 ef 1d be
       0.17140666 -0.07038172 -0.03653676 -0.15423322
000230 f8 0c 32 be f6 41 bd bd 51 c8 68 3e 75 6a 27 3e
       -0.1738776 -0.09241097 0.22732665 0.16349204
000240 54 70 83 bb bd 62 18 3e 6f 46 2f be b9 6a 10 bd
       -0.0040111933 0.14881416 -0.17116712 -0.03525803
000250 96 83 17 3e 81 eb 1a be da f1 83 3e 35 ac 01 be
       0.1479629 -0.151289 0.25770456 -0.12663348
000260 e8 6a 08 be 54 66 68 bd 58 81 27 3d da 59 22 3e
       -0.13322031 -0.056738213 0.040894836 0.15854588
000270 2a 1b 2c 3e b7 4d 2f 3e e6 06 16 be 19 9c f0 bd
       0.16807237 0.1711949 -0.14651069 -0.11748523
000280 40 5d 5c 3e 76 91 39 3d 77 e7 db 3d b2 06 9d bd
       0.21519947 0.045304738 0.10737508 -0.07667293
000290 0f 55 2d be 1c 61 38 3e 49 72 2f 3d 88 61 71 3c
       -0.16926979 0.18005794 0.0428336 0.014732726
0002a0 6b 5f 20 3e 3a 6c 12 3e 6e 9f 29 3e e6 ff 5f bd
       0.15661399 0.14299098 0.16564724 -0.054687403
0002b0 de 70 a7 bd 7d 8a 90 3d 6c e9 58 be 65 2b 7f bc
       -0.081758246 0.070576645 -0.21182793 -0.015574311
0002c0 83 d1 0e 3e 43 ad 37 3e 71 94 0e be 95 2d 02 be
       0.1394711 0.17937188 -0.13923813 -0.127127
0002d0 67 1c 95 bc b6 df 0e 3d 20 b2 a6 3d 91 06 4a be
       -0.01820202 0.034881316 0.081394434 -0.19729067
0002e0 08 c8 a3 3d 15 04 5b 3e 09 79 2b be 32 97 a7 bd
       0.07997137 0.21388276 -0.1674539 -0.08183135
0002f0 09 de 38 3e 35 70 1b 3d 2f 60 30 be a6 83 17 3e
       0.1805345 0.037948806 -0.17224191 0.14796314
000300 ec fd a6 bd bf c1 c2 3d 64 65 0b 3e 87 0a c3 3d
       -0.081539005 0.095096104 0.13612896 0.09523492
000310 6e c8 11 be 4c 8e 3e 3d b4 4e 25 3e 06 16 5a 3b
       -0.14236614 0.046522424 0.16143304 0.0033277287
000320 61 8e bb 3d 45 e4 28 be 12 72 f9 bd 78 a0 da 3d
       0.09158016 -0.16493328 -0.1217996 0.10675138
000330 8c a8 5a be dc 32 8e bd 93 e6 d2 bd 26 b6 51 3e
       -0.21353358 -0.069432944 -0.10297885 0.2047964
000340 63 aa b8 3d 35 44 c7 3d dd 8c fb bd 63 8a 06 3e
       0.09016874 0.09729806 -0.12282727 0.13138728
000350 fe 8b 8c 3d 90 d2 c6 bd dd cf ff bd ed 2e db bd
       0.06862639 -0.0970813 -0.12490819 -0.1070231
000360 19 f7 20 3e c6 ee c5 3d 15 37 5f be be 38 29 be
       0.1571926 0.09664683 -0.21798356 -0.16525552
000370 6d cc b3 3c dd f1 f2 bc c9 fd 13 bd df ce bf 3d
       0.021948064 -0.029656345 -0.0361307 0.093656294
000380 af f3 35 bd c0 33 43 3e 33 c0 ec bd 55 eb 21 3d
       -0.044421848 0.1906271 -0.115600966 0.03953107
000390 2d e4 43 3e b6 92 81 3e 45 3c 11 be df 49 0e 3d
       0.19130011 0.25307244 -0.14183147 0.034738418
0003a0 31 69 68 bd 59 8a c9 3d 31 b1 33 3e 4b 10 03 be
       -0.056740943 0.09840841 0.17548062 -0.12799184
0003b0 da 9a ed bd 7a ba 86 bd 2f b0 c0 bd 7e ea e1 bb
       -0.11601801 -0.06578536 -0.09408604 -0.0068944087
0003c0 45 52 d5 3d 23 65 8e bd ff 54 97 bd 48 12 31 be
       0.10416082 -0.06952884 -0.073892586 -0.1729213
0003d0 44 d9 fa 3d 14 d5 39 bd 74 32 4b be 70 1d 50 3e
       0.122484714 -0.045369223 -0.19843465 0.2032373
0003e0 ed 08 25 be 77 1e 58 be 33 2b 58 3e d6 f3 ce 3d
       -0.16116686 -0.21105371 0.21110229 0.10105102
0003f0 d0 5e 96 bb 6b 11 ad bd 40 82 c5 bd f6 b2 35 be
       -0.0045889392 -0.08450588 -0.09643984 -0.1774405

bias f4 [40]
000000 1c ce 2a be a5 f2 ab 3d 4c c9 55 3e 67 a8 00 be
       -0.16680187 0.0839589 0.2087757 -0.1256424
000010 64 58 70 3d 66 1f 44 be 16 da 31 be 05 1e 48 be
       0.058678046 -0.19152603 -0.1736835 -0.19542702
000020 80 be 58 be e0 f6 03 bd 56 07 46 be 8a 2f 54 3d
       -0.2116642 -0.03221786 -0.19338736 0.05180315
000030 21 1d 23 3e 99 99 fb bb c6 2c d6 3d 56 c7 aa 3c
       0.1592908 -0.0076782224 0.104577586 0.020847004
000040 ff 21 1b 3e f2 f2 0d be 29 3a 2f bd 79 7f a3 3d
       0.15149687 -0.13862208 -0.042780075 0.07983298
000050 97 3c 97 bc bf 5d 4a be c1 04 00 be 33 51 8b 39
       -0.018461509 -0.19762324 -0.12501813 0.00026572644
000060 e6 10 57 bd d1 11 f7 bd 16 d6 55 3d ac 12 f6 3d
       -0.05250635 -0.12063945 0.05220612 0.1201528
000070 40 61 45 3e 0c 93 da 3d a6 26 2c bd 11 51 fb bd
       0.19275379 0.10672578 -0.042029046 -0.122713216
000080 33 10 15 3e 9e f5 63 3d 02 d2 bb 3d 44 df 4d bd
       0.14556961 0.05565416 0.09170915 -0.05026175
000090 b0 da 29 be 49 21 74 3d e8 74 a2 3d f7 f1 cf bd
       -0.16587329 0.059602056 0.07932454 -0.10153573

weight f4 [40]
000000 96 63 7e 3f 47 43 82 3f 19 c6 70 3f 91 b6 7c 3f
       0.99370706 1.0176781 0.94052273 0.98716074
000010 a5 4a 7b 3f f5 80 82 3f e1 b5 7a 3f 43 40 80 3f
       0.98160774 1.0195605 0.97933775 1.0019611
000020 90 0b 72 3f 95 a0 78 3f de c3 81 3f 02 3d 81 3f
       0.9454889 0.9712003 1.0137899 1.0096743
000030 16 2b 83 3f e7 28 71 3f 81 00 7c 3f 95 40 75 3f
       1.0247524 0.9420304 0.9843827 0.9580167
000040 65 ff 82 3f f6 00 7e 3f 9b e0 84 3f 4c 93 7a 3f
       1.023419 0.99220216 1.0381044 0.9788101
000050 45 f1 81 3f 39 1d 88 3f 52 1c 7c 3f 50 63 85 3f
       1.0151755 1.0633918 0.98480713 1.0420933
000060 c3 9a 79 3f 2d 10 86 3f 36 64 80 3f 4d 4a 79 3f
       0.9750177 1.0473686 1.0030582 0.97379
000070 0a 5f 6f 3f 79 b0 7b 3f 64 60 88 3f 59 89 7c 3f
       0.93504393 0.9831615 1.0654416 0.98647076
000080 f5 17 82 3f 5c fe 81 3f b9 ea 7e 3f 10 0a 7c 3f
       1.0163561 1.0155749 0.9957691 0.98452854
000090 42 97 83 3f ff b4 7c 3f 0f 6a 84 3f d0 6a 80 3f
       1.0280535 0.9871368 1.0344867 1.0032597

bias f4 [40]
000000 6f b2 d4 3c 0f fc 41 3d c9 46 a3 bc 03 3a d1 3c
       0.02596399 0.047359522 -0.019931214 0.025540357
000010 47 9d ea 3c 2b a5 72 3d 47 87 9f 3c b0 f6 9e 3c
       0.028639449 0.059239548 0.019473685 0.01940474
000020 8d fb 64 bc 8f 97 a4 3c 14 e7 40 3d fe c6 16 3d
       -0.01397599 0.0200918 0.047095373 0.036810867
000030 09 99 3d 3d 89 5a a0 bc 0f 1f 97 3c fd cb 4d 3c
       0.046288524 -0.01957442 0.018447427 0.012560842
000040 e8 3e 3b 3d e9 27 7b 3c 68 c7 73 3d 5f 20 8e ba
       0.04571429 0.01532934 0.05951634 -0.0010843388
000050 c4 44 f3 3c 0e 99 9a 3d 56 13 91 39 8b 9a 74 3d
       0.029695876 0.07548724 0.00027670962 0.059717696
000060 f4 b3 32 bc 0a 67 82 3d 07 cf 41 3d 48 48 33 bc
       -0.010907162 0.063673094 0.047316577 -0.010942526
000070 88 cf a2 bb 93 66 04 3d 37 32 bc 3d 06 74 92 3c
       -0.0049685873 0.032324385 0.09189265 0.01787759
000080 c6 3b 36 3d 2d 87 83 3d 87 1d bc 3c 26 f8 cd 3c
       0.0444906 0.06422267 0.022963298 0.02514274
000090 9a a7 29 3d cd 7e cd 3c 33 78 44 3d e0 a9 51 3d
       0.041419603 0.025084877 0.047966193 0.051187396

running_mean f4 [40]
000000 6e da 64 be 22 ca cf be 90 92 3d 3f 5b 43 aa be
       -0.2234895 -0.40583903 0.7405176 -0.33254513
000010 e8 cc 37 3e 65 f6 8a bd 75 3e 00 bf af 2a cb bd
       0.1794926 -0.06785277 -0.500953 -0.099202506
000020 0a c4 05 bb 5e 2a 38 3e d5 de cc be f1 d3 49 3e
       -0.0020411038 0.17984912 -0.40013757 0.19709755
000030 17 52 01 be 38 82 76 bd 21 56 fd 3e 28 f9 01 3e
       -0.12628971 -0.06018278 0.49479774 0.12692702
000040 17 cc 37 3e 98 7f 14 3e 81 a9 f7 be ac a4 89 be
       0.17948948 0.14501798 -0.4837151 -0.26883447
000050 fa 34 cf be b5 42 e9 be 9c 17 d4 be f4 32 88 3e
       -0.40470105 -0.45558706 -0.41424263 0.26601374
000060 42 a8 b1 3e 57 17 d7 be cf fd 22 3e ce 57 8f 3e
       0.34698683 -0.42009994 0.15917133 0.27996677
000070 2b 87 85 3d 8f 47 ff 3d ae 0b 91 be b0 a6 82 be
       0.06519922 0.124648206 -0.28329223 -0.25517797
000080 ed 6f 50 be 87 cc d6 3e 55 bc 85 bd 51 7c 19 3e
       -0.20355196 0.41952917 -0.06530062 0.14988829
000090 b5 47 1c bf d7 4f 22 3e 59 e2 27 3e f1 9b 0c be
       -0.61046916 0.15850769 0.16394939 -0.13731362

running_var f4 [40]
000000 3a 5f d1 3d 50 ec a5 3d 61 ca b6 3d 9b 20 42 3e
       0.10223241 0.08101714 0.089253195 0.1895775
000010 ac fc d0 3d 35 88 8b 3e 2f 21 e7 3d ac 45 13 3e
       0.10204443 0.27252355 0.11285626 0.14382046
000020 c8 1d d3 3d aa 08 cb 3d 7f 56 5e 3e b9 df 33 3e
       0.10308415 0.09913762 0.21712683 0.17565812
000030 7d 02 38 3e d1 94 eb 3d 06 06 11 3e d9 3e d5 3d
       0.17969699 0.11502994 0.14162454 0.10412378
000040 1b 2e 1f 3e 0e df ed 3d 17 58 83 3e d2 7d f9 3d
       0.15544932 0.1161481 0.25653145 0.121822014
000050 ba 7e 26 3e ce 17 0f 3e 7d 34 f2 3d e8 53 2f 3e
       0.1625928 0.13973925 0.118264176 0.17121851
000060 8f cc b9 3d 24 8c da 3d 93 1e 3c 3e d9 eb 0c 3e
       0.090722196 0.10671261 0.18371038 0.13761844
000070 37 54 44 3e b7 0d e6 3d 15 2e 5e 3e 92 ee 0e 3e
       0.1917275 0.11233085 0.21697266 0.13958195
000080 40 df 9d 3e ef 2d 13 3e 7c 8d fa 3d e3 fd 08 3e
       0.3083439 0.14372991 0.12234017 0.133781
000090 ce da 5e 3d 29 6a 8b 3e 60 a7 3d 3e 73 62 0d 3e
       0.054407887 0.2722943 0.1852088 0.13807087

weight f4 [80, 40]
000000 84 66 e8 bc 5a 6c e9 bc f6 39 07 be 6f fe b8 3d
       -0.028369196 -0.028494049 -0.13205704 0.09032904
000010 a7 e1 85 bd a1 a4 23 3e 12 7e 24 3d 30 4c a4 3c
       -0.065371804 0.1598077 0.040159293 0.02005586
000020 ad d4 ca bd 5c e9 1c bd 86 4d 15 3e 22 09 17 3d
       -0.09903846 -0.038308486 0.14580354 0.036873944
000030 06 94 31 bd 9c 91 ca bd d7 43 15 be 59 6d ab bd
       -0.043354057 -0.09891054 -0.1457666 -0.08370466
000040 ee b3 9d 3d 42 7d f8 bd 68 c8 49 3d 10 18 b9 bd
       0.077003345 -0.12133266 0.049263388 -0.09037793
000050 05 d0 4c 3d d4 82 a7 bd 4d a2 ee 3d c3 72 a6 bd
       0.05000307 -0.0817925 0.1165205 -0.08127358
000060 28 98 ad 3d d5 c2 08 3c a9 06 7b 3d ac 70 89 3d
       0.08476287 0.008347233 0.06128565 0.067109436
000070 0a c7 59 3d c7 9d 89 bd 3e 11 d2 3d d0 8d fe bd
       0.053168334 -0.06719547 0.10257195 -0.12429392
000080 05 e3 8a ba 9e 70 58 bd c7 9e 64 bd 16 d5 0f 3d
       -0.0010596222 -0.052841775 -0.055815484 0.035115324
000090 16 bc c8 3c f5 5f ac 3d a3 21 0d be ad e4 0a be
       0.024503749 0.0841674 -0.13782363 -0.13563795
0000a0 f2 e7 05 3d 25 10 03 3e 59 ac f0 3d f8 2a b7 3d
       0.032691903 0.12799127 0.11751623 0.089437425
0000b0 a7 e5 c0 bd e2 87 33 be c4 2b 1a 3e 90 97 18 3e
       -0.09418803 -0.17532304 0.15055758 0.14901567
0000c0 1e 4d 31 bc 1a 48 a7 3d bd a3 b3 3d b4 5c 34 3e
       -0.010821609 0.08168049 0.08771465 0.17613488
0000d0 ea b1 24 bd d2 7d 08 3e 4a ca 17 bd 4c 9d 7e bc
       -0.040208735 0.13329247 -0.037058152 -0.015540432
0000e0 d3 3b f4 3d 22 1d bf bb b4 a1 28 3e 95 97 ec bd
       0.11925473 -0.0058323303 0.16467935 -0.115523495
0000f0 07 aa 04 3d 47 e4 c0 bd 2d 1b 73 3c 82 73 11 3e
       0.032388713 -0.094185404 0.014838022 0.14204219
000100 5f c1 a6 3d 4c d3 91 3d 05 df 8e bc 5c 43 89 bd
       0.08142351 0.0712038 -0.017440328 -0.06702301
000110 9d 59 0d 3d bd 5c aa bd 17 4c f2 3d a3 28 e7 bc
       0.03450929 -0.0831847 0.11830919 -0.02821762
000120 6b 92 9f 3d 8f 27 0f bd 9f 5d fc bd c7 7a 19 3d
       0.07791599 -0.034949835 -0.12322544 0.037470605
000130 3c ba 79 3d 4d eb 64 3d ee c2 32 3d 10 fb f1 bb
       0.060968623 0.055888463 0.04364293 -0.0073846653
000140 41 71 aa bd f1 55 7b bc aa 54 e1 bd 0b 6b df 3d
       -0.08322383 -0.015340314 -0.110024765 0.10909089
000150 01 7d 46 bd 6b 92 c1 bc 19 fd d8 3c 41 69 78 bd
       -0.048459057 -0.023629388 0.026487874 -0.060647253
000160 f3 d8 a7 3d d6 af 0a 3d 5c bd 90 bc c1 38 9e bd
       0.08195677 0.033859096 -0.017668419 -0.07725669
000170 8f dc 21 be f3 76 0d ba 3d 8f 0a be ec 96 1b 3e
       -0.15806793 -0.0005396448 -0.13531204 0.15194291
000180 5d a5 17 be 2d cc 02 be 94 46 fe 3d af 6d 20 3e
       -0.14809175 -0.127732 0.124158055 0.15666841
000190 34 c3 f3 3d 79 36 c1 3d f4 e2 40 bc e6 61 e8 3c
       0.119024664 0.09434218 -0.01177286 0.028366994
0001a0 1b e1 de 3d 91 bf 2a 3e 87 44 f9 3d 52 9b a9 3d
       0.10882779 0.1667464 0.12171274 0.08281578
0001b0 fc a1 cb 3d c9 57 0f 3d 12 be 64 bd 2e 04 d0 3d
       0.099430054 0.034995828 -0.055845328 0.10157047
0001c0 cd 8b c1 3d 60 76 ed 3d 0b 0a 06 3d 00 5d 0b 3e
       0.09450493 0.11594844 0.03272442 0.13609695
0001d0 f7 1b 5e 3c 07 30 c8 3d 11 a5 46 3e 61 b7 5d bd
       0.013556472 0.097747855 0.19398905 -0.054129962
0001e0 d8 eb 2e be d1 1e 3d be d7 db 5a bd 0a 75 13 bd
       -0.17082155 -0.18468787 -0.053432312 -0.03600029
0001f0 e4 75 06 be 58 74 2f be 84 e9 15 bd 63 e4 01 be
       -0.13130909 -0.17134225 -0.03659965 -0.12684779
000200 f9 a9 c6 3a 1b 51 a3 3d 95 1e 0b be 3a 07 8d bd
       0.0015156857 0.07974454 -0.13585885 -0.06886144
000210 cf 94 65 3d ce 5e 30 3b 7d 9e 3e 3b 94 35 ed bc
       0.056050118 0.0026911977 0.0029086166 -0.028956212
000220 4b 3e 65 3d ce 28 09 be 78 35 03 be 15 24 14 3d
       0.05596761 -0.13394472 -0.12813365 0.036167223
000230 9e ca 97 bd db 00 59 bd 7e 0c 38 3d 6c 1d e5 bd
       -0.07411693 -0.05297933 0.04493379 -0.111872524
000240 da 19 71 bd 54 7b 8e 3d 25 27 a3 bd ad 12 a9 3c
       -0.058862545 0.06957117 -0.079664506 0.020638788
000250 16 8f cc 3c 3a c5 c9 bd ee 92 15 3e 98 e2 6e bd
       0.024970572 -0.09852071 0.1460683 -0.058321565
000260 11 2f 2b 39 8f 1b b4 bd 11 6e 0a be 19 0e ce bc
       0.00016325364 -0.08794319 -0.1351855 -0.025153207
000270 55 e0 3d 3d 1b 66 de bd fa 0c ae 3c d7 a2 a6 3d
       0.046356518 -0.10859319 0.021246422 0.08136528
000280 95 de 45 be d8 8f a7 bd 85 5a 02 3e a4 b4 f8 3c
       -0.1932319 -0.08181733 0.12729843 0.030359574
000290 d0 70 82 bb 0e 7d 2d be c5 28 e5 bd b3 54 bb 3d
       -0.0039807335 -0.16942236 -0.11189417 0.091470145
0002a0 13 4f 39 bd 01 4e 0a 3e d5 7d ee 3c 54 56 97 3d
       -0.045241427 0.13506319 0.029112736 0.07389513
0002b0 dc c3 c2 3d 08 bc b8 bd 5f 4e 05 3e 73 22 95 3d
       0.095100135 -0.09020239 0.13018177 0.07281961
0002c0 43 26 eb bd 7e 9e e7 bb b1 4e af 3d 5d c0 c1 bd
       -0.11481907 -0.0070684543 0.08559931 -0.094605185
0002d0 96 53 90 3d cd 68 a5 3d a4 4c f6 bd 4c 38 d5 bc
       0.07047193 0.0807663 -0.12026337 -0.026027821
0002e0 56 0f 12 3e 6a 59 61 bd b6 79 65 3d 09 12 29 3d
       0.14263663 -0.055016913 0.056024276 0.041276965
0002f0 be f7 a0 3d 4b 7c 9c 3d e6 09 e7 3c e3 0e c5 3d
       0.07859753 0.076408945 0.028202962 0.0962198
000300 6a a1 ee bd b8 82 87 3d d6 72 d9 bd 46 7e 13 bd
       -0.11651881 0.066167295 -0.10617606 -0.036009096
000310 79 b4 8c bd 9f 98 ee bd 94 b5 ee 3d 70 93 cd bc
       -0.0687036 -0.11650204 0.11655727 -0.025094718
000320 a2 96 e2 3d e3 57 d5 3d 27 5b ec 3d c5 fc d2 3d
       0.11063887 0.10417154 0.115408234 0.10302118
000330 2f 7a a3 bb bf 64 0e 3e e1 b9 43 bc d1 6a e7 3d
       -0.0049889307 0.13905619 -0.011946172 0.112996705
000340 ee db 03 3e 70 13 b0 3d 27 3a 92 bd ed 45 16 be
       0.12876865 0.085974574 -0.07139998 -0.14675112
000350 b5 c7 97 bd 1d 06 8e bd e3 2e f2 3d f2 10 c3 bd
       -0.07411138 -0.0693476 0.11825349 -0.095247164
000360 7e c9 d0 bb d0 af 1b 3d 78 8a fe 3d 0f 79 17 3e
       -0.006371676 0.038009465 0.124287546 0.14792274
000370 24 d8 e5 3c 83 5a 43 3d 82 7e 15 be 23 bf 0c bd
       0.028057165 0.04769374 -0.1459904 -0.03436197
000380 7f 77 5a 3d 5f fc db 3d 94 81 01 3e f9 82 0c 3e
       0.053336617 0.10741495 0.12647086 0.13721837
000390 fd 73 fc bc 73 56 1c 3e ba a0 92 3d 9c 74 ce bd
       -0.030817026 0.15267353 0.071595624 -0.10080835
0003a0 a0 1b a5 bc 2f 1b 10 bd b9 fb 86 3c 53 5f d0 bd
       -0.020154774 -0.035182174 0.016477453 -0.10174432
0003b0 10 88 03 3e 11 0f 26 be da 03 1c 3e 58 ce 15 3d
       0.12844872 -0.16216685 0.15235844 0.036573738
0003c0 3f 8f ed bc f2 d3 12 3e 86 97 f7 3d 13 ce b2 bd
       -0.02899897 0.14338663 0.12089448 -0.08730712
0003d0 90 01 b1 3d 0f 16 b1 bd e7 f4 eb bd 4c ed 09 be
       0.08642876 -0.086467855 -0.11521321 -0.13469428
0003e0 7c 13 1c 3c 6d 1c 53 bd 4a e7 03 bd 3b 8e b3 bc
       0.00952613 -0.05154078 -0.032202996 -0.021918407
0003f0 a6 80 fd 3d 1a fe a6 3d d7 77 e5 3d d8 7d c5 3d
       0.12378053 0.08153935 0.11204498 0.096431434

bias f4 [80]
000000 3d f9 b5 bd fe f8 66 bd 67 23 20 be 46 4e 91 bb
       -0.08885429 -0.0563898 -0.15638505 -0.0044343797
000010 a3 dc 16 3e b1 a1 c2 bc fc 8f ce bc 34 62 97 bd
       0.14732604 -0.023758741 -0.025215141 -0.07391778
000020 18 ef 3c 3b 9a ef 8d 3d e1 f9 1e 3e 60 d6 c4 3d
       0.0028829034 0.06930466 0.15525009 0.09611201
000030 22 37 85 3d 97 dc fc 3d dc 33 4c bd ec 41 68 bd
       0.065046564 0.12346762 -0.049854144 -0.056703493
000040 68 04 0d 3e 3f 3b fc bc b8 af e2 3d a1 21 d8 3d
       0.13771212 -0.03078997 0.11068672 0.10553289
000050 1d 0c cc bd 47 3d b7 3d 7f 16 12 be da f4 e6 bd
       -0.09963248 0.089472346 -0.14266394 -0.112771705
000060 0c d0 a8 bd 30 18 cf 3d cb 1b c6 3c 82 6c 7f bd
       -0.08242807 0.10112035 0.024183175 -0.06235934
000070 0d ff 1c be dd 21 b8 3d ce 91 a6 3d 00 44 2e bd
       -0.15331669 0.08990834 0.08133279 -0.04254532
000080 6b 21 73 bd 79 a8 ed 3d 8f a4 8c bd 95 9a 1c 3e
       -0.05935804 0.11604399 -0.068673246 0.15293343
000090 cf 1e 83 bd 5a 84 9a bd 52 57 02 3e fc c9 b2 bd
       -0.06402361 -0.07544775 0.12728623 -0.08729932
0000a0 54 2c 42 bd bd db 39 bd 83 64 b6 bd ef 97 d9 3d
       -0.047405556 -0.045375574 -0.0890589 0.10624682
0000b0 4d 47 12 3e 9e 46 1b be c9 2e 1e bd ee 5a 1c be
       0.14285012 -0.15163657 -0.038618837 -0.15269062
0000c0 78 ff ce 3d da 11 19 be 06 8b b2 bd 79 a4 00 be
       0.101073205 -0.14948216 -0.08717923 -0.12562741
0000d0 17 28 03 3e 69 8b 6c 3d 1d 15 21 3c 32 07 58 3c
       0.12808262 0.05775014 0.009831694 0.013185309
0000e0 b0 88 11 3e 13 6a 1d 3e e0 7f 23 3c 9c 09 a1 bd
       0.14212298 0.15372495 0.009979218 -0.07863161
0000f0 30 6c 92 3d 33 2b d8 bd 15 60 98 bd 07 32 13 3e
       0.071495414 -0.105551146 -0.07440201 0.14374553
000100 58 58 b6 bd 3f d2 bb bd 60 bc 87 bd ef 76 84 bd
       -0.08903569 -0.09170961 -0.066277266 -0.06467997
000110 57 7b 5d bd 9d 7e a1 bd 0d b1 8e bd db 86 1c bd
       -0.054072704 -0.07885478 -0.069673635 -0.038214546
000120 b1 49 a4 3d fd c3 d3 3d 4d 33 20 be 1f 74 19 3e
       0.08021868 0.10340116 -0.1564457 0.14985703
000130 bd 21 1f 3e a9 c2 98 3d 0a 90 b1 3d 2f 9d f8 bd
       0.15540214 0.074590035 0.086700514 -0.121393554

weight f4 [80]
000000 09 4a 84 3f b1 f5 78 3f a6 29 7d 3f eb e9 80 3f
       1.0335094 0.97249895 0.98891675 1.0071386
000010 37 70 7a 3f 1c a1 80 3f dc 2c 7d 3f 7c b1 81 3f
       0.97827476 1.0049167 0.98896575 1.0132289
000020 88 cf 7e 3f 51 fc 7d 3f 41 ec 80 3f e2 bc 79 3f
       0.9953542 0.9921313 1.0072099 0.9755384
000030 27 e9 84 3f c6 c9 84 3f d8 7b 80 3f e0 97 7c 3f
       1.0383652 1.0374076 1.0037794 0.9866924
000040 86 41 79 3f 91 de 7d 3f e6 fe 7d 3f 14 53 70 3f
       0.97365606 0.99167734 0.9921707 0.9387677
000050 9d 3f 82 3f 88 63 81 3f 06 7d 82 3f cb a4 80 3f
       1.0175663 1.01085 1.0194404 1.0050291
000060 a7 3f 79 3f 58 87 7f 3f 65 46 80 3f 8a 18 82 3f
       0.9736275 0.99815893 1.0021483 1.0163739
000070 12 a9 83 3f 8d 54 7b 3f 76 cd 75 3f 98 b2 81 3f
       1.0285971 0.9817589 0.96016634 1.0132627
000080 1a 0c 7c 3f 3b 9a 7f 3f 10 9f 81 3f f4 0b 7b 3f
       0.98455966 0.9984471 1.0126667 0.98065114
000090 e4 13 81 3f cb 3e 80 3f 43 57 7a 3f 15 87 84 3f
       1.0084195 1.0019163 0.977894 1.0353724
0000a0 c1 1c 85 3f 78 1d 84 3f 0d 75 7e 3f 9e 67 79 3f
       1.03994 1.0321493 0.99397355 0.9742373
0000b0 4a 27 79 3f c7 3f 82 3f 63 aa 87 3f cc 62 7a 3f
       0.97325575 1.0175713 1.0598873 0.97807
0000c0 c0 2e 79 3f 67 76 7e 3f 46 53 84 3f dd 51 82 3f
       0.9733696 0.9939942 1.0337913 1.0181233
0000d0 33 ae 80 3f b3 60 76 3f f9 8d 80 3f 0d 96 78 3f
       1.0053161 0.962413 1.0043327 0.9710396
0000e0 31 7c 80 3f 32 61 7d 3f 11 b8 7d 3f 13 da 7e 3f
       1.00379 0.98976433 0.9910899 0.99551505
0000f0 74 ec 81 3f 4d 69 84 3f b3 4a 72 3f 24 e8 80 3f
       1.0150285 1.0344635 0.9464523 1.0070844
000100 cf d6 80 3f b7 78 81 3f 7b a9 7b 3f d8 00 7c 3f
       1.0065554 1.0114964 0.9830548 0.9843879
000110 c1 43 7a 3f b9 1e 82 3f 88 e6 7a 3f e6 3d 7c 3f
       0.97759634 1.0165626 0.9800801 0.9853195
000120 d1 3d 84 3f 46 2f 80 3f 85 84 81 3f 22 e4 77 3f
       1.0331365 1.0014427 1.0118567 0.9683248
000130 a2 33 87 3f 42 1f 7f 3f 21 a1 80 3f c9 cc 82 3f
       1.0562632 0.9965707 1.0049173 1.0218745

bias f4 [80]
000000 d9 e5 ac 3c a6 8d ac 3c 4c 4c d2 3c 20 3a 05 3d
       0.021105694 0.021063637 0.025671147 0.032526135
000010 34 2b 8c 3d d5 ee 06 3d a6 61 cb 3c c7 36 7a 3d
       0.06844178 0.03294261 0.024826836 0.061087396
000020 27 24 a9 3c 3b 2f 9c 3c b8 99 88 3c 68 14 73 3b
       0.020647122 0.01906549 0.016674861 0.003709102
000030 89 65 22 3d bf 82 95 3d bb 20 02 3d 06 fe ab 3c
       0.039647613 0.073003285 0.031769495 0.020995151
000040 f4 ed ef 3c 7d 6c 0a 3d 45 3b f2 3c 8d 8b 3b b9
       0.02928827 0.03379487 0.029569278 -0.00017885696
000050 11 2f 36 3d 10 2a 46 3d 61 f3 24 3d ef 85 2c 3d
       0.04447848 0.048379958 0.040271167 0.042119917
000060 92 41 33 3d fb 15 0f 3d f1 46 86 3c 3d 56 f8 3c
       0.043763705 0.03493307 0.01639125 0.03031456
000070 eb 47 ab 3d f3 c7 04 3d 2b 45 72 3c 8a 7b 3a 3d
       0.08363327 0.03241725 0.014786999 0.045527972
000080 40 d7 96 3c f3 15 0c 3d 16 99 01 3d 41 69 be 3c
       0.018413186 0.03420062 0.031640135 0.023243548
000090 f5 5e ff 3c 8c d9 06 3d 8e 05 04 3b 49 39 91 3d
       0.031173209 0.032922313 0.0020144912 0.070910044
0000a0 f3 94 66 3d d1 49 53 3d aa 81 2e 3d b4 b0 8a bb
       0.056294393 0.05158407 0.042604126 -0.0042324904
0000b0 02 56 6c 3c be 36 2b 3d 7a 1f 60 3d 03 e5 bf 3c
       0.014424803 0.041800253 0.05471752 0.023424631
0000c0 2f 1e e3 3c 2a a7 b3 3c 1a 22 8e 3d bc 12 55 3d
       0.027724354 0.021930296 0.06940098 0.05201982
0000d0 a4 b0 d3 3c 4e ca 1d 3d 28 19 fb 3c 0e e2 17 3d
       0.025841065 0.03852301 0.030651644 0.037080817
0000e0 ad dd f1 3c 16 55 ea ba c0 55 8c 3c a0 e4 6b 3d
       0.029524649 -0.0017878141 0.017130733 0.05759108
0000f0 0a e2 0d 3d 38 ee 9f 3d 05 19 04 3c ce 7c 0a 3d
       0.034639396 0.078091085 0.008062606 0.03381043
000100 31 31 9c 3d 61 16 4f 3d 46 2e 1f 3d 44 c7 ed 3c
       0.0762657 0.05055845 0.03886249 0.029025681
000110 e0 73 e5 3c fa a3 b1 3c 77 6a 22 3c ff f1 ac 3c
       0.028009355 0.021684635 0.0099130785 0.021111486
000120 87 2d 63 3d 5b 5e 61 3d 60 7c 22 3d a3 4d a3 3c
       0.05546334 0.055021625 0.039669394 0.019934481
000130 e6 22 48 3d d4 5b fe 3c 37 c3 2a 3d 99 63 08 3d
       0.048861407 0.031049646 0.041690078 0.03329811

running_mean f4 [80]
000000 e6 10 75 be 4b 9c f2 3e 6e 7f ac 3e ac 0d 2e bf
       -0.23932227 0.47384867 0.3369097 -0.6798961
000010 0c 3b 4d 3e b8 08 04 3f 63 a1 a5 3e 34 8c e3 bd
       0.20042056 0.51575804 0.3234969 -0.11110726
000020 29 41 e3 be 73 69 6a 3e d2 ca c6 3b 67 aa 18 3d
       -0.4438565 0.22891788 0.0060666585 0.037271883
000030 29 e2 59 3d fa 00 82 3e 6f 8b d6 3d e6 e5 82 3e
       0.0531942 0.2539137 0.104758136 0.25566024
000040 1c 09 8c 3d 0f 73 5b be 25 2e b7 bc 2b da ca 3e
       0.06837675 -0.2143061 -0.02236087 0.39619574
000050 49 84 67 be 63 34 5b 3d f9 57 59 be 6c 1f bb bd
       -0.22609057 0.053516757 -0.21224965 -0.091368526
000060 e4 c4 d2 be ee 40 a1 be 6b f6 52 3e 9c 98 0b bf
       -0.4116584 -0.3149485 0.20601813 -0.5452974
000070 e5 51 b1 be 57 f6 bb 3e 49 d3 98 3e 80 e2 8b 3c
       -0.34632793 0.3671138 0.29848698 0.017075777
000080 bc d1 aa 3e c6 ee 02 3d c5 45 51 bd 6a 22 a4 3e
       0.3336314 0.031965993 -0.051091928 0.32057506
000090 ff e7 2a 3e 9b 9b d4 be b4 ee 72 3e 86 96 09 3e
       0.16690062 -0.41524968 0.2372387 0.13436326
0000a0 62 e6 c8 be dd 1c b5 be e2 e5 31 bf 29 1e c7 be
       -0.39238268 -0.35373583 -0.694914 -0.38890198
0000b0 18 9b cf 3e 3e da d2 be fe 09 b4 be 74 c1 fd 3d
       0.40548015 -0.4118213 -0.35163873 0.12390414
0000c0 b7 41 e6 3e ae b1 e1 be 98 8a 08 3d 97 93 3a be
       0.4497201 -0.4408087 0.0333353 -0.18220364
0000d0 a2 b1 31 be 93 74 40 3e 36 42 3b bd e8 03 16 3e
       -0.17352918 0.1879447 -0.04571744 0.14649928
0000e0 bf 64 87 3e f2 db 8c be 3b 58 fc b9 68 6b 43 be
       0.2644405 -0.27511555 -0.00048130922 -0.19083941
0000f0 16 44 9f be 19 af 34 bf a2 2b 4d be a4 db 97 3e
       -0.31106633 -0.7057968 -0.20036176 0.2965976
000100 20 9a 0e bf 05 45 a5 3e ec 56 93 be 3d 48 d5 be
       -0.55703926 0.3227922 -0.28777254 -0.41656676
000110 a0 7f 16 bf fb 58 fb 3d 3f 96 17 bf a6 d5 80 3e
       -0.5878849 0.12272831 -0.5921363 0.25163
000120 58 ad 4a be 5d 85 39 bd 04 6c a1 be 09 bb 11 3f
       -0.19792688 -0.0452932 -0.31527722 0.5692602
000130 1e f6 82 bc 72 52 66 be 26 9d 46 3e 4d c8 8a be
       -0.015986498 -0.22492388 0.19395885 -0.27105942

running_var f4 [80]
000000 84 64 a0 3e 9e 30 00 3e 18 9e 45 3e 83 15 46 3e
       0.31326687 0.12518546 0.19298589 0.19344144
000010 3f 0b 8b 3e 74 b3 8a 3e be 1a 92 3e 07 43 76 3e
       0.27157018 0.27090037 0.28536028 0.24049006
000020 5f 23 f3 3d 4a e9 16 3e b5 34 44 3e 45 e0 24 3e
       0.11871981 0.1473743 0.19160731 0.16101177
000030 e1 d7 e2 3e 0c ad a5 3e 0c ac 0f 3e 81 48 8d 3e
       0.44305328 0.32358587 0.14030474 0.2759438
000040 c3 9a 88 3e 3f e9 e0 3d b9 f3 28 3e 13 5b 76 3e
       0.26680574 0.10981988 0.16499223 0.2405818
000050 d1 94 49 3e 07 02 89 3e 06 63 73 3e 5c 87 5e 3e
       0.19685675 0.2675936 0.23768243 0.21731323
000060 32 c4 1f 3e 89 ac 28 3e fe 4e 02 3e 82 b8 48 3e
       0.15602186 0.16472067 0.12725446 0.19601634
000070 e0 49 9d 3e 81 ff 6b 3e be 58 4c 3e 0e 7b 78 3e
       0.30720425 0.23046686 0.19955727 0.24265692
000080 70 0b 47 3e 99 aa 66 3e d5 46 51 3e 5a 4a 28 3e
       0.19437957 0.22526015 0.20437177 0.16434613
000090 bf ae 85 3e dd 86 8f 3e 29 04 79 3e 68 ec 5c 3e
       0.26109883 0.2803258 0.24317993 0.21574557
0000a0 02 46 83 3e 9e 34 3a 3e 18 7a 34 3e 15 24 82 3e
       0.2563935 0.18184134 0.176247 0.25418153
0000b0 27 45 3f 3e 5f ac 3c 3e 7f 12 8f 3e c4 c7 cd 3d
       0.18678723 0.1842513 0.279438 0.10047868
0000c0 19 cc 6a 3e 04 a3 ec 3d af 24 62 3e 64 bd 7d 3e
       0.2292942 0.1155453 0.22084306 0.24779278
0000d0 c8 62 82 3e b4 fe 5b 3e fa c7 26 3e 78 7e 23 3e
       0.2546599 0.2148388 0.16287223 0.15966213
0000e0 ad 3d 8a 3e 66 66 41 3e 71 d8 4c 3e 50 cc 84 3e
       0.2700018 0.18886718 0.20004441 0.25937128
0000f0 ce 61 51 3e cc aa 10 3e b9 86 ab 3d 3b f6 27 3e
       0.20447466 0.14127654 0.08375306 0.16402523
000100 33 8e 66 3e 9b 3c 81 3e 12 9b 83 3e 62 95 f0 3d
       0.22515182 0.2524155 0.25704247 0.117472425
000110 29 f0 23 3e 9c 93 3a 3e 48 19 37 3e e7 34 8d 3e
       0.16009583 0.18220371 0.17880738 0.27579424
000120 62 98 52 3e ed 38 04 3e 41 1c 92 3e ff c9 b1 3d
       0.20565942 0.1291234 0.2853718 0.08681106
000130 e4 2b 50 3e bd 5d 35 3e 2b ba 7a 3e b1 ba e1 3e
       0.20329243 0.1771154 0.2448508 0.44087747

weight f4 [160, 80]
000000 78 bc 4b bd 6d b8 73 bd fd 0f f4 bd b1 62 9b bd
       -0.049740285 -0.059502054 -0.11917112 -0.07587183
000010 f3 4d 9c 3d 38 c5 b7 bd cc 93 d3 3d 96 e9 08 3d
       0.07632055 -0.08973163 0.103309244 0.03342589
000020 cc 37 32 3d cf 0c 08 bc eb 25 a6 bd 32 d1 cb bd
       0.043510243 -0.008303835 -0.08112701 -0.0995201
000030 3f 8b e6 ba 7f bc e0 3d ca 8e a6 bd c3 1f 94 bd
       -0.0017589106 0.10973453 -0.081327036 -0.072326206
000040 0f 4d 83 bd e6 d1 1f bd 25 6f 86 bc be d6 17 bd
       -0.06411182 -0.039018534 -0.01641042 -0.03707003
000050 67 b6 ae 3d 86 8d 64 3c 77 31 7f 3c 42 94 ba bd
       0.08530884 0.013949757 0.015575758 -0.09110309
000060 a1 87 06 3d 00 1b 6d bc c8 ab b1 bb 39 00 7d 3d
       0.03284419 -0.014471769 -0.0054220892 0.06176779
000070 af 40 da bc c9 61 d1 bb 3b fa 1c 3d 4a fc ae 3d
       -0.026642172 -0.0063898307 0.038324576 0.08544214
000080 14 d3 81 3d 0d 53 b9 bc f6 01 0a bd 36 18 bc bc
       0.06339088 -0.02262261 -0.033693276 -0.022960763
000090 1f a5 83 bd ef 15 48 3c 47 1a 56 3c a8 c1 d5 3c
       -0.06427979 0.012212261 0.013067788 0.026093319
0000a0 e2 f8 16 bd d1 54 05 3d 9e cb 90 bc cb e6 ab bd
       -0.036858447 0.03255159 -0.017675217 -0.0839363
0000b0 bd b7 a1 bd 1f 1d c9 3c 97 ab 26 bd 5a c7 a5 bd
       -0.078963734 0.024550019 -0.040690985 -0.08094664
0000c0 d1 01 23 3d bf eb 36 3d 94 05 06 3d cc 7a d9 3d
       0.039796654 0.04465842 0.032720163 0.10619125
0000d0 2d 21 65 3d 3c 67 0e bd 8b f1 2f bd 54 73 66 3d
       0.055939842 -0.03476642 -0.042954963 0.05626233
0000e0 32 4d eb bd 8e 6f f2 bd 05 21 6d bc 21 2a e3 3c
       -0.11489333 -0.118376836 -0.0144732045 0.02773005
0000f0 bf 98 cb 3c 9a 60 a0 3c 55 93 59 3d 03 9e f3 3d
       0.024853108 0.019577313 0.053119022 0.11895373
000100 4c 67 2a 3c 3e cf aa bd 4c c0 26 3d 4c 13 c7 3d
       0.010400604 -0.083403096 0.040710732 0.097204775
000110 38 99 c0 3d 52 20 a2 3d 56 29 c0 bc dc 79 a5 3d
       0.09404224 0.07916321 -0.02345721 0.080798835
000120 31 e8 2a 3d ee 58 f8 bd 2f 92 8d 3d bf 45 dd bd
       0.04172534 -0.12126337 0.06912648 -0.10804319
000130 24 9d 11 3d eb 24 90 3d 8d 4e d5 3d 2b a1 86 bd
       0.03555025 0.070382915 0.10415373 -0.06573709
000140 b8 46 c2 bd ff 24 6b bd 36 5d ec 3d fd 27 c9 bd
       -0.09486145 -0.05740833 0.11541216 -0.0982208
000150 42 ff df 3c e0 69 b4 bd 7e 5b 56 bd a1 19 83 bc
       0.027343396 -0.088092566 -0.052333347 -0.016003432
000160 21 44 0f 3c d7 40 bc bd 8c 54 a2 bd 32 18 34 bd
       0.008744271 -0.09192055 -0.07926282 -0.043968387
000170 1c 91 5e bd ea 77 9e 3d 37 20 2e bd 49 fa df bd
       -0.054337606 0.077377155 -0.04251119 -0.1093641
000180 46 06 86 3d ce 3a 08 bd 0d 26 74 bd 62 19 8f 3d
       0.06544165 -0.033259206 -0.0596066 0.06987263
000190 39 f0 58 3d 28 78 e1 3d 24 c4 cb 3d 13 e4 8a 3d
       0.05296347 0.11009246 0.0994952 0.06781783
0001a0 3c 36 b9 bd 9c 96 df 3c fb 15 12 ba e3 a7 d0 3d
       -0.090435475 0.027293496 -0.00055727334 0.10188272
0001b0 20 ad 37 3d ce a9 d9 3d be 57 e4 bd bf 56 a3 3d
       0.04484284 0.10628091 -0.11149548 0.0797553
0001c0 16 81 d4 bd 96 d1 8f bc 51 7b 01 3e 50 6c 55 bd
       -0.10376184 -0.017555993 0.12644698 -0.052105248
0001d0 12 54 92 3d 88 af 11 3d 4a b4 a4 3d 20 b6 38 bd
       0.071449414 0.03556779 0.080422 -0.045095563
0001e0 a4 13 95 3b 28 84 2e bd 26 33 a5 3d ea ea 11 3d
       0.0045494605 -0.042606503 0.080663964 0.035624422
0001f0 94 c7 d5 bb 4a ef ea bd 0a b7 9f 3c a5 27 9b bd
       -0.0065240357 -0.11471422 0.01949646 -0.07575921
000200 b1 1e 34 3d 39 6c 68 3d f1 14 e4 3c e3 6f 94 3c
       0.043974582 0.056743834 0.027842017 0.018119758
000210 94 90 80 3d c7 ec a6 bd 73 dc dd 3c ab ea fc bc
       0.06277576 -0.081506304 0.027082657 -0.030873617
000220 c8 ea 45 3d e1 4d d6 bd 1a 2e 68 3d e6 72 9b 3d
       0.048319608 -0.10464073 0.05668459 0.075902745
000230 18 ed 89 bb 61 2b bb bd e1 70 b9 bd 81 de 7e bd
       -0.004209172 -0.09139133 -0.09054733 -0.062223915
000240 2f 0c 31 bb 4c 78 a8 bd b4 a8 bb 3c 54 c2 03 bd
       -0.0027015319 -0.0822607 0.022907592 -0.032167748
000250 5c 1d 9e bd 18 82 a0 bc 04 28 97 3d 58 85 f8 bd
       -0.077204436 -0.019593284 0.07380679 -0.12134808
000260 6a b9 ca bd e4 a8 3d 3d 58 44 55 bd b6 e7 cb bc
       -0.09898646 0.046303645 -0.05206713 -0.024890762
000270 78 ae e8 bd 04 49 a5 bc 6b b8 93 3d cd 58 9f 3d
       -0.11361402 -0.020176418 0.07212909 0.07780609
000280 a7 b5 6e bd cb 6c 58 3d ff ca af bd 0f e5 b1 3c
       -0.058278706 0.052838128 -0.0858364 0.021715669
000290 a1 c9 9e bd 31 71 93 3b 8b 79 89 bd 41 46 fb bd
       -0.077533014 0.0044995775 -0.067126356 -0.12269259
0002a0 4a 5d ca 3d b0 a4 54 3d 60 2b 66 bc 5a 00 92 bd
       0.09881075 0.05191487 -0.014048427 -0.07128973
0002b0 14 ca e7 bc a3 d3 af bd ad c4 96 3b 74 67 82 bd
       -0.0282946 -0.085852884 0.0046010823 -0.06367388
0002c0 27 fd d9 bd 45 84 ec 3d cd de 31 bd 48 39 b8 bd
       -0.10643988 0.11548666 -0.04342537 -0.089953005
0002d0 a1 80 c6 3c 8e d6 13 3c 31 bb a0 3a 7f 85 a0 3b
       0.024231257 0.009023322 0.0012262819 0.0048987265
0002e0 a1 57 89 3d 9e 3b 45 bd a5 67 a8 bd 3f 71 d9 bd
       0.06706167 -0.04815256 -0.082228936 -0.10617303
0002f0 8a 7b 66 3d b6 02 c9 bd 21 71 f8 bd f4 fd ce bb
       0.05627016 -0.0981497 -0.121309526 -0.0063168947
000300 38 5f c7 bd 14 3d 81 bc 08 57 3a 3b 70 a0 a1 bb
       -0.097349584 -0.015776195 0.0028433222 -0.0049324557
000310 25 ac 82 bd 23 fb b9 3d cf bc bc bc a1 29 b0 bd
       -0.0638049 0.09081104 -0.02303925 -0.0860169
000320 59 44 e3 bc 08 b1 8f bb 17 1b 82 bd ac 0b b0 bc
       -0.027742552 -0.0043851174 -0.06352823 -0.02148994
000330 ba 84 88 bd ba 43 ba 3d 46 11 97 bc d4 e2 59 3d
       -0.066659406 0.09094949 -0.018440854 0.053194836
000340 bf cb cd bd e8 00 ad bd 99 98 19 bd 61 3f 4e bd
       -0.10048627 -0.084474385 -0.037499044 -0.05035341
000350 eb 81 d9 bd 8c e7 ca bd 16 47 af bd 03 4b 30 bb
       -0.10620483 -0.09907445 -0.085584804 -0.002690018
000360 41 d6 a1 bd b7 b0 a5 bd 51 7e 90 3c 8f 34 e4 ba
       -0.07902194 -0.08090346 0.017638357 -0.0017410683
000370 3a 9f 4c 3d bc ba 52 bc 8a c4 b0 bb 7c 97 e3 3c
       0.049956538 -0.012861904 -0.005394523 0.027782194
000380 29 ce 69 bb f6 6f ce bd 1c 34 09 bb 50 ea c7 bd
       -0.003567586 -0.100799486 -0.00209356 -0.097614884
000390 d4 c7 b2 bd 2d 6a af bc ab 9a b1 3c db c2 87 bb
       -0.087295204 -0.021412933 0.021680197 -0.0041431016
0003a0 ed f1 c2 3d 45 c6 0a bd d2 61 9f bd 83 3c 95 bd
       0.095188 -0.03388049 -0.077823296 -0.07286932
0003b0 6a 3f b5 bd f5 e3 79 3d 95 2b c8 bd 4f 54 a0 3a
       -0.08849986 0.061008412 -0.097739376 0.0012232157
0003c0 fa b8 b4 bd ca 2d 1f 3d aa d0 90 bd f6 3b f7 3c
       -0.08824344 0.038862027 -0.070710495 0.030179959
0003d0 23 e9 d8 3b bd b7 b8 bd 68 d3 f0 3b 3d d4 a0 bd
       0.006619589 -0.0901942 0.0073494203 -0.07852981
0003e0 49 f2 dc 3c e0 73 98 38 88 75 19 3d 87 b5 14 3b
       0.026971 7.269508e-05 0.037465602 0.0022691207
0003f0 a5 4c 4e bd d9 25 ee 3c 6c f2 c3 bd 22 ed b6 bd
       -0.050366063 0.029070782 -0.09567723 -0.08931948

bias f4 [160]
000000 d1 0f a9 3d fb 46 04 3d 51 13 37 3d e4 0f a3 bd
       0.0825497 0.032294255 0.044696156 -0.07962015
000010 19 8c 8d 3c 69 df b3 3d 33 84 01 bd 3e 55 b1 bc
       0.017278718 0.087828465 -0.031620216 -0.021647092
000020 1a e2 77 3b da 93 d6 3d d6 31 d3 bd 2b a6 cf bd
       0.0037823976 0.10477419 -0.1031224 -0.10139116
000030 9e cf d7 bd 69 f1 aa bd 5f 92 8f bc b7 5d 14 3d
       -0.10537647 -0.083468266 -0.01752585 0.036222186
000040 a9 38 9a bc 2f 9d e1 3d a7 04 01 3d 85 d7 15 bc
       -0.018825846 0.110163085 0.031498577 -0.009145622
000050 23 28 10 3d 5d 87 65 bc 84 12 11 bc 8b 27 e1 bd
       0.035194527 -0.014009324 -0.008854512 -0.1099387
000060 d9 05 97 bd 31 f9 ad 3c 30 1e 36 3d c6 bb d7 bd
       -0.07374162 0.021236988 0.044462383 -0.10533862
000070 27 3d 73 3d d1 a4 9f 3c 9e 2e 1e bd c7 0a 65 bb
       0.05938449 0.01948777 -0.038618676 -0.003494905
000080 05 bd 6c bd 74 3f 4b 3d a3 65 1a 3d 30 19 35 3c
       -0.05779745 0.04962106 0.037694585 0.011053368
000090 88 ac ce bd 1a 7e ef 3c 79 c0 a3 bd d7 49 98 bc
       -0.100915015 0.029234935 -0.079956956 -0.018589897
0000a0 20 0c 7d 3d 81 21 52 bd 55 41 d9 3d 99 ae f1 bc
       0.06177914 -0.051301483 0.10608164 -0.0295022
0000b0 dc ff 35 3d ef fe 4d bd 64 df d7 bd eb e4 c0 bd
       0.04443346 -0.05029195 -0.10540655 -0.09418663
0000c0 32 31 9c 3d 76 1d f3 bc 6d 02 5c bc b0 41 c0 bd
       0.07626571 -0.029677134 -0.013428313 -0.09387529
0000d0 36 f8 d2 bd a9 b5 ba 3d 5e 7a 40 3d e6 53 c4 3d
       -0.10301249 0.0911668 0.0469917 0.09586315
0000e0 4c 47 9d bd 6c 11 c6 bd f1 f5 d0 3d d1 cd a4 bd
       -0.076796144 -0.09671292 0.102031596 -0.08047069
0000f0 90 70 1b bc 03 77 ce 3d 5f b0 be 3d bd 19 48 3d
       -0.009487286 0.100812934 0.09310984 0.04885267
000100 2f b1 15 bd ce 70 aa bd dc 08 9c 3d 2c 0c b5 bc
       -0.03654593 -0.08322297 0.07618877 -0.02210053
000110 be 22 e4 bd 48 67 2a 3d 90 ed 40 bd f7 a2 9f bd
       -0.11139439 0.041602403 -0.047101557 -0.07794755
000120 65 f6 9b 3d 24 de c9 3c 96 c9 3e bd 68 c9 02 3d
       0.076153554 0.024642058 -0.046578966 0.031930357
000130 c1 bf 9e bd d4 a7 38 3b 82 d5 a3 bd 51 7e 46 3b
       -0.07751418 0.0028176205 -0.07999708 0.0030287693
000140 ea 1a 5a bc 7c f8 f2 3c e1 a9 bd bd 44 57 93 3d
       -0.013312081 0.029659502 -0.092609175 0.07194379
000150 5b e5 b2 bd a5 6d 61 bd 05 f0 6e bd a2 f5 94 3d
       -0.08735152 -0.055036206 -0.05833437 0.07273413
000160 f9 43 67 bc e3 76 0c bd e7 73 aa bb e9 22 67 bd
       -0.014115327 -0.034293067 -0.005201805 -0.056429777
000170 ff 25 ec bc 12 2b 48 3d 94 08 55 bd 77 63 48 3d
       -0.028826712 0.0488692 -0.052010134 0.048922982
000180 7b 5e 81 3b 04 00 d0 3c 2c e6 a0 bd 36 4b c0 bd
       0.0039480305 0.025390632 -0.07856402 -0.09389345
000190 47 34 d3 3d 00 61 e2 3d bc 4e 54 bd 44 c5 c9 bd
       0.103127055 0.110536575 -0.0518329 -0.098520786
0001a0 c0 0f 6c bd 31 60 97 3d 09 45 d7 bd 3a 29 83 3c
       -0.057632208 0.07391394 -0.10511214 0.01601087
0001b0 37 45 96 bd 59 13 9a bc 29 55 53 3d 0d 29 13 3d
       -0.073374204 -0.018808054 0.051594887 0.03592782
0001c0 2a 3f e8 bc f1 ba 01 3c 73 b3 8f 3d 09 4e ad bd
       -0.028350431 0.007918105 0.07016649 -0.0846215
0001d0 1d 59 6f bd df 50 ab bd aa f3 5f bc a5 f5 98 bd
       -0.058434594 -0.08365034 -0.013668934 -0.07468728
0001e0 d2 bd 2c 3d a6 23 18 3a 17 c9 dc bc ca db d0 3d
       0.042173214 0.0005803652 -0.026951356 0.101981714
0001f0 95 25 db 3d ad 8f c6 bd a5 43 da 3d ea bc af 3d
       0.107005276 -0.09695373 0.106574334 0.085809544
000200 a9 07 3c bd fc 06 cf bd 51 58 63 bd 45 bd 06 bd
       -0.045905743 -0.10108754 -0.055504147 -0.032895345
000210 45 b4 73 3d 4c b3 93 3c 6c b0 be 3c 29 b2 c0 3c
       0.05949809 0.018029831 0.023277484 0.023522453
000220 0d 9b 41 bd ba 24 16 bd 66 a5 b1 bd fd 0c d5 bd
       -0.04726701 -0.03665612 -0.086741254 -0.10402868
000230 fb 31 c0 bd bb f4 8e 3d 42 69 d1 3d 7e b9 c6 3d
       -0.09384533 0.069802724 0.102251545 0.097033486
000240 7f 03 9e 3d 8d b1 cb 3d 0d 17 d4 bd 8c 2a c0 bd
       0.077155106 0.099459745 -0.10355959 -0.09383115
000250 20 02 9a 3c c3 b9 65 3d 36 9a c7 3b cc 5b 7b bc
       0.018799841 0.05608536 0.0060913814 -0.01534171
000260 e1 0f bf bd 87 ea 8a bd ae a4 60 bd 81 5a 91 bd
       -0.093292005 -0.06783014 -0.05484455 -0.070973404
000270 6a 74 bb bd 2a 1f 84 3d b3 a1 e4 bb d9 59 d6 3d
       -0.091530636 0.064512566 -0.006977284 0.10466356
